mlops-23-autumn/triton/model_repository/onnx-human-activity/1/model.onnx (onnx, 324094 bytes, 16 tensors)

fc1.weight f4 [64, 562]
00000000: e663 0bbd edc5 83bc 8004 4c3c 5c9b 973c
00000010: 82d0 073b 007d c13b 218b 293d a576 1a3b
00000020: 940f 11bd cbd8 03bd 71d1 a4bc f9b7 b0bc
00000030: 2412 14bd ebab db3b cd43 b3bc e5fd 24bc
00000040: 4d3e 0c3c b4d9 4aba bdbf fcbc 0a39 073c
00000050: c4e6 17bd e6a3 e33c d442 0bbc 82e0 833c
00000060: a278 1b3d 351b f53c d776 283d cc2c 123d
00000070: d5c8 92bc 4848 e73c 8b88 0a3c 68e5 23bd
00000080: 28ff 5abc 63ac 0b3d 0849 c8bb 8482 d63b
00000090: 16ed 8e3c 5ebe 253c 67e1 803b f43f 1a3d
000000a0: 81be a63c 3c7f f63c 4f89 203d b185 0a3d
000000b0: d620 6d3b e1be 04bd 6fe9 1a3c 7573 193d
000000c0: 6bfb 053d 972d cbbc f11e ac3c ddc8 3cbc
000000d0: db12 9d3c 74a5 94bb 1cc4 eabc cfa1 c83b
000000e0: 145b fa3b 872f 3c3c c51a fabc b41f 413c
000000f0: 5953 1e3d f6e9 763c c2da c5bc fb0f 14bb
00000100: 66a1 1dbd b4ed 0f3c 05ee fbbc f9e3 a73c
00000110: 7c67 223c 1c23 133d 1843 91ba 5f49 953c
00000120: a738 90bc 5a32 d33c fdb6 0d3d 8582 d1bc
00000130: 3752 e5bc d3be 013d fb1f a93c 5716 79bc
00000140: afbc 1ebd 6d8e 0ebd 378f 1dbc 7b3e bdbc
00000150: a5fd 8bbc fada 1fbc fa94 133d 7153 c8bc
00000160: 7dc7 d73b 2987 08bd e6e6 a63c ae51 cb3c
00000170: 5e28 1cbd 69bf 1d3d 8e5f 183d 6b4c 26bb
00000180: 2665 993c a32e e9bc a8a5 fcbc b3bb 1d3d
00000190: 6fb5 f43b e066 1dbd c6ed 163d 8d09 083d
000001a0: 2a80 073d a7d4 13bd 3800 14bd c6aa 233d
000001b0: 90c2 29bd 6bc2 d4bc fe78 9bbc fa4e 41bc
000001c0: abed 03bd c7ae 52ba c0dc ec3c 9656 aabc
000001d0: ad0a 363c 36e0 063d 68a6 91bc 498a 00bd
000001e0: 3e5c f13c 37f2 1dbd 0a41 55bc 0bd7 843b
000001f0: 0237 cabc 0f20 0ebb 4867 0dbd f92c 1e3c
00000200: 972a 28bd 0c36 dc3c 4466 513c bb1b 973c
00000210: a2a2 753b 946a 8b3c 1a94 bdbc 1bb8 14bd
00000220: 18d9 0cbd bd37 ce3c aab4 553b b248 d83c
00000230: 218d 9a3c 5c36 b8bc f19c 8fba 2aaf b4bc
00000240: 8644 c43c 8da1 c2bc 6494 b2bc 1779 02bd
00000250: c312 02bd 586d 98bc 1409 1fbd 8651 1bbd
00000260: d734 1b3d 6e66 043d 7d19 673b 21ec d3bb
00000270: 467a 09bd e7d6 743c 477d debc 04a0 18bc
00000280: ad97 f43c 41d4 c23c 2a69 243d 2c5b 22bd
00000290: 5a00 c5bb e606 453c 8728 0c3d 9224 1dbd
000002a0: ae01 f83c 2d80 133c d98a d9bc 9bbc 1c3d
000002b0: d981 28bd 3566 533c 26fc 07bd 62ab 5eba
000002c0: 6dcc 993c 6e4c e8bb d0f6 e23a 1f05 e1bc
000002d0: a419 083d 3684 64bc 9820 863c aeda ee3c
000002e0: 8261 3eba 7855 28bd e48b ea3c 105c ed3c
000002f0: 868e f5bc 8061 43bc 2138 26bd 8431 59ba
00000300: e1ee 13bd 0a59 6fbc 7af1 14bd 86da 46bc
00000310: 5013 0c3d b1f4 dc3c 5575 d2bc fe87 98bc
00000320: 12f3 70bb 2a72 a33c ae08 233c 664c 4abc
00000330: 53d3 11bb c52f 1dbd 562b cebb 9085 0dbd
00000340: 1a76 7fbc e20d 26bd de53 aebb 4432 2bbd
00000350: 258c 553c db24 c53c ea94 24bc 4ee1 96bc
00000360: c6ef a6bb ce70 bfbc 3067 c73a 3bd6 f5bc
00000370: 7877 dabc 14db 153d a317 d83c ef57 3d3c
00000380: 7f74 24bd 7ded dbbc 4f7a 11bd 2971 1dbb
00000390: c850 1a3d bc29 d8bc 1621 23bc ec71 493c
000003a0: dbca 04bd 5484 1a3d 8ac6 673c b064 1e3d
000003b0: 0f62 d43c 8c70 0fbd e957 2fbd 16e8 ebbb
000003c0: c22c d23a d0d3 203d e434 f2bc 360e 883c
000003d0: 446c c23c 9514 d4bc 371d 783c 495a c03b
000003e0: 479a f83c adc2 10bd 5546 ccbb f61a 0fbc
000003f0: 537b cabc f50c 5dbc 703f 2bbb f538 a4bc
-0.034030817 -0.01608559 0.012452245 0.018506698 0.0020723646 0.0059047937 0.04139245 0.0023569253
-0.035415247 -0.03218917 -0.0201194 -0.0215721 -0.036150113 0.006703844 -0.021882916 -0.010070299
0.008559776 -0.0007738129 -0.030853147 0.008253345 -0.03708531 0.027788114 -0.00849982 0.016098265
0.03795684 0.0299202 0.04112896 0.035687253 -0.01791803 0.028232709 0.008455406 -0.0400137
-0.013366498 0.034099948 -0.0061122216 0.0065463204 0.017447036 0.010116188 0.00393312 0.037658647
0.020354511 0.030089967 0.039193448 0.033818904 0.0036182902 -0.0324086 0.009455069 0.037463624
0.032710474 -0.024802012 0.021010848 -0.011522499 0.01917403 -0.004536325 -0.028657965 0.0061228047
0.007640252 0.011485941 -0.030530343 0.011787344 0.038653705 0.015070429 -0.024152163 -0.0022592533
-0.038484 0.0087847 -0.030753145 0.020494448 0.009912368 0.035922155 -0.0011082618 0.018223463
-0.017605139 0.025780845 0.03459834 -0.025574932 -0.027993305 0.031676125 0.020645132 -0.01520308
-0.03875416 -0.034803797 -0.009616665 -0.023101082 -0.01708872 -0.009756798 0.036030747 -0.02445385
0.00658506 -0.033332024 0.020373773 0.024819221 -0.038124435 0.03851262 0.037200503 -0.0025375139
0.01872499 -0.028464621 -0.03084071 0.038509082 0.0074679176 -0.038428187 0.036847852 0.033212233
0.03308121 -0.036091473 -0.03613302 0.039957784 -0.041445315 -0.025971612 -0.018978592 -0.011798615
-0.03220908 -0.0008036908 0.028913856 -0.02079324 0.011110944 0.032928668 -0.017779544 -0.03138188
0.02946293 -0.038561072 -0.013015995 0.0040539554 -0.024684433 -0.002168659 -0.034522325 0.009654277
-0.04105624 0.02688124 0.01278073 0.01844584 0.003748097 0.017018594 -0.02314191 -0.03630839
-0.034386724 0.025173062 0.0032608905 0.026401851 0.018866124 -0.022486858 -0.0010956806 -0.022056181
0.023958456 -0.023758674 -0.021799274 -0.03185376 -0.031756174 -0.018606827 -0.038827017 -0.037919544
0.03789219 0.032324247 0.0035262995 -0.0064673577 -0.033563875 0.014943815 -0.027159346 -0.009315494
0.02985748 0.023782851 0.040139355 -0.03963773 -0.006012005 0.0120255705 0.034218337 -0.038364954
0.030274238 0.009002727 -0.026555466 0.038265806 -0.041139457 0.012902786 -0.033199452 -0.0008494166
0.018774236 -0.0070891893 0.0017315987 -0.027468262 0.033227578 -0.013947537 0.016372964 0.029157009
-0.00072624546 -0.041097134 0.028631158 0.028974563 -0.029975187 -0.011925101 -0.040580872 -0.00082852715
-0.036116485 -0.014608631 -0.036363102 -0.012137061 0.034198105 0.026972147 -0.025690714 -0.018619534
-0.0036765975 0.019951899 0.0099508 -0.012347316 -0.0022251203 -0.038375635 -0.006291787 -0.034551203
-0.015592122 -0.040540583 -0.0053200563 -0.041795984 0.013033901 0.024065426 -0.0100452695 -0.01841798
-0.005094501 -0.02336922 0.0015213247 -0.03000938 -0.026668295 0.036585882 0.026378458 0.0115566095
-0.04015016 -0.026846642 -0.035517033 -0.0024023748 0.037674695 -0.026387088 -0.009956619 0.0122952275
-0.03242002 0.037723854 0.0141464565 0.03867024 0.025925664 -0.035019442 -0.042808447 -0.0071992977
0.0016035067 0.0392645 -0.029566236 0.016608339 0.023733266 -0.02588872 0.015143684 0.005870138
0.030347003 -0.035341907 -0.00623397 -0.008734455 -0.024717009 -0.013491859 -0.002613034 -0.02004669

fc1.bias f4 [64]
00000000: a945 15bd 4ee3 16bd e07f c83b 9898 e4bc
00000010: 7dff 09bd aaf3 103d a5c0 ffbc 1cf8 0f3d
00000020: 51fb 0dbd 93cb 94bc 115c bcbc cc90 2b3c
00000030: ca3c 283c 5148 093d 03e0 e73b 4e64 5fbc
00000040: 18e4 94bb 6a52 1a3c 1967 383d eba4 87bb
00000050: 3d5a 213d 5d96 57bb 77b0 2ebd 3286 ce3b
00000060: bf50 b93c 8189 24bd 8fb7 e3bc b521 f1bc
00000070: 6b5e dfbc 10ee f9bc 5da6 f83c a6ba d2bc
00000080: 80eb 073d 918c c7bb d183 ce3c 5cf5 333d
00000090: 0420 563c 6fa9 243c 9345 0c3d afbd c93c
000000a0: 700e debb e382 ee3b 3505 dd3c 6a46 293d
000000b0: fd3e e4bb d57e ab3b e473 ffbc 935f 023d
000000c0: c702 6f3c cbad 57bc b373 b73c 1e05 873c
000000d0: 85e9 18bc 3d3b 6b3c 01f7 89bc 84fd 3c3b
000000e0: 117c 793b b33c 5e3c b464 65bb a95f 09bd
000000f0: e824 c23a 6547 ebb8 1184 7f3c 8b9c f93c
-0.036443386 -0.03683787 0.0061187595 -0.027904794 -0.03369092 0.035388626 -0.03121979 0.035148725
-0.034663502 -0.018163478 -0.02299312 0.010471534 0.0102683995 0.033516232 0.007076265 -0.013634754
-0.0045437925 0.009419063 0.045020197 -0.004139533 0.0393927 -0.003289602 -0.04264876 0.0063026184
0.02262151 -0.040170196 -0.027797488 -0.029435018 -0.027266702 -0.030509025 0.030352766 -0.025723767
0.033183575 -0.006089755 0.02520934 0.043935165 0.013069157 0.010050162 0.03424604 0.024626581
-0.0067766234 0.0072787865 0.026980022 0.041326918 -0.0069655166 0.0052336254 -0.03118319 0.031829428
0.0145880645 -0.013163994 0.022394037 0.016481932 -0.009333019 0.014357385 -0.016841413 0.002883763
0.0038068334 0.0135642765 -0.003500265 -0.033538494 0.0014812024 -0.000112189715 0.015595452 0.030470153

fc2.weight f4 [64, 64]
00000000: 84ff 74bd 88a0 84bc 402d b33c 68bc eebc
00000010: d8b6 b23d 00b2 af3b f208 b2bd 4274 eabd
00000020: 1061 d33d cea8 f73d e05a 243c c00f 833c
00000030: ac71 be3d 487e 86bd b06c 333c e061 b4bb
00000040: 92e5 eebd 6207 c4bd 12bf babd 7822 a83c
00000050: 98c1 853d 38bd 663d 4c29 f4bd 8834 48bd
00000060: 6079 e5bb 2621 d3bd bc4b 233d 460f 8dbd
00000070: 9aaa 9b3d e89c 3a3d e03d 523c b05a a8bc
00000080: 0017 47bd fca1 41bd 00b7 67bb 9047 e7bd
00000090: ecda 863d a09f 013d 92d3 963d 26bd e8bd
000000a0: 66e8 9fbd a07d db3c 4c15 0b3d d0e9 3ebc
000000b0: cce5 093d c04f 5dbc 8ae6 da3d 5e88 8a3d
000000c0: ba16 fcbd de7d b0bd 8263 ac3d ec14 f8bd
000000d0: 804b 2d3c c483 2bbd 901c ee3d 70d6 ca3c
000000e0: aeb4 eebd 40a4 07bd 9a1d 8ebd f85e 003d
000000f0: c4e2 1a3d 28d0 5dbd 2843 74bd 8cea febd
00000100: 06d7 e53d 1219 b9bd ef01 e9ba 96d7 813d
00000110: 0b31 f23c 8a44 ba3d a588 d03d bb6b e9bd
00000120: 48a6 b1bd 9aa7 f6bd b6e7 b1bd e049 d5bc
00000130: 541e babd a86d a33d ca34 703d e191 84bd
00000140: ac6c e13d 4723 d13d 8fef a63d bfbe 533d
00000150: 45a0 d23d 9c07 ee3c 5601 6e3d 83c1 8fbd
00000160: 3937 fbbd b575 953d 1d98 023e 3b65 f23d
00000170: fad3 aebd acad f6bd 113d aabd 9bc2 d6bc
00000180: a074 ae3d 3005 e73c 7568 d13c 84f4 2ebd
00000190: 40e2 ec3d 9d9e 933d f794 5cbd 0464 c2bd
000001a0: 94b3 6ebd 337f 283d e903 5d3d f8a7 d2bd
000001b0: 98bd 33bc 9cb8 80bd 34b9 7cbd 07b4 cbbb
000001c0: bbdf 533d 2f9b 113d e3d4 9bbc 4495 aa3d
000001d0: 2641 6c38 d839 27bd 74e7 e83c 0de0 f6bd
000001e0: 1669 dc3d 3eae c8bc bee5 98bd 191b 933d
000001f0: 1c57 9fbd 9316 83bd e6d9 edbc 8cbd 06bd
00000200: 7831 5abd 62e3 dc3d 00e4 8c3c 287a a73c
00000210: e040 66bd 6883 8e3d e0be 963c ec8d 1bbd
00000220: 2061 cabc 229c d2bd 5c93 663d accc 10bd
00000230: e4df 2f3d 1832 71bd 3674 e9bd 18aa 1f3d
00000240: 4c07 e0bd cc71 54bd 14ef 0c3d 00ae 223b
00000250: a45e 8c3d 000a fdbd 04d4 323d 98f2 9b3d
00000260: 1073 8f3c 1e67 f8bd 743a f7bd 54f9 b63d
00000270: 2639 f43d 9026 50bd c460 cebd 8062 e0bd
00000280: 4458 c73d c264 fb3d 00b0 393b 5e8c 80bd
00000290: a03e f03d b204 84bd 308c b4bc 005d 61bb
000002a0: f0cb 743d f0c1 25bd 366c bc3d 348b 583d
000002b0: 24ba b3bd 8016 08bb 0080 e1b7 0c6b 8cbd
000002c0: f0f1 733c 000c 153b 98b2 71bd 5c50 193d
000002d0: 9625 efbd 0c7b 8b3d a0a8 85bb 2073 1abd
000002e0: 90a1 3dbc 8842 183d 509b 60bd 40b7 4fbc
000002f0: cedb fabd 94f0 68bd a097 2ebc 5cf8 c13d
00000300: 282f afbc 2a63 c2bd e8a1 cabc a880 ac3d
00000310: 5a9b efbd 8cf2 6fbd 2cb1 82bd c0b5 cc3c
00000320: 8649 f0bd 5816 4dbd 066a 9bbd 60e1 58bc
00000330: 728e dbbd 324f e03d a0e7 6abd b06b e13c
00000340: 8e08 ce3d a49d 3bbd 7afc 8a3d 58d1 f13d
00000350: 564c da3d 543f 0fbd a012 843b 3400 04bd
00000360: e89d 9d3c 1c84 c4bd f284 863d 20fd 793c
00000370: 8c5e bc3d c638 9bbd fed2 e43d a84d 4e3d
00000380: 2adc cb3d 363e d53d f801 ac3c bc60 e5bd
00000390: 2e4f fa3d d050 afbc c094 183d 36a7 9bbd
000003a0: 0c6d c23d 80e7 393c 366f e6bd 7458 4d3d
000003b0: 1255 c0bd 00e0 b93b bcf9 26bd 5cbf 37bd
000003c0: 3e85 9b3d b405 65bd 7237 d9bd c42d 9c3d
000003d0: 084a bbbc a4b8 733d eea6 b2bd a03f a53d
000003e0: 2481 41bd 3e0e f0bd ee2d dc3d 5076 e53c
000003f0: 4812 c23d a03c fcbb 00e2 9ebc 7cfb babd
-0.05981399 -0.016189829 0.021872163 -0.029142573 0.08726281 0.0053617954 -0.086931124 -0.11447956
0.103212476 0.12092744 0.010031432 0.015998721 0.09299025 -0.06567055 0.010951206 -0.0055048317
-0.11664881 -0.09571721 -0.09118475 0.020524248 0.06531066 0.056332797 -0.11921939 -0.048878223
-0.0070029944 -0.10309057 0.039867148 -0.06887679 0.07600899 0.045559794 0.012832135 -0.020551056
-0.04860592 -0.04727362 -0.003535688 -0.11292946 0.06584725 0.03164637 0.073645726 -0.11364202
-0.07807998 0.026793301 0.033955857 -0.011652425 0.033666417 -0.013507783 0.10688503 0.06764291
-0.12309022 -0.08617757 0.08417417 -0.121133655 0.010577083 -0.04187371 0.116265416 0.024760455
-0.11655556 -0.033115625 -0.0693924 0.03134057 0.037813917 -0.05415359 -0.059634358 -0.1244708
0.11222653 -0.09037985 -0.0017777066 0.06339948 0.029564401 0.09095104 0.10182313 -0.11397501
-0.08674294 -0.12043686 -0.086867735 -0.026036203 -0.09087816 0.079799 0.058644094 -0.06473137
0.11007056 0.10211807 0.08151161 0.05169558 0.10284475 0.029056363 0.058106743 -0.07019331
-0.12266392 0.072978415 0.12753339 0.118357144 -0.08536525 -0.12044844 -0.08312429 -0.026215842
0.08518338 0.028200716 0.025562504 -0.042713657 0.11566591 0.072079875 -0.053853 -0.09491733
-0.058276728 0.04113693 0.053958807 -0.10285944 -0.010970496 -0.062852114 -0.06170006 -0.0062165293
0.051727038 0.035548385 -0.01902241 0.083292514 5.632746e-05 -0.04082665 0.028430678 -0.12054453
0.10762231 -0.024497148 -0.07465695 0.07182903 -0.07780287 -0.0640079 -0.029034566 -0.03289561
-0.053269833 0.10785557 0.017198563 0.02044399 -0.056214213 0.069586575 0.018401563 -0.037977144
-0.024704516 -0.10283686 0.056292877 -0.03535144 0.042938128 -0.058885664 -0.113991186 0.038980573
-0.10938892 -0.051866338 0.03440769 0.002482295 0.06853989 -0.12355423 0.043659225 0.076146305
0.01751092 -0.12129043 -0.12071696 0.08934274 0.11924963 -0.050818026 -0.1007705 -0.109562874
0.09733632 0.122750774 0.0028333664 -0.06276773 0.11730695 -0.06446208 -0.022039503 -0.0034387708
0.059764802 -0.040468156 0.09200327 0.05286713 -0.08775738 -0.0020765364 -2.6881695e-05 -0.06856355
0.014889225 0.0022742748 -0.05900821 0.037430152 -0.11677091 0.06810579 -0.0040789396 -0.037707448
-0.011574164 0.037172824 -0.054835618 -0.012677968 -0.12248956 -0.05687006 -0.010656267 0.09471199
-0.02138479 -0.0949157 -0.024735406 0.08422977 -0.11699553 -0.05858092 -0.06381449 0.024989009
-0.117327735 -0.050070137 -0.07588582 -0.013237327 -0.10720529 0.10952605 -0.0573498 0.02751717
0.100602254 -0.045804635 0.06786437 0.11807507 0.10659091 -0.034972504 0.0040305406 -0.032226756
0.019240335 -0.0959551 0.06568326 0.015258104 0.09197721 -0.07579188 0.11173056 0.050367028
0.09954102 0.104122564 0.020997033 -0.11200091 0.122221336 -0.02140084 0.037251234 -0.07600252
0.09493455 0.011346698 -0.112516806 0.050133184 -0.09391226 0.005672455 -0.04076551 -0.04486023
0.07593773 -0.055913642 -0.106062785 0.076259166 -0.02286245 0.05950226 -0.087232456 0.08068776
-0.0472423 -0.117214665 0.10750948 0.028010517 0.09476143 -0.0076976568 -0.019394875 -0.09129998

fc2.bias f4 [64]
00000000: ae29 8fbd 4a71 e1bd ca82 d7bd 20fc e8bd
00000010: 3755 503d 3132 76bc cb87 cd3d 384d 8fbc
00000020: 7b22 0e3d 9ae4 46bc 849e f6bc d022 c1bd
00000030: 04a4 fabd 41bc 843c 2bac 45bd a67b cfbc
00000040: 8aa8 ecbd 1b03 f73c f656 8b3c 9868 1f3d
00000050: 20e5 adbd d4e6 373a c09d dd3d 32f7 e4bb
00000060: 9455 05bd f3b2 dcbd 505f cabd 6379 763d
00000070: 84de 68bc b23e 793d 41a2 ea3d 6fa4 5b3d
00000080: 2931 813d 8ce9 95bd c464 57bd 5cc3 f0bd
00000090: e9d6 75bd 983e 2fbd aeba 8a3d 6bd1 013e
000000a0: 0f1a c8bd 5f88 86bd 8428 f9bd 614d 093d
000000b0: ba9f 383d 2c5c 1cbd a873 eb3b 16a2 953d
000000c0: d973 84bc 4990 f43c c10a 81bd 4acf 963a
000000d0: 8eff 5b3d 98db dabc 99d8 213d ca42 a03d
000000e0: fef1 85bd 8e6b d73d 98dc 4bbc ca93 8cbd
000000f0: 1845 e23d e293 d4bd a7b2 973d 459f c3bd
-0.06990372 -0.11007936 -0.10522993 -0.11376214 0.050862517 -0.015026615 0.10035666 -0.017492875
0.034700852 -0.012139464 -0.030104883 -0.09430468 -0.12238315 0.016203048 -0.048259895 -0.025327515
-0.11555584 0.030152848 0.01700924 0.038918108 -0.08490968 0.0007015292 0.10821104 -0.006987476
-0.032552317 -0.10776319 -0.09881461 0.060174357 -0.014213208 0.060850807 0.11456729 0.053623613
0.06308205 -0.07319936 -0.052586332 -0.11756012 -0.060019407 -0.042784303 0.067738876 0.12677543
-0.09770595 -0.065689795 -0.12165931 0.03352106 0.045074202 -0.03817384 0.007185418 0.07306306
-0.016168522 0.029853957 -0.06300879 0.0011505869 0.053710513 -0.026716039 0.039513204 0.07825239
-0.06540297 0.10518561 -0.01244273 -0.06864126 0.11048335 -0.10379769 0.07407122 -0.095518626

bn.weight f4 [64]
00000000: 0000 803f f08d 833f 0000 803f 0000 803f
00000010: 344f 833f e8c4 7f3f 5f4c 833f 0000 803f
00000020: a7dc 833f 1eb5 833f 2da6 833f fa0a 833f
00000030: b448 7f3f dbf7 7f3f b2a1 833f 108e 7f3f
00000040: 0000 803f 4b9d 833f be60 833f 08e8 833f
00000050: 0000 803f f6c8 833f 3553 833f 74e7 7f3f
00000060: 0000 803f 7efd 823f 6aa1 833f 70c3 833f
00000070: 7601 803f c5c5 833f 87c7 833f 81b3 833f
00000080: d9a4 833f 70de 7f3f 318d 833f 0000 803f
00000090: d9cc 833f 0000 803f 4455 833f 8995 833f
000000a0: 4bd8 823f 855f 833f e9c3 833f 9f8f 833f
000000b0: 4293 833f 0000 803f d12d 833f 0094 833f
000000c0: df99 833f dcde 833f 104b 833f da7d 833f
000000d0: 5dc6 833f 2baa 833f 315f 833f a395 833f
000000e0: 0000 803f f7bc 833f 45ad 833f a7fb 7e3f
000000f0: 4f8a 833f 651e 803f f871 833f 2579 833f
1.0 1.0277691 1.0 1.0 1.0258546 0.9990983 1.0257682 1.0
1.0301713 1.0289648 1.0285088 1.0237725 0.9972031 0.9998757 1.028372 0.99826145
1.0 1.0282377 1.0263898 1.0305185 1.0 1.0295703 1.0259768 0.99962544
1.0 1.023361 1.0283635 1.0294018 1.0000446 1.029473 1.0295266 1.0289155
1.0284683 0.9994879 1.0277463 1.0 1.029689 1.0 1.0260396 1.028001
1.0222257 1.0263525 1.0294162 1.0278205 1.0279315 1.0 1.0248357 1.0279541
1.0281333 1.0302386 1.0257282 1.0272782 1.0294911 1.0286306 1.0263425 1.028004
1.0 1.0292042 1.0287253 0.9960274 1.0276583 1.0009276 1.0269156 1.0271345

bn.bias f4 [64]
00000000: 5d51 f5bc 2bf2 86bc 4f8c f93c 3d71 ff3c
00000010: c9ef b3bc 091f d23c 0a0c b2bc bc1d edbc
00000020: 7eef 893c 0e6d a53c f182 cf3c 60fa b73b
00000030: c3ca dabc c22e f53c 956a d4bc 0c2f edbc
00000040: d5e5 eebc e583 9f3c 68d5 cabc 216f b3bc
00000050: 49a2 f53c 5f50 65ba 9d6e 52bc 12fb f4bc
00000060: a277 fdbc 52e1 c5bc 54d7 95bc 18f9 a53c
00000070: ac35 e6bc 0de8 7e3c f2a7 d53a c09e 9a3c
00000080: 29f4 c03c fa3f f2bc 8298 c6bc f214 f3bc
00000090: eadf c8bc bc33 f53c 5274 d23c 1236 203b
000000a0: 60a6 ecbc d9d5 a2bc c303 cd3c 4792 bcbc
000000b0: bd57 48bc 2b5a f53c ab6a cebc 1df8 ccbc
000000c0: bda7 b5b9 b7d8 82bc 6407 dbbb c9bf a23b
000000d0: 7d5f cebc 8392 cbbc 116e d13c 39bb bf3c
000000e0: b6db 01bd fa58 c33c 7e5a c93c 27dd f83c
000000f0: f0c8 b3bc 6cf4 e03c ea30 943c 48be cbbc
-0.029946024 -0.016472897 0.030462412 0.031181926 -0.021964924 0.025649564 -0.021734256 -0.028944843
0.016837832 0.020193603 0.025330992 0.005614564 -0.026708012 0.029929522 -0.025929729 -0.028953098
-0.029162327 0.019472072 -0.024759963 -0.021903576 0.02998461 -0.0008747633 -0.012843755 -0.029904876
-0.030940834 -0.024155293 -0.018291153 0.020260379 -0.028101765 0.015558255 0.0016300662 0.018874526
0.023553925 -0.029571522 -0.024242643 -0.029673073 -0.024520833 0.029931895 0.025690231 0.002444629
-0.028887928 -0.019877361 0.025026208 -0.02301897 -0.01222795 0.029950222 -0.025197348 -0.025020653
-0.00034647985 -0.015972478 -0.0066842306 0.00496671 -0.025192017 -0.024850136 0.025565179 0.023404704
-0.031703673 0.023846138 0.024579283 0.030378891 -0.0219464 0.0274603 0.01808973 -0.024871007

bn.running_mean f4 [64]
00000000: 0000 0000 71bc 2d3d 0000 0000 0000 0000
00000010: 3a6a ce3d c0d8 7919 92c3 fb3c 0000 0000
00000020: ab27 853d 7277 053d c371 1b3d 73d8 883d
00000030: 634f c420 221d 8d18 ceab 523c 2405 0436
00000040: 0000 0000 220f af3d cbe2 4b3e d754 0c3d
00000050: 0000 0000 50a1 6b3e 7ff5 663d f02c c116
00000060: 0000 0000 251e 073d 9d03 243d a442 533e
00000070: 89d7 b932 c09e 923d dc6b b13d 0829 7b3d
00000080: acb9 3f3e cefc 541c aeb4 b33d 0000 0000
00000090: 759f 653d 0000 0000 8d27 cd3d 3c03 bc3d
000000a0: 8668 f43c 943e 253c ba1c 033d 0c1f 803d
000000b0: 29bf de3c 0000 0000 3234 f93e 366f 603e
000000c0: 0533 113d 309b a93d 4782 323d bfa7 b53d
000000d0: 3720 3b3d eb6a 2f3e dfd1 563e 5b14 e83d
000000e0: 0000 0000 d5ec 0a3e 9a51 ad3d 5d3e 5236
000000f0: dbd7 b33d 365c 2b18 8d80 7e3c 974c a93d
0.0 0.04241604 0.0 0.0 0.10078855 1.29167706e-23 0.030732904 0.0
0.06501707 0.032584615 0.03795029 0.066819094 3.3256225e-19 3.6477062e-24 0.012858344 1.9672525e-06
0.0 0.08547808 0.19910733 0.034260597 0.0 0.23010755 0.056386467 3.1209191e-25
0.0 0.032987732 0.04004251 0.2063089 2.1634849e-08 0.071591854 0.08663151 0.061318427
0.18723172 7.047166e-22 0.08774696 0.0 0.056060273 0.0 0.10017309 0.091803044
0.029834997 0.010085721 0.032009818 0.06255922 0.027190762 0.0 0.48672634 0.21917424
0.035449047 0.08281553 0.043581273 0.08869886 0.04568502 0.1713063 0.20978497 0.113320075
0.0 0.13566907 0.0846283 3.1328739e-06 0.087814055 2.2147787e-24 0.015533579 0.082665615

bn.running_var f4 [64]
00000000: 23f8 0a1e cfaa 223b 23f8 0a1e 23f8 0a1e
00000010: 87cf c03b 33f9 0a1e 6e48 b73a 23f8 0a1e
00000020: 81ac af3b 3264 b43a d3be d23a f2b9 ca3a
00000030: 508e 451e 67f8 0a1e 0011 333a 4324 ca32
00000040: 23f8 0a1e bcd3 153b bb68 423c 5d81 0d3b
00000050: 23f8 0a1e b759 523c abf5 733b 23f8 0a1e
00000060: 23f8 0a1e 17cc e63a 0719 133b b2fc e93b
00000070: 2a0a 1b2e 7ae2 903b a45d eb3a 6bbc a23b
00000080: 3cd0 383c 590a 0b1e 2d9a 203c 23f8 0a1e
00000090: e2ab 843b 23f8 0a1e 53fb fb3b 7c58 a93b
000000a0: 66f8 c13a ae15 e039 a563 a33a 2d34 a73b
000000b0: 82b8 b33a 23f8 0a1e d68a d33c 20f1 6f3b
000000c0: 37d8 e23a e81b 853b d597 283b c1f1 113b
000000d0: 24df a63a 3127 4b3c a6c1 2d3b e1e2 203c
000000e0: 23f8 0a1e b387 e83b 22ea dd3b 7c72 8832
000000f0: 8e6b b73b 23f8 0a1e f4d5 813a 8bdf 0b3c
7.356973e-21 0.0024821048 7.356973e-21 7.356973e-21 0.005884114 7.357192e-21 0.0013983378 7.356973e-21
0.0053611402 0.0013762771 0.0016078599 0.0015466793 1.0458523e-20 7.3570276e-21 0.00068308413 2.3532385e-08
7.356973e-21 0.00228618 0.01186579 0.0021592 7.356973e-21 0.0128387725 0.0037225287 7.356973e-21
7.356973e-21 0.0017608431 0.0022445337 0.0071407193 3.5251947e-11 0.0044215294 0.0017956984 0.004966309
0.011280116 7.3607386e-21 0.009802383 7.356973e-21 0.0040488103 7.356973e-21 0.0076898723 0.005168019
0.001479876 0.00042740762 0.001246561 0.0051026554 0.0013711604 7.356973e-21 0.025823038 0.0036612228
0.0017306869 0.0040621646 0.0025725265 0.002226934 0.0012731296 0.012399481 0.0026513129 0.009819717
7.356973e-21 0.0070962547 0.0067722956 1.5884545e-08 0.0055975383 7.356973e-21 0.0009905682 0.0085371835

fc3.weight f4 [128, 64]
00000000: 3728 c93d 5f8e b9bc 70f9 14bd b1ae c63d
00000010: 2ed6 893b 4c85 083c c50f f83b 74e2 573d
00000020: c00a 043e 5712 68bd 16dd c43d bf42 07bc
00000030: b3fa 1abc b2fb 883c d045 1ebd e383 e4b9
00000040: c011 2ebd 1358 54bd b701 afbd 72fb 8d3b
00000050: a8e2 703d c0fb 5a3d 7f38 c9bd e5b4 3c3d
00000060: c359 a4bc 3ee5 963d 0b6f 9e3d b456 793d
00000070: e8fa 393d 8583 053e 129d 7bbd ded7 8d3d
00000080: 3387 2a3c b461 8f3d e98c ab3a 3ad0 cb3d
00000090: 0230 e4bd c7a4 013e b8bd 8f3d 7fa2 48bd
000000a0: 441c a43d cf65 1d3d 0cca e83d ae4f 2b3d
000000b0: 3eb2 bf3d 9af3 bc3d f49f 73bd 143d c23d
000000c0: b4fc a1bd 8905 153d 375c c43d 7a24 c6bd
000000d0: ed63 923d 11ab 06be bda4 4f3d e521 be3d
000000e0: f921 c13d cabb 3fbd 1f46 223d 8c0f d3bc
000000f0: a47f 5bbd 3e46 023e b2b4 72bd 6b3f c53b
00000100: 13b2 fabd 03ba 563d b804 23bd bd0a fc3d
00000110: 6d47 593d 7f5e 963c 39d8 373d cf2e b53d
00000120: f380 8e3d 023e 4f3d 4e68 803d 37cc 343d
00000130: 812c d7ba 5d50 e4bc 8a19 3dbd de4d 9bbd
00000140: bb6d 87bd 80d2 1bbd bee3 2abd 61b0 023e
00000150: a1e4 203d d95f cb3c c8b8 90bd b41d 2abc
00000160: 6f67 a4bd 7f0e 03be 0151 993d 2ec0 b53c
00000170: 0b20 1ebd 7aa8 03bc 8acf 19bd e634 cc3d
00000180: 8f0c 8f3c cb06 d8bd 900d d3bd 102f bfbc
00000190: 01f9 8abd 95d1 193e 3b12 ccbd df19 053e
000001a0: 2d71 8c3d 0a1e 42bd 2e7d 383d ec0d c3ba
000001b0: aaff 193e e723 d43d e035 dcbd 43bc a33d
000001c0: e972 b8bd 8493 0e3d 9f2c f7bd f11c 273d
000001d0: 7ce5 04be dbd4 47bc 42af ee3d 1e19 a1bd
000001e0: d964 0d3d 09a0 d9bb 1a26 45bd dfe2 203d
000001f0: 082d b4bd eeb1 ebbc c40c 87bd e7a3 d439
00000200: bc7e 32bd 94e3 55bc 2f6c 7bbc 7650 cb3d
00000210: 2aa1 01be 9485 d23c 4faa fabd 2e3d c8bd
00000220: 6c1f ed3c 9e1b 98bd 8f67 103d eb6d 94bd
00000230: c821 f13b 7aee 00bd 58c9 e6bc 6226 01be
00000240: 5eee d2bd 15d0 3d3d 3cdc f1bd 42eb fe3d
00000250: 75b6 1a3e 90c3 64bd 90f4 35bc f6ce 9f3d
00000260: 120d 943d 2d81 2b3d 77d0 04bc 1c0b 09be
00000270: 8617 9dbd f9b3 083e d635 d4bb f27b 9bbd
00000280: 84e3 6c3d 13ac f2bd 8a9d 0cbe 2642 5e3d
00000290: 9adc 01be 23ca dfbc e814 113e d754 063e
000002a0: 0722 093d 752a 9dbd 2233 e23d f4c5 bdbd
000002b0: 6cbe 8fbd dba1 153d dc04 cbbd 74df 85bd
000002c0: 3b1a f2bd a72d 4bbc d65b 1d3d d312 a93b
000002d0: a326 703d 5427 04be 39ee cd3d fd58 12bd
000002e0: 50b3 163d 2e78 c4bd c472 dd3d 133d cb3d
000002f0: 6911 0c3d 3e11 b33b 6f2c 15bd 1410 14bd
00000300: 0d59 3c3d df30 a3bd df65 093d f132 91bd
00000310: ae77 a5bd 1b0c 1ebd 2bad bcbc 6486 b93b
00000320: 1464 f73d 0951 c53d 9507 f53c a54e e63d
00000330: 44a6 51bc ead6 fa3c 229a d13c 7a22 4b3d
00000340: 4419 c9bd 971e 323d 581a c8bd 1e5d ed3d
00000350: 9f17 a93d 1d6e 90bd 703a 693d 0660 01be
00000360: 876c 123c 8826 853d 1d4c 42bd 626a 12be
00000370: 3e3d c13d 5536 123e 23cd 00be 0ee3 53bd
00000380: 9c9e a0bd 4526 18be ee1e b73d 3a83 bcbd
00000390: c681 15be 784f d13d 3195 ef3d 8153 5ebd
000003a0: 07a5 58bd 7e34 503c 14b4 1ebd cdfa 82bd
000003b0: 43e4 533d fa55 de3c 2bed e4bd 9757 943d
000003c0: e08c 2dbd bea6 1bbd 085e 123d c3b0 aabd
000003d0: 9f73 383d 3893 81bd ad67 fa3c f0f8 4b3a
000003e0: b403 273d e29b 993d e670 f9bc 10ca bcbc
000003f0: 560e 803d 0281 1b3d ac0c 093d 15fd 0fbc
0.098221235 -0.022650896 -0.036370695 0.097012885 0.0042064404 0.008332562 0.0075702392 0.052706197
0.12894726 -0.056658115 0.09612481 -0.00825566 -0.009459185 0.01672158 -0.038640797 -0.00043585812
-0.042497396 -0.051841807 -0.08545249 0.004332953 0.058809906 0.053462744 -0.09825229 0.046070952
-0.020062333 0.07367943 0.077360235 0.060873702 0.0454053 0.13038452 -0.06142909 0.06925939
0.010408211 0.07001057 0.0013088259 0.099518254 -0.11141969 0.12660514 0.07018608 -0.048983093
0.08013204 0.03842717 0.113666624 0.041824035 0.09360169 0.09226151 -0.059478715 0.09484306
-0.079095274 0.03638223 0.09587901 -0.09674926 0.071479656 -0.13151194 0.050694216 0.092838086
0.09430308 -0.04680995 0.039617654 -0.02576425 -0.053588524 0.12722108 -0.059254356 0.006019523
-0.12240996 0.05242349 -0.039799422 0.12306736 0.053046633 0.018355606 0.04488394 0.08846819
0.06958189 0.050596245 0.062698945 0.044140067 -0.0016416461 -0.027870351 -0.046166934 -0.07583211
-0.06612726 -0.038042545 -0.041721098 0.12762596 0.039280538 0.024825977 -0.07066494 -0.010383058
-0.08027541 -0.12798499 0.074861534 0.022186365 -0.038604777 -0.008035773 -0.03755144 0.09971027
0.017462043 -0.10548171 -0.10305321 -0.02333787 -0.06785775 0.15021355 -0.09964415 0.1299815
0.06857524 -0.04739193 0.045041256 -0.0014881468 0.15038934 0.1035841 -0.10752463 0.079948924
-0.090062924 0.03480865 -0.12069058 0.040799085 -0.12978166 -0.012196745 0.116545215 -0.07866119
0.034520004 -0.006641392 -0.04813204 0.03927886 -0.087976515 -0.028771367 -0.06594232 0.00040557908
-0.043577895 -0.013054747 -0.015345617 0.09927456 -0.12659135 0.02569846 -0.12239515 -0.09777294
0.028945647 -0.074271426 0.03525501 -0.07247528 0.0073587634 -0.03147743 -0.02817218 -0.12612298
-0.10299371 0.04634102 -0.118095845 0.124472156 0.15108664 -0.055850565 -0.0111056715 0.078031465
0.072290555 0.04187124 -0.0081063425 -0.13383144 -0.07670502 0.13349904 -0.0064761443 -0.07592
0.057834163 -0.11849227 -0.13731971 0.054262303 -0.12681809 -0.027318066 0.14168131 0.13118301
0.033479717 -0.07674114 0.11044909 -0.09266272 -0.07018742 0.03653131 -0.09913036 -0.06536761
-0.11821409 -0.012401021 0.03841766 0.0051597147 0.058630597 -0.12905627 0.10055203 -0.035729397
0.0367921 -0.09593235 0.108129054 0.09923758 0.03419629 0.005464702 -0.03641933 -0.036148146
0.045983363 -0.07968306 0.033544417 -0.070897944 -0.08079468 -0.038585763 -0.023031792 0.0056617726
0.12079635 0.09634597 0.029910842 0.11245469 -0.0127959885 0.030620057 0.025586192 0.049593426
-0.09819272 0.043486204 -0.0977065 0.11590026 0.082564585 -0.070522524 0.056940496 -0.12634286
0.008937008 0.0650149 -0.04743587 -0.14298394 0.09435509 0.14278539 -0.12578253 -0.051730208
-0.07842752 -0.14858349 0.08941446 -0.09204717 -0.14600286 0.102202356 0.11698378 -0.054278854
-0.052891757 0.012707828 -0.038745955 -0.06395493 0.05173136 0.027140606 -0.11178049 0.07243269
-0.042370677 -0.038000815 0.035734206 -0.08334496 0.04503214 -0.06326908 0.030567015 0.000778093
0.040775016 0.075004354 -0.030449342 -0.02304557 0.06252734 0.03796483 0.03345935 -0.008788367

fc3.bias f4 [128]
00000000: 9a28 d0bd f48c 333d 01c1 c13d 8072 b43d
00000010: e167 d13c 239e abbd f0c7 b23d e87b 053e
00000020: bc06 023d 3185 aebd ffe4 2ebd d303 843d
00000030: c5e8 0b3c 1991 efbb f380 9cba 04c9 3f3c
00000040: 89f8 903c 8f3f 053e c398 193d 8ded d5bc
00000050: ccc6 dd3d 97c8 bbbd 31bd acbd 8557 27bd
00000060: 7381 d43d c54f 18bd 9779 a03d 7098 23bd
00000070: cc8a 963d 271b d23d 2771 4f3d a9b3 bb3d
00000080: 5410 cdbd 7cfa b6bd 0e66 6cbd 1db5 aebd
00000090: 5e10 39bc 5c91 1abc 0120 fd3d debe 87bd
000000a0: 09e3 523d c4ed aa3a 3f56 693d 4479 7cbb
000000b0: f481 c9bc 3a34 b03d 4c9d 813d d292 ec3d
000000c0: 1f01 f3ba c22b 9cbd 5922 91bc 7299 683a
000000d0: 1c21 67bd d89e f53a cb67 96bd f165 073e
000000e0: 6e30 60bd 093c 043d 4e7e 4abd 2c3c 9cbd
000000f0: 5e0d b4bd d55f d53d 070d e03d 7de8 853d
00000100: 8005 4e3d 59cd bc3d fdf2 02bd 4053 8bbd
00000110: 8752 12bd 1133 dd3c 6384 c6bc b469 fbbc
00000120: d0f1 b33c 955c 053e 8c37 0e3b d3f3 89bd
00000130: 6f8a cdbd dd27 88bd 8858 a13d 8e58 8c3c
00000140: be1a 6dbd 67a0 ce3c 9aea 90bd 8ea0 2e3b
00000150: 6823 903c c02c 1bbd 1fbc 5c3d 91cd b33c
00000160: fc7d cb3d b87d d1bd c994 5ebd 82a6 74bd
00000170: acf9 55bd a5da b8bd c00a 49bd 3649 bd3d
00000180: c1b8 ab3d a654 0a3e b83b 71bc f160 953d
00000190: 3f92 0c3a 2bd2 88bd fe29 0b3e 7299 ac3d
000001a0: 5c47 5ebd 3ca7 a0bd 4ed2 aa37 48a0 c8bc
000001b0: 93b9 fe3d 9226 3fbc ba7c 163e 816b dd3d
000001c0: cfb4 90bc 5912 093d 131c ff3d 33be 03bc
000001d0: 25c7 593d d4f9 fb3b bf1c c6ba a321 c7bd
000001e0: e088 8e3d 0a26 afbd 17f6 5ebd a8aa 983d
000001f0: 285a 7c3d 4ba2 f43c 5143 0b3d 08e2 d9bc
-0.10163994 0.043835595 0.09460641 0.08810902 0.025562229 -0.083797716 0.08729541 0.13035548
0.031744704 -0.08521498 -0.042698856 0.06446042 0.008539383 -0.007310998 -0.0011940285 0.011705641
0.017696636 0.13012527 0.0374992 -0.02611425 0.10828933 -0.09169119 -0.08434523 -0.04085495
0.10376253 -0.03718545 0.078356914 -0.039940298 0.07350692 0.10259085 0.05064502 0.09165127
-0.1001288 -0.08934495 -0.057714514 -0.08530638 -0.011295406 -0.00943407 0.1235962 -0.06628202
0.05148605 0.001304083 0.056967016 -0.0038524428 -0.0245981 0.086037114 0.0632883 0.11551441
-0.0018539763 -0.07625534 -0.017716574 0.0008872963 -0.05642806 0.0018739356 -0.07344016 0.13222481
-0.054733686 0.032283816 -0.04943686 -0.076286644 -0.08791612 0.10418669 0.10939985 0.06538484
0.050298214 0.092188545 -0.031970013 -0.06802988 -0.035723235 0.02700189 -0.024233049 -0.030690052
0.021965891 0.13023598 0.002170059 -0.06735959 -0.1003617 -0.06648228 0.07878214 0.01713207
-0.05788683 0.02522297 -0.07075997 0.002664599 0.017595008 -0.037884474 0.053890344 0.021948608
0.09936139 -0.10229057 -0.05434111 -0.059729107 -0.05224006 -0.09026078 -0.049082518 0.092424795
0.083848484 0.13508853 -0.014723711 0.07293881 0.00053623685 -0.06680711 0.13590237 0.08427705
-0.054267272 -0.078443974 2.036351e-05 -0.02449049 0.12437739 -0.011666911 0.14696017 0.1081152
-0.017664341 0.033464763 0.124565266 -0.0080409525 0.053168435 0.007689694 -0.0015114768 -0.097232126
0.069597006 -0.08552177 -0.05443391 0.07454425 0.061609417 0.029862544 0.033999745 -0.026597038

fc4.weight f4 [196, 128]
00000000: 2fd5 31bd 110f f9bc cf39 bb3d 28cd 59bc
00000010: 381b a23d e57b a03c 515e bc3c 44ab 38bd
00000020: 30cf 60bd c11e ac3d fd2e 75bd fb8a 7f3d
00000030: ca0a ab3d 2f20 90bb 909e b1bd 5773 3b3d
00000040: 7975 03bb 2cc0 87bd a2d8 32bc ec46 b7bd
00000050: bec9 273d 6230 653c 1e42 803a 5273 22bc
00000060: d08d 76ba fd19 53bc 66fb 5d3d 7232 bbbd
00000070: f03a a63d 76f0 78bc 534a 5fbd 4514 d83c
00000080: b8df 7ebd c4e9 1c3d 7638 2dbd fdd9 bb3d
00000090: 15f5 753d 2168 923d 1c6b f23c 3dca b73d
000000a0: cbe1 2cbd 82c0 103d a6d4 b6bc fce0 52bb
000000b0: 2230 48bd 5e1b adbd 29b2 eebb 71fe 313d
000000c0: a2bb 463b ab89 dd3d b3eb 74bd 901c 833d
000000d0: bf17 403d a084 a73d ef5c e33d d373 15bd
000000e0: 2c38 703d 24fa 81bd b24d c4bc ef36 78bc
000000f0: 32a9 f9bc 8a37 963d fb85 883d 7258 d23d
00000100: 8fa2 83bd b97a 973b 49e0 11bb 07e1 963d
00000110: 4ced 83bd 0c27 3fbd d711 a3bd 6a38 9ebd
00000120: b2ad 49bd d67e 3e3c 8c12 113c aa7e 833d
00000130: 64db e23b a4d2 293c f53f a2bc f0bb 4abd
00000140: 8709 2f3b 69d0 1e3d 47f1 213d 1c56 02bd
00000150: d860 863d 0e06 cebc 8e0a 4e3c 97b7 7e3d
00000160: b0c5 fd3a 5639 89bc 490a 2abc 7d74 bf3d
00000170: 80ba bd3c cfe7 953c 5082 14bd 9384 f5ba
00000180: dd2b d13d 8d65 1ebd 4542 63bc c3de 25bd
00000190: b586 933d 35a2 01bd 54c8 79bd 4bc3 7ebc
000001a0: 0fb3 883d 5d6a 4fbc e5da 063d 3e16 68bc
000001b0: e3b5 6b3d 0251 c23d 0c96 fb3c fb69 aa3c
000001c0: 0651 533d 4684 a7bd a58e 29bd 5d42 a5bc
000001d0: 397a b23d 51dd 36bd 4937 5f3d 553d 6abd
000001e0: 319f 423d 606b 6f3d 231f 93bd 1b81 4f3d
000001f0: 7001 a3bd 61c2 adbd 7b47 933c ac0e 903d
00000200: ac31 ae3d a001 313d 86cc 29bd d0d4 4b3d
00000210: b316 5c3a e9e3 b7bd e5fc a83d d7c6 513d
00000220: 970e 3a3d d681 533c 0f74 2d3c 901c 0dbc
00000230: 388b 90bd 44ad 06bd 6bfc 20bd 5924 7abc
00000240: f895 963d daaf 463d 3f2f 50bd 66a4 873c
00000250: 524f 50bd b2f0 833c 042c 71bd 2ea1 29bd
00000260: aa0e 863d 3be3 31bd 82fa 5a3c 3afb a4bd
00000270: 2610 a6bd 95b5 96bd 7e20 a6bd fb26 61bb
00000280: 72ac ecbc 86bb 563c ca99 a5bc 36d4 6fbb
00000290: 4660 94bd 8752 543d 0c34 e03b 7516 a23d
000002a0: 6f9e 53bd 327a cb3c d27a a23d 6059 783d
000002b0: 4223 f03b b78d 90bc 1351 abbd fd77 e13c
000002c0: 98af aebc a560 353d aee7 b2bd d4e9 adbd
000002d0: ccf2 283d 9c8a 363d 7839 7bbd f7aa a7bc
000002e0: cb6e 55bd 7633 b33c 9801 a1bc b7da 16bd
000002f0: 11cc 9d3d cbd8 ae3c 88fe d13c 709a 7abd
00000300: 8ebb 9dbd 66f1 113d a769 c6bc 45df ac3c
00000310: 9898 91bd e09f 3fbd 2a4e 02bd adc4 903d
00000320: 6d84 a73d 07c9 babb dd37 7d3d f107 7d3d
00000330: 688d 0fbd 0be0 92bc 24ce 583d 73a4 96bd
00000340: ecf0 39bb c303 c23c 601b 79bc 797a 84bd
00000350: c042 623d 0c1b a1bc 0aa1 c3bc 8cc3 753d
00000360: 115e 88bd 8807 9fbc cbeb 96bd 7059 a83d
00000370: db5f 973d bc7f a33d 921f 8cbd 21a7 41bd
00000380: 85a8 123d a3d3 9a3d 7001 173d 0785 353d
00000390: 641e 7cbd 9c3c ecbc 4a18 023a 97a2 00bc
000003a0: c813 0f3d e224 d33c 6784 a63d 2fe8 92bd
000003b0: c04f 93bd 5359 923d 11f2 6abd 18d1 263c
000003c0: f8ed fc3c a262 6c3b f5da c0bb e964 853d
000003d0: b1e6 9a3d dd8e 5ebd 5325 9cbb 5f87 2fbd
000003e0: 6bcc 1c3d 7b00 5f3d e241 0cbc 85c5 49bd
000003f0: 82a4 e4b8 3bff 89bd 0b4a a4bc 0a77 0c3d
-0.0434162 -0.030402692 0.091418855 -0.013293542 0.07915348 0.019590328 0.022994192 -0.045085207
-0.05488509 0.08404303 -0.059859265 0.0623884 0.08351667 -0.004398368 -0.086728215 0.045764294
-0.0020059033 -0.06628451 -0.010915907 -0.08949074 0.04096388 0.013988586 0.000978533 -0.00991519
-0.0009405287 -0.012884614 0.05419483 -0.09140481 0.0811671 -0.015194049 -0.05451424 0.026376853
-0.062225074 0.038308874 -0.042290173 0.09172437 0.06004818 0.07148767 0.02959209 0.08974121
-0.04220752 0.03533984 -0.022318196 -0.0032177558 -0.048874028 -0.084524855 -0.007284422 0.043455545
0.003032424 0.10817274 -0.059795093 0.06401932 0.046897646 0.08179593 0.1110171 -0.03648741
0.05864732 -0.06346539 -0.02396283 -0.015149816 -0.030476186 0.07334812 0.0666618 0.10270776
-0.0642749 0.004622784 -0.0022258929 0.07367139 -0.06441745 -0.046668097 -0.07962387 -0.07725604
-0.049237914 0.01162692 0.00885452 0.06420644 0.006923126 0.010365162 -0.019805888 -0.049495637
0.002670856 0.038772974 0.03953674 -0.0318204 0.0656144 -0.025149371 0.012575759 0.062186804
0.0019361284 -0.016750973 -0.010378429 0.0934839 0.02316022 0.018299012 -0.03625709 -0.0018731527
0.102134444 -0.038671065 -0.01387078 -0.040495645 0.07203428 -0.031648833 -0.060982063 -0.015549491
0.06674778 -0.012659636 0.032923598 -0.014165459 0.057546508 0.09488107 0.030711196 0.020802489
0.05159094 -0.08179526 -0.041395802 -0.020173246 0.08714718 -0.044644658 0.054496083 -0.057187397
0.047515098 0.05845201 -0.07183673 0.050660234 -0.079592586 -0.084843405 0.01797842 0.070340484
0.08505568 0.04321444 -0.041454814 0.0497635 0.00083957164 -0.08979017 0.08251361 0.05121502
0.04542407 0.012909373 0.010586753 -0.008612767 -0.07057804 -0.032880083 -0.039303225 -0.015267455
0.07352823 0.04850755 -0.050826307 0.016557883 -0.050856896 0.016105983 -0.058879867 -0.04141348
0.06545766 -0.043429594 0.01336539 -0.0805573 -0.08108549 -0.07358853 -0.08111666 -0.003435551
-0.028890822 0.0131062325 -0.020214934 -0.0036594993 -0.07244925 0.051836517 0.006842142 0.079144396
-0.051664766 0.02483854 0.07933582 0.06063211 0.007328422 -0.0176457 -0.08365073 0.027523035
-0.021323964 0.04428162 -0.08735596 -0.08491865 0.041247174 0.044565782 -0.061334103 -0.020467265
-0.052107614 0.021875124 -0.01965408 -0.036829676 0.07704938 0.02134361 0.025634065 -0.06118244
-0.07701789 0.035630606 -0.0242203 0.021102557 -0.07109183 -0.046783328 -0.031812824 0.07068763
0.08179555 -0.005700234 0.061820854 0.06177515 -0.035046965 -0.017929098 0.052930966 -0.07355585
-0.002837236 0.023683434 -0.015204281 -0.06468672 0.05523944 -0.019666217 -0.0238805 0.06000094
-0.06658567 -0.01941277 -0.07369193 0.08220184 0.0739133 0.07983348 -0.06841959 -0.047278527
0.035805244 0.07559898 0.036866605 0.044316318 -0.06155242 -0.028837495 0.0004962726 -0.007851264
0.034930974 0.025774423 0.081307225 -0.07173192 -0.071929455 0.071459435 -0.05735976 0.010181688
0.030875191 0.0036069532 -0.0058854767 0.06513388 0.07563532 -0.054335464 -0.0047651916 -0.04285371
0.038280886 0.054443818 -0.00856063 -0.049260635 -0.00010902529 -0.067381345 -0.020054838 0.034293212

fc4.bias f4 [196]
00000000: d468 13bd a7f9 72bd 10b9 8b3d 34ac c63d
00000010: 04f5 99bd b206 223d a6d7 2c3d 24c2 943d
00000020: 5e44 973b 08d3 ce3d 656d 6fbb 73cb db3d
00000030: 3fd9 2c3d 3966 8bbd 2a93 ba3d bc8e ac3d
00000040: 6327 b43d 4bb9 203d 4a89 22bc ae14 9a3c
00000050: a348 12bd 022d 963d 7832 973d bafc ef3c
00000060: ba99 1fbd f09f 0939 df0c 933b 0c14 af3d
00000070: ced4 f23c 5341 2c3d 4b95 203d 70c4 863d
00000080: 9b80 e3bc a6b5 73bd 979d 3b3b 3d1c 833d
00000090: 57a7 85bc 99b4 a33d d431 7b3c ade3 64bd
000000a0: 8120 13bd c8b9 e03c d0e2 76bb 79bd e33c
000000b0: 354e c6bc 861e 0dbd e16d ac3a 4a33 fb3b
000000c0: 4376 19bd bb30 c5bb b1bc 3e3d 6948 78bc
000000d0: 4e06 143d 839f f0bc b00c 983d 552e 473c
000000e0: 17df ab3c 1f8c 803c b6ea 69bc 39bd ad3c
000000f0: bd5b 693d 04ca 8cbd c37d ae3d f6c2 28bd
00000100: 62d5 25bc 3822 2cbd 8bf1 943d dd56 73bd
00000110: 2f8d 53bb e3f0 693c e632 623d 63a7 563d
00000120: 059a 8f3d 380e d63c 08ac 6f3d fe45 84bd
00000130: 3a22 043c 514d 56bd 76fb 343d 362f 88bc
00000140: ea33 6bbd 9eca 87bd c34a a13d 485e 803d
00000150: 2193 83bd 5d73 f9bb df4d 2c3d 2fdd e63b
00000160: 5b3e 4d3b cf8c 963d ade4 363c 26b0 f4bc
00000170: 14d0 293d 95d9 3aba cfff a73d 19c0 0e3d
00000180: bb88 773d ea54 9d3d 25a6 99bb c1dc 87bd
00000190: ca0e 633c c5c8 16bc 2bf5 583d 0a37 58bd
000001a0: 944d 04bd 0815 843c 5eeb bfbc ecaf a03d
000001b0: 3bb7 843c 9c11 ac3d 6dc1 8abd 322c 68bd
000001c0: 69da 8e3c 96cf 303d 3bde e83c 364d 233d
000001d0: 2834 67bc 2817 763d b2ec 9a3d 3b1a 3c3d
000001e0: 399a a33d b5c5 33bd b3bf 453d 72bc 6abd
000001f0: 036a a23d df1d 2ebd d76b 8c3d d2e3 8fbd
00000200: 9446 0bbd d028 803d 1157 87bd 877e 17bd
00000210: 9e96 90bd b62f 493c ac49 aebb c67d c33d
00000220: 1ea4 323c fb78 59bd cee5 bbbc e9a4 bebc
00000230: a2d7 a33d 469b 753d 6f99 5dbc 6931 6db9
00000240: 5ec5 503d 8b23 40bd a9c1 823d 6e05 bd3d
00000250: c620 2e3d 38ec 7fbd ed04 17bd 9839 743d
00000260: d0db c03c 392f 24bd 26ca 503d 8de0 ac3d
00000270: 4783 403d 01cc 063b d873 0d3c f3f2 2abd
00000280: 44e7 973d eced 6e3d b288 303c 49ab 2c3d
00000290: 35a3 b6bd 1ffa 813c 59f0 5fbd a4b8 063d
000002a0: e9a9 c2bc 2f0d 3d3d 81b1 2c3c dc84 293d
000002b0: 8dd5 123c ed11 5e3d b3de bb3d 8e18 da3d
000002c0: caa0 ebbc 9b7f 8bbd 94bd 5c3d f566 f9b9
000002d0: cddc f63c e69c b4bd 60a5 833c bb86 32bd
000002e0: 02d6 e83c dd82 8b3d 0c78 36bc 26b4 b13c
000002f0: 4464 71bd 000e aabc a2d6 253c b6bb 80bd
00000300: 407d 1b3c 68a0 2f3d e948 52bd 8949 fa3c
-0.035988644 -0.05932012 0.06822407 0.09700814 -0.07517436 0.039557166 0.042197846 0.07263592
0.0046163043 0.10098845 -0.003653371 0.10732164 0.04219937 -0.06806607 0.091101006 0.08425662
0.08796575 0.03923921 -0.009920428 0.018808689 -0.035713803 0.07332803 0.07382673 0.029295314
-0.038964964 0.0001312492 0.0044876183 0.085487455 0.029642489 0.042054486 0.039204877 0.06580436
-0.027771285 -0.059499405 0.0028627866 0.064018704 -0.016315145 0.07993431 0.015331704 -0.05588119
-0.03591967 0.027432337 -0.0037671812 0.027800309 -0.024207214 -0.034452938 0.0013155305 0.0076660262
-0.0374663 -0.006017772 0.04656667 -0.015153983 0.036138825 -0.029372936 0.07424295 0.0121570425
0.020980401 0.015691815 -0.014277151 0.021208392 0.056972254 -0.06874469 0.08520081 -0.041201554
-0.010121675 -0.04202482 0.07272633 -0.05940901 -0.0032280197 0.014278623 0.05522432 0.052405726
0.07011799 0.026129827 0.05851367 -0.064586625 0.008064801 -0.05231983 0.044185124 -0.016624074
-0.057422556 -0.06630443 0.07875588 0.06267983 -0.06424547 -0.0076126293 0.04206645 0.00704541
0.0031317684 0.07351076 0.011162919 -0.02986915 0.041458204 -0.0007127759 0.082030885 0.034851167
0.06043313 0.07682212 -0.0046889954 -0.06633902 0.013858506 -0.009203141 0.052968185 -0.052786864
-0.032300547 0.01612331 -0.023427662 0.078460544 0.016200652 0.08401796 -0.06775174 -0.056682773
0.01743813 0.04316672 0.02842628 0.039868556 -0.014111556 0.060080677 0.07564677 0.045923453
0.079884 -0.04388972 0.04827852 -0.05730862 0.079303764 -0.042508956 0.06856506 -0.07025875
-0.034002855 0.06257784 -0.066084035 -0.0369859 -0.07059978 0.012279442 -0.005318841 0.09545474
0.010903386 -0.05309389 -0.022936728 -0.023271995 0.08000113 0.059962533 -0.013525351 -0.00022620488
0.050969474 -0.046908896 0.06384594 0.09229551 0.042511724 -0.062481135 -0.036869932 0.05962524
0.023542315 -0.040084098 0.050974034 0.08441267 0.047000196 0.0020568373 0.008633576 -0.0417356
0.07417157 0.05833237 0.010774778 0.042155538 -0.08917848 0.015866337 -0.054672573 0.03289093
-0.02376266 0.04615515 0.010540367 0.04138647 0.008962047 0.054216314 0.09173336 0.10649215
-0.028763194 -0.06811448 0.053891733 -0.0004756969 0.030134583 -0.088189885 0.016070068 -0.04358552
0.02842236 0.068120696 -0.01113702 0.021692347 -0.05893351 -0.020758629 0.010121973 -0.06285803
0.009490311 0.042877585 -0.051339064 0.030552642

fc5.weight f4 [32, 196]
00000000: 39c3 5f3c 1c7b efbb 98d6 0ebd f452 f0bc
00000010: 2648 37bd aa4c 8e3c cd94 823c ec97 23bc
00000020: 3ca2 3cbd 61a0 07bc 41c3 863b d7b2 dc3c
00000030: 65c3 13bd 5630 8c3c c3b8 3dbd 5f4f b4bc
00000040: 8270 49bd 4fba b73c 1304 293d d238 87bd
00000050: 0633 7bbd 850c 31bc a933 40bd d83f 453d
00000060: 9cdf 91bb 63af 71bc 5996 4a3b e1e5 e73b
00000070: b797 26bd 6f89 b23c cc31 3abc 7bb6 713d
00000080: 5a04 f1bc 9844 2b3d 6d23 863d adfe bebc
00000090: 4f03 2a3d e844 253d f69c 19bd bcd3 a7bd
000000a0: 7433 ffbc 91d0 013d 7dcd 7c3d 7d49 00bd
000000b0: 358d a4ba 880d 243d 06e3 c93c b3df 633d
000000c0: b334 f6b9 19d8 7d3c fa32 0abd 446f 6bbd
000000d0: 8271 ed3c 452b 473d 17af 6c3d 0843 24bd
000000e0: 8a30 ecbc 8282 66bd 6675 3ebd 7dab bb3d
000000f0: 22df 47bd 8a19 723d c44c b63d 1b40 78bd
00000100: bc27 5abd 7687 5c3d 0f6b 9e3d 5ae5 b23b
00000110: 4e90 efbc 2f3b 0bbd 6391 c93c 3037 02bd
00000120: a829 b53d a6e3 bfbb 2a7f 893d a7d0 bb3d
00000130: 1158 84bd a8c4 313c c6f8 f13c 6829 bd3d
00000140: cb5f 4e3d 30ac 563d d204 45bd f209 023d
00000150: 0d8d 1abd f348 5c3d 6212 70bd 4dec 723d
00000160: 443d 333d 84c3 3d3d 242c 82bd 9e23 45bd
00000170: acb4 703c 1f0b 1dbd 9d21 7d3d 1944 333d
00000180: 7843 a73b c56a 9d3d 77ec a9bc a446 6ebc
00000190: 6072 4a3b 2681 293c ad8e 2f3c b857 36bd
000001a0: fccb b23d 08a9 97bd 3e2a 96bd 8831 69bd
000001b0: 175a 05bd b4c7 7fbd 1530 6bbd 600b 3f3d
000001c0: 06a7 01bd a898 88bc 0d1c 14bd 2ec6 d9bc
000001d0: 99fa bd3d cefe debc 3b20 463c a3eb c13d
000001e0: 978f 65bc 6589 5f3d 1ee3 c5bc 44c9 053d
000001f0: ec27 0ebc 6d85 abbb fed2 ed3c 84a1 333d
00000200: 28f3 31bd 6a50 883d 3fa3 dc3c c014 a8bb
00000210: 9519 28bd 2a12 bf3d 0455 253d e014 5a3d
00000220: 0a1f 2c3d f899 86bd fce9 ba3d 7c29 283d
00000230: 7a81 c63c 49d1 b0bb cadb 93bc dbb5 983d
00000240: 1ef3 4d3c 3811 5dbc c591 163d 355a b73d
00000250: 88f9 913d 3022 4abd 64be bc3d 85ff 4e3d
00000260: 1e80 783b 6dbe 0abd 2db2 a83d 4c1c a23d
00000270: db70 413d 1143 46bd 4eb4 193d 4d9e b4bd
00000280: 31ee 87bc 8a31 7f3c 360b 71bc 23a1 0ebd
00000290: 511a c2bc 1489 a13d 4226 11bd bedf 3cbd
000002a0: 1898 2abc 756b 473d 1813 e63b 7225 193d
000002b0: 4ee3 17bd d705 00bd f7a6 193d 5b7b bb3d
000002c0: df42 f13c 924c 28bd d343 89bc c959 02bd
000002d0: d105 37bd 1455 023d 77a9 3fbc 5f5f 8cbd
000002e0: 03a1 963d e427 c43c bff9 acbb 9ff6 c73c
000002f0: 9373 50bd 0b68 853d 7e2c 4f3d 94fd 02bd
00000300: 3ad2 0abd cd12 c0bc f0fb c4bc eb1c 9fbc
00000310: b3d1 89bd c141 10bc a676 ff3a 1584 933d
00000320: 3cef 8e3d ac35 453d 970f 3e3d 439f 1fbd
00000330: ea0f 873d 7b1f d53c 7087 523d dc5b 49bd
00000340: c1be 51bd 869d 30bd 5d6a 903b 488c e23c
00000350: 5f3d fbbb 0643 e5ba 68bb 113c 1c1a 26bd
00000360: 4076 233d 60a1 adbc 6720 4cbd 9812 dcbc
00000370: fbda 2cbd b255 403d c141 02bc 7a3f 1fbd
00000380: 447d 673c a43e d7bc 2685 01bd 66ee 6a3d
00000390: 361f 56bd 25bc 1bbd 2a3c 4cbd a2f2 41ba
000003a0: bb8c 8ebb efed 6fbd 2d93 e7bc 2105 453d
000003b0: 055f 5bbd 1bc0 90bd 0773 1abd 2d56 f43b
000003c0: eb33 61bc b9c7 a13c f2cc 9dbc 9581 933c
000003d0: 70dd bf3c a1f8 78bd 464f 38bb 881f 55bd
000003e0: 830e a4bb ca26 e2bb 4e79 b63b 4856 1f3d
000003f0: 20c5 c4bc 9bb9 153d 333d 833c 5868 d9bc
0.013657385 -0.007308377 -0.03487262 -0.02933643 -0.04474654 0.01737054 0.015940094 -0.0099849515
-0.046053156 -0.008277983 0.0041126315 0.026940746 -0.036075015 0.017112892 -0.04631878 -0.022010503
-0.04917956 0.022427706 0.04126365 -0.066026345 -0.061327957 -0.010806208 -0.046924267 0.04815659
-0.004451705 -0.014751288 0.0030912368 0.0070769642 -0.04067203 0.02179405 -0.011364412 0.059011918
-0.02942102 0.041813463 0.06549726 -0.023314798 0.04150706 0.040348917 -0.037503205 -0.08194682
-0.031152464 0.031693045 0.061719406 -0.031320084 -0.001255429 0.040051967 0.024644386 0.055633258
-0.0004696004 0.015493416 -0.03374002 -0.057479158 0.028984789 0.04862525 0.057784166 -0.04010299
-0.028831739 -0.056276806 -0.04649868 0.09163568 -0.04879678 0.059106387 0.08901361 -0.06060801
-0.05326055 0.053840123 0.077352636 0.0054594697 -0.029243615 -0.03399199 0.024605459 -0.031790912
0.08845836 -0.005855995 0.06713708 0.09170657 -0.0646211 0.010850109 0.02953757 0.09236413
0.050384324 0.052410305 -0.0481003 0.031747766 -0.037732173 0.053780507 -0.05861128 0.059307385
0.0437596 0.046329036 -0.063560754 -0.04812967 0.014691513 -0.038340684 0.061799634 0.043766115
0.0051044784 0.0768638 -0.020742638 -0.014543209 0.0030890927 0.010345733 0.010715169 -0.04451725
0.08730313 -0.07405287 -0.07332276 -0.056932002 -0.03255662 -0.06244631 -0.0574189 0.046641707
-0.031653427 -0.016674355 -0.036159564 -0.026583757 0.09276313 -0.02722111 0.012092645 0.09468772
-0.014011285 0.05457439 -0.02415615 0.032662645 -0.00867651 -0.0052344115 0.029031273 0.043855205
-0.043444782 0.06655963 0.02693331 -0.0051294267 -0.041040022 0.093296364 0.04036428 0.053242564
0.04202179 -0.06572336 0.0912666 0.041055188 0.024231661 -0.0053960425 -0.01804914 0.07456561
0.012570171 -0.013492875 0.03676011 0.089527525 0.071276724 -0.04934901 0.09216002 0.05053665
0.003791816 -0.03387301 0.08237109 0.079155535 0.047226768 -0.048403803 0.037525468 -0.08819256
-0.01659307 0.015575776 -0.014712146 -0.03482164 -0.02369419 0.07887474 -0.035436876 -0.046111815
-0.010412239 0.048686463 0.007021319 0.037389226 -0.03708201 -0.03125557 0.037512746 0.091543876
0.029450832 -0.04108865 -0.016755974 -0.031823907 -0.04468328 0.031819418 -0.011698118 -0.06854128
0.07354929 0.023944803 -0.0052787955 0.02440959 -0.05089147 0.06513985 0.05057954 -0.031980112
-0.033891894 -0.023446465 -0.024045914 -0.019422969 -0.0672945 -0.008804739 0.0019490316 0.07202927
0.06979224 0.04814689 0.046401586 -0.038970243 0.06594832 0.026015988 0.051398695 -0.04915987
-0.051207308 -0.043118976 0.0044072107 0.027654782 -0.007667228 -0.0017491288 0.008894779 -0.040552244
0.039907694 -0.021195114 -0.04983559 -0.026864335 -0.042201024 0.046956725 -0.007950247 -0.038878895
0.014128987 -0.026274987 -0.03162112 0.05735626 -0.05227586 -0.038021225 -0.049862064 -0.0007398521
-0.0043502725 -0.05857652 -0.028268421 0.048100594 -0.053557415 -0.07067891 -0.037707355 0.007456562
-0.013745288 0.019748555 -0.019262765 0.018006125 0.02342102 -0.060783986 -0.0028123423 -0.052032024
-0.0050066127 -0.0069015967 0.00556866 0.038900644 -0.024019778 0.03655396 0.016020393 -0.026539013

fc5.bias f4 [32]
00000000: 78ca f73b 5bdb 6c3d 461d 67bd 0e45 5bbd
00000010: 2a2f 2dbd 4ebe 963c 889b 4f3a c5a0 8bbd
00000020: a78e 0dbd 9194 0cbc 2caa aa3d ad97 433d
00000030: 2e22 29bb 180d d6bc 9f4f 0fbd 870c 54bc
00000040: ab13 2fbb 955f d93c f8db 4cbc 03e9 2dbd
00000050: a53a 3f3d 32ba 033d 3d3e 6ebd 6b90 683d
00000060: 782b 6fbd f67d d0bc 5ff0 5b3d ddfe 09bd
00000070: 4eac e13c 084e da3c 0078 2f3c e447 2b3d
0.007561978 0.05782638 -0.0564244 -0.053532653 -0.042281307 0.018401291 0.00079195993 -0.06817774
-0.034559872 -0.008580343 0.08333239 0.04775207 -0.0025807726 -0.02612929 -0.034988042 -0.01294244
-0.0026714604 0.026534835 -0.0125036165 -0.042458545 0.046686787 0.03215999 -0.058164824 0.056778353
-0.058391064 -0.025450688 0.053696033 -0.033690322 0.027547982 0.026648536 0.010709763 0.041816607
