mlops-23-autumn/best_model.pt (torch, 327778 bytes, 16 tensors)

fc1.weight f4 [64, 562]
00000000: 817a c5bc fe5b 5d3c 6c11 383c bb2f 8c3b
00000010: 567b 92bb db85 823b 9a15 f43b 34a1 dcbc
00000020: b7fb d53c 2c6f d83c 68ae 0abd 84be de3b
00000030: 62bf fa3c 721c c8bc b7a3 893b 3133 afbb
00000040: b434 7cbc 4940 f03c 59b1 e33c 7a32 313d
00000050: 0f87 e0bc fb7b 2a3d d6bb 50bc 5026 83ba
00000060: d524 093d 4951 b5bc 0c92 b1bc 6fd2 69bc
00000070: f6a7 eb3c 2ad4 b5bc 9938 d63c cbd0 efbb
00000080: 3db3 16bd 6e2b d83c 92ee c9bc 3d88 bb3c
00000090: 113c 0ebd 869a 19bd 44a0 29bc d9bc 913c
000000a0: 6478 ca3c 7295 30bc 39c4 bcbc 8308 963c
000000b0: 14b5 02bd b8ab 0fb8 f6e8 33bb f3a1 07bc
000000c0: 6135 a83b 9a95 8bbc 1711 d1bb cd89 063d
000000d0: 137a a43c 6f7f 0e3c 5cfe c0bb f8df dfbc
000000e0: 2f71 9f3c 89ad bd3c 9731 aebc e5fc e63c
000000f0: bc7e df3c b3ef 223c 66da 83ba e317 433c
00000100: d921 b23c 8073 a33c 607d 053d d0d5 82bc
00000110: d089 253d 2ecc 0f3d 17b1 8cba b10e 2abd
00000120: 862c f5bc f845 0c3b 19fb 2e3c ec94 1bbd
00000130: 339c 1b3c 180d 24bd cd19 1fbd 448f 013d
00000140: ecbc fe3b cecd f83c f624 d3bb 9a79 07bd
00000150: b68d 083d ace3 a5bb 0af4 113d a7ae fa3c
00000160: 49e1 75bc 7612 e83c 4da7 8dbc 4c0a e13c
00000170: 2a37 0dbc eddb 8abc 28d8 c83c fbe9 b33c
00000180: c688 0f3d 72e8 a03c cbd7 55bb 8346 95bc
00000190: 6459 a53b c428 5cbc 10eb c0bc a91c 0b3c
000001a0: ad5e 2abd ccf7 feba d090 1cbc 1e3d a43c
000001b0: 1b95 2bbd b03e 873c 7674 133d 76c0 e63c
000001c0: 285f aebc 314f 303c d03f babc fc00 1ebd
000001d0: 3624 e63c f42a 723a 69eb bfbc e4e6 083d
000001e0: c7f2 043d f4c1 a53c 1947 eabc b3b0 a2bc
000001f0: 88bb bc3c 5102 293d 0f63 13bd 5273 11bd
00000200: 6b78 1e3d 0ead 0fbb 671f 013d d12e bfbb
00000210: 3184 10bd 97c6 6abc 0894 623c c451 24bd
00000220: dc7e 1e3a 16c6 bd3c f015 783c 7ab0 1a3d
00000230: 6322 893c 6124 1e3d 1de5 103d d416 ff3b
00000240: f332 cebc 1e40 283c e170 cebc 995f 4cbc
00000250: 7b14 0f3d 8d89 d13c f9f0 133c 3284 c6bc
00000260: ded6 04bd d78a 42ba dec8 a73c ded6 d33c
00000270: 0d7e 453c 03c6 163b c200 9f3c 2961 823c
00000280: 61a4 09bd e842 c2bb 8d9f 8b3c 747c f03c
00000290: 4270 7b3b 2501 723c 97cd 61bb fa4a 0f3d
000002a0: a95e 163d d1ac 283c 7701 153d 854a 223c
000002b0: 9aa2 fb3b 14ef 83bc 9823 b73c 17a4 38bc
000002c0: 145a 1fbd 8d82 cebb 25ea 223d 59b9 7a3c
000002d0: d306 db3a 5ff7 263d 0400 1abd 2bb9 033d
000002e0: 2b44 7fbc f4ca d03a f6ec 5aba f6ea 0f3d
000002f0: 2d95 003d 1d37 90bb 1451 c23b a776 ac3c
00000300: 3fff afbc 47fe 3dbc 0c81 2fbd 70db 853c
00000310: 015d 693c 34a5 0abd 634f bebb 6d52 82bc
00000320: 7725 24bb 98f4 0ebd 6a2b c23c a2b6 023d
00000330: 9e3b a6bc e0f7 f0bc 1ed2 343c 9098 853c
00000340: 9a12 97ba cfbe 02bd 900d 043d cb60 b7bc
00000350: d481 e33c 77c1 22bd d104 a1bc 1ebc 14bd
00000360: df4c 573b 6a58 1d3c 04ab 263d b20e 483c
00000370: 7cb2 55bc 5623 7ebc ce06 c63c 3ed7 b9bc
00000380: f035 493b 5ab6 02bd 53e5 f9bb 12ca 193d
00000390: b48e 283c bee0 91bc b309 093d 0716 9b3c
000003a0: a3d9 68bc 85ab 85bc 638a 803c c9bf 33bc
000003b0: 464f b5bc 87e8 06bd d9a6 17bd aa74 e0bb
000003c0: b891 ba3c b7a9 243b 9ff9 24bc e0d2 82bc
000003d0: ae97 cd3c 5a4a 32bc e3f9 08bc b163 c13c
000003e0: 9a75 893c c00c 9ebc 6aad 9ebc 5584 5ebc
000003f0: 2f14 dabc 09e4 5b3b 41e6 af3c 278b 34bc
-0.024106266 0.013510702 0.011234622 0.004278151 -0.004470269 0.003983242 0.007448864 -0.026932336
0.026121004 0.026420198 -0.033857733 0.0067976136 0.030608837 -0.024427626 0.0042004245 -0.0053466787
-0.015393425 0.029327529 0.027794527 0.04326103 -0.027408151 0.041622143 -0.012740096 -0.0010005925
0.03348239 -0.022133486 -0.021676086 -0.014271363 0.028766613 -0.022195894 0.026150035 -0.0073185912
-0.03679203 0.026387896 -0.024649892 0.022892112 -0.034725253 -0.03750088 -0.010353152 0.017790245
0.02471561 -0.010777818 -0.023042785 0.018314606 -0.03191097 -3.4253782e-05 -0.0027452088 -0.008278358
0.0051333164 -0.017039109 -0.006380211 0.03284626 0.02007774 0.008697375 -0.005889697 -0.027328476
0.01946315 0.023154037 -0.02126388 0.028196761 0.027282111 0.009944844 -0.0010059595 0.0119075505
0.021744655 0.019952536 0.03259027 -0.015971094 0.04041463 0.03510683 -0.0010733929 -0.041517917
-0.029928457 0.002140401 0.0106799835 -0.03798382 0.00949769 -0.04005155 -0.038842965 0.03163077
0.007773986 0.030371573 -0.006443615 -0.033074953 0.03333827 -0.005062541 0.035633124 0.030600859
-0.015007325 0.028329115 -0.01729169 0.02747073 -0.008619109 -0.016950572 0.024517134 0.021962157
0.035042547 0.019642089 -0.0032629843 -0.0182221 0.0050460566 -0.013437454 -0.023549587 0.00849072
-0.041594196 -0.0019452511 -0.00955601 0.020048674 -0.041890245 0.016509384 0.035999738 0.028167944
-0.021285608 0.010761068 -0.022735506 -0.038575158 0.028093439 0.0009237968 -0.023427682 0.03342332
0.032458093 0.020234086 -0.028598355 -0.019859647 0.02303864 0.041261975 -0.03598314 -0.03551037
0.03868906 -0.0021923217 0.03152409 -0.0058344384 -0.035282318 -0.014329574 0.013829239 -0.04011704
0.0006046125 0.023165744 0.015141949 0.037765957 0.01674003 0.038608912 0.03537475 0.0077847037
-0.025170779 0.010269193 -0.02520031 -0.012473964 0.03493164 0.025578285 0.00902962 -0.024232958
-0.032431476 -0.00074212014 0.020481523 0.025859293 0.012053979 0.0023006208 0.019409541 0.01591547
-0.03360403 -0.005928386 0.017043853 0.029356219 0.0038366471 0.014770781 -0.0034454816 0.034983613
0.03671137 0.010295109 0.03637835 0.009905462 0.0076792957 -0.016105212 0.02235584 -0.011269591
-0.038904265 -0.006302184 0.03977408 0.015302979 0.0016710408 0.040763255 -0.03759767 0.03215901
-0.015580217 0.0015929625 -0.000835135 0.035136186 0.031392265 -0.0044011013 0.0059300754 0.021052672
-0.021484016 -0.011596269 -0.042847678 0.016339988 0.014243365 -0.033848956 -0.0058078035 -0.015908444
-0.0025046745 -0.03490123 0.023702342 0.031912453 -0.0202921 -0.029415071 0.011036424 0.016308099
-0.001152593 -0.03192025 0.032239497 -0.022385022 0.027771868 -0.039735284 -0.019655617 -0.036312215
0.0032852215 0.009603599 0.040690437 0.012210535 -0.013043042 -0.015511354 0.024173167 -0.022685643
0.0030702315 -0.031912185 -0.0076262145 0.037546225 0.010287929 -0.01780736 0.033456516 0.018931402
-0.014212045 -0.016317138 0.015690988 -0.010971018 -0.022132527 -0.0329366 -0.037024353 -0.006849845
0.022774562 0.0025125572 -0.01006928 -0.015969694 0.02509674 -0.010881985 -0.008360359 0.023607107
0.01677971 -0.019293189 -0.0193698 -0.013581355 -0.026620952 0.0033552668 0.021472098 -0.011019505

fc1.bias f4 [64]
00000000: 772c acbc a874 823c f8f2 a7bb ed1a f43c
00000010: a903 02bd 46cd fd3c de52 2f3c 14d9 ff3c
00000020: 370d c03c a608 24bd 1491 0abc acd2 413c
00000030: b273 f33c ff8c 6a3c b0f2 46bb 86f2 f3bc
00000040: 447e efbc d650 783c 14b4 d03b 30fa 94bc
00000050: a461 173d 9291 203d 44a2 6e3c 5b5b e03c
00000060: 9379 12bc 0948 fd3a 4886 a4bc f796 d63c
00000070: fc0e 943b e784 9cbc 11e2 0fbd 3212 0a3d
00000080: de58 06bd 50e0 a13c 4462 06bd a9a2 88bc
00000090: 7717 f93c 3c80 893c e2f2 21bc dea2 19bd
000000a0: b84a 923c bcaf ee3c a6cf df3c cde6 233d
000000b0: 9688 57bb 889d 07bd f618 1e3d 7445 31bd
000000c0: 6683 1ebc 4bb7 293d 9215 d33c f3e0 9abc
000000d0: 1cbd 0abd 32f0 1dbd e6e7 11bd 35a0 bcbb
000000e0: 4e89 303d ed84 963c c36e c33b 72e1 3ebc
000000f0: 7325 133c a1b6 883a 8763 fb3c 1a23 aebc
-0.021017296 0.015924767 -0.0051253997 0.029797995 -0.03174177 0.030981671 0.010700909 0.03123144
0.023443801 -0.04004731 -0.008457441 0.011830013 0.029718254 0.014315843 -0.0030357055 -0.02977873
-0.029235013 0.015155992 0.0063691232 -0.018185705 0.03695835 0.039201327 0.014565054 0.027387312
-0.008940118 0.0019323836 -0.020083562 0.026195033 0.004518388 -0.019106342 -0.035127703 0.03370876
-0.032799594 0.01976028 -0.032808557 -0.016679125 0.030406697 0.01678478 -0.009884568 -0.037508838
0.017857894 0.029136531 0.027320694 0.04001503 -0.0032887808 -0.033109218 0.038598023 -0.043279126
-0.0096748825 0.041434567 0.025767121 -0.018906092 -0.033871755 -0.038559146 -0.035621546 -0.005756403
0.043099694 0.01837393 0.0059641316 -0.01165043 0.008981097 0.0010430404 0.030687107 -0.021256972

fc2.weight f4 [64, 64]
00000000: 6a48 de3c 8c82 c8bd ad23 c93d 78f5 dfbc
00000010: dfd8 8c3d b3be 97bd eaee b8bd e2bd 8d3d
00000020: 222c 9b3d 9807 cb3d 37b1 463c ebf9 ed3d
00000030: ec69 15bd b1d3 af3d 78f2 cfbd 420a df3d
00000040: efb0 b2bd 7ebe e1bd 6ee7 e5bd 00f2 8f3a
00000050: 04f9 dc3d 14ea 803b b465 edbc a4bf 033e
00000060: fa1c 01be e2a9 48bd 047d 8f3d facb bf3d
00000070: 374c fdbc 9ae5 023d fc39 5fbd 719b 68bd
00000080: 2c6b bc3d daff a73d 08a2 b4bd 4f12 603d
00000090: 99b8 03bd e8c5 37bc 9adc fd3d a0c8 c8bb
000000a0: 0d37 163d 83eb be3d e7ca d9bd 4be9 8bbd
000000b0: c58f 86bd bb32 dbbd ae57 8a3d 5769 82bd
000000c0: c57f f83c 1e5a 783d 46ac 14bd 07b6 df3d
000000d0: 7fc6 4dba 4713 48bb 5e87 c13d 91ba 87bc
000000e0: ef26 f8bd ae6f 1d3c c155 c7bd 3baa f33d
000000f0: 0625 b23b c8c3 f63d 1d72 97bd 61d6 ab3d
00000100: b0c5 fc3b 3e09 583d df19 733d 0c69 4f3d
00000110: 81ed 903d f174 5d3d 0af0 923c 5b21 f3bd
00000120: c772 f1bd 28f0 ee3c c2f4 a7bd 91f8 b33d
00000130: b02f e83c 4104 cf3d 44b6 79bd b24d c53d
00000140: 2366 283d dadd 943d 1935 ddbd 3200 8c3d
00000150: 1d66 44bc 2791 2ebc 3671 12bd 37bd a93d
00000160: 1113 7dbd 2fa0 8bbd 1c14 d6bd a611 27bd
00000170: 71be 6e3b 8a85 3dbd 55b1 653c d538 b4bc
00000180: 8000 a13a 9c80 023e 92f7 c93d bad9 43bd
00000190: 29fe aabb f569 64bd 0971 843d 50e6 33bd
000001a0: ad39 713c 859f ec3b f144 db3d d258 833b
000001b0: 1a71 efbd 94af 7cbd e98e f43c 039c e93d
000001c0: 940a 363d 7c70 ed3d 9b16 c5bd fa65 9abd
000001d0: c52b b3bd 9c1b b43d 40f6 0abc a566 febd
000001e0: 591b 973d b5bb dfbc 3d53 613c 9d15 0abd
000001f0: 4a8e babd 605f e3bd 1d96 79bc e45e a53d
00000200: 43fb 683c 9280 9fbd ea6d 173d 33f5 e2bd
00000210: 5580 92bd 1231 e53d e89b 04bd 7cc3 323d
00000220: ac9e f43d 4050 f1bc 0b5f ffbd 0619 933c
00000230: 223d b4bd c6df 063b 00d8 753b d6ef a53d
00000240: be91 e23d da1d a7ba d0c1 d8bd 307d 253d
00000250: 1261 c7bb 538e 29bd e9a8 aa3c 6769 7bbc
00000260: 2309 e7bd 2915 55bd a79c f03d 2f1d bb3d
00000270: 931e cabd 845b 893d c021 be3b 0083 b93d
00000280: 6279 853d 312e 443d 285f 723d 168f 80bd
00000290: b347 acbd 29ea e63d 2d47 483c 5307 f3bc
000002a0: cdef 893d d2dc 9abd 0ec5 9d3c 529d 01bd
000002b0: d42c fabd 4ab2 453d e094 b2bd 803c 523d
000002c0: 5a8d bcbd cafc 98bd ae6c debc bcd4 9fbd
000002d0: 519b ae3b 23af f03c d237 a0bd b541 b23d
000002e0: e39c 5dbd 3943 653d 82e9 f13d 3208 fcbd
000002f0: 08e7 3d3d b33b 4f3d 4cdf c9bd 830b 5b3d
00000300: 8e8a cd3d 88f2 db3c f30a 99bd c410 bfbc
00000310: 1e05 0a3d b8f3 21bd 59b1 8fbd 2b89 a639
00000320: eca9 ecbd 5811 a93c 82dd edbd 00e6 293c
00000330: 02b4 b0bd 9c4c dfbd c86e 803d f5c8 423d
00000340: bc50 103d d29a f8bc 71e4 bb3d 44a6 d3bd
00000350: d2b2 1d3d 5c6a babd edbb a13a 6d81 d3bd
00000360: 9c8a 32bd 78f7 62bd 0004 bfba 30b1 b63d
00000370: f67b cfbd a85c ecbc 28eb 68bd 3dcd 963d
00000380: 4a67 94bd e07d 8abb 6038 45bc a22c dabd
00000390: a4f9 6dbd c30e c03d e2d7 c9bd 7680 e7bd
000003a0: 405c b7bd f41a dd3d 4c65 54bd 9a40 8abd
000003b0: 4de8 d33d 987a 603d f8a6 973c 20ed e13c
000003c0: 281f d2bd ba34 9fbd c1e9 b63a f236 89bd
000003d0: 9861 bb3d 40f3 883b b427 4e3d 50a3 763c
000003e0: d25e 91ba bf4a cd3d 3d47 e03d 6d12 8abd
000003f0: d054 35bc 3e97 bd3d 008f 853b fe6c 023d
0.02713414 -0.09790525 0.09821258 -0.027338728 0.068773024 -0.0740942 -0.09029944 0.06920983
0.07576777 0.09913558 0.012127212 0.11619934 -0.036477968 0.08585299 -0.10153669 0.108906284
-0.08725154 -0.110226616 -0.11225782 0.0010982156 0.107896835 0.0039341543 -0.02897916 0.12866074
-0.1260871 -0.048990138 0.07006267 0.09365077 -0.030920131 0.031957246 -0.054498658 -0.056788865
0.09200129 0.08203097 -0.088199675 0.05470496 -0.032158468 -0.011216618 0.12395592 -0.006127432
0.036673594 0.09322264 -0.10634404 -0.068316065 -0.065703906 -0.107030354 0.06755005 -0.06367748
0.030334363 0.060632817 -0.036297105 0.10923391 -0.00078497076 -0.0030529068 0.09449647 -0.016568454
-0.12116801 0.009609146 -0.09733153 0.11897703 0.0054365424 0.12049061 -0.07394812 0.08390499
0.007713996 0.05274319 0.059350844 0.05063729 0.0707655 0.054066602 0.017936725 -0.118715964
-0.1178947 0.02916725 -0.08200981 0.08787645 0.028343052 0.10108233 -0.060964838 0.0963396
0.04111303 0.07268877 -0.10801143 0.06835975 -0.011987236 -0.010654724 -0.035752498 0.08288043
-0.06178576 -0.06817662 -0.10453054 -0.040788315 0.003642943 -0.04626993 0.01401933 -0.021999756
0.0012283474 0.12744373 0.098616734 -0.047815062 -0.0052182865 -0.05576511 0.06466872 -0.043920815
0.014723224 0.0072211646 0.10706509 0.004008391 -0.11691494 -0.06169088 0.029853301 0.1140671
0.04444368 0.1159372 -0.09623452 -0.07538982 -0.08748583 0.087943286 -0.008481562 -0.12421922
0.07378263 -0.027311185 0.013752756 -0.03371202 -0.09109171 -0.11102176 -0.015233544 0.080747396
0.014220062 -0.07788195 0.036970057 -0.11081924 -0.07153384 0.11191 -0.032375246 0.04364346
0.11944327 -0.029457211 -0.124693 0.017956268 -0.08800723 0.0020580157 0.003751278 0.08102386
0.11062954 -0.0012749985 -0.10583842 0.04040259 -0.0060845697 -0.041395497 0.020832496 -0.015344954
-0.112810396 -0.052022133 0.11748629 0.09136426 -0.09869113 0.06706908 0.005802363 0.090581894
0.065172926 0.047895614 0.05917278 -0.062772915 -0.08412113 0.11275131 0.012224001 -0.029666578
0.067351915 -0.075616494 0.019259002 -0.031644173 -0.122155815 0.048265733 -0.08719802 0.05132723
-0.09206648 -0.07470091 -0.027151432 -0.07804248 0.0053285738 0.029380387 -0.07823147 0.08703939
-0.054104697 0.05597231 0.11812116 -0.12306251 0.046362907 0.050594043 -0.098570436 0.053477775
0.10036193 0.026849046 -0.074727915 -0.023323424 0.033696286 -0.03953907 -0.07016248 0.00031764185
-0.115558475 0.020638153 -0.11614515 0.010369778 -0.08628084 -0.10903284 0.0627113 0.04755493
0.035233244 -0.030347262 0.09174431 -0.10334447 0.038500614 -0.09102318 0.0012339331 -0.103274204
-0.04358922 -0.055411786 -0.0014573336 0.089205146 -0.101310655 -0.028852776 -0.056864887 0.07363365
-0.07246263 -0.0042264313 -0.012037367 -0.10653044 -0.058099404 0.093778156 -0.098556295 -0.11303799
-0.08953142 0.107961565 -0.051854417 -0.06750603 0.10347042 0.054804415 0.018512234 0.02757889
-0.10259849 -0.07773729 0.0013955162 -0.06699933 0.09149474 0.0041793883 0.050330833 0.015053585
-0.0011090881 0.10024022 0.109510876 -0.06741796 -0.011067584 0.09257363 0.004075885 0.031842224

fc2.bias f4 [64]
00000000: b1d6 c3bd c52b e83d d201 26bd 9ac4 e7bd
00000010: 31ac e3bc 9423 ca3c 8a88 81bd 9905 913c
00000020: 46d5 cabc b9b8 17bd dbd4 9fbd 463d f83d
00000030: 8340 babd 81d7 383d fdb3 843c e1fa 943d
00000040: 3c52 a63d e5d5 8b3d 858f d33d cd58 8a3b
00000050: aae9 b13d 60e4 56bd 9b07 943d 806a 803d
00000060: fe5a 003e 46f1 413b 515a 663d 16b6 853d
00000070: 1a23 e6bd 7233 81bd 5f93 803d fabf a1bc
00000080: 5747 013e 4a73 6b3d 935a 85bd 841a 9d3c
00000090: 0901 6b3c 3e45 503d 46fc 803d b849 c63d
000000a0: caaf 893d e71c c5bd a6bf b8bd e5f2 e9bd
000000b0: 7d04 953d 4189 3ebd 60e5 dd3b 2335 d93d
000000c0: 7ed9 fa3d e618 c9bd 4964 663d 8953 c83d
000000d0: e0de 3bbc e635 92bd 462f c9bd 06b7 8e3b
000000e0: fd2b 0b3d 8a9a 23bc 5985 5b3d 5a18 b63d
000000f0: bde0 b43d c7de 54bc 233e cb3d f82e ccba
-0.095624335 0.113364734 -0.04052908 -0.11316796 -0.027792068 0.024675168 -0.06324871 0.017702864
-0.0247599 -0.0370414 -0.07804271 0.12121062 -0.09094336 0.045127396 0.016199106 0.07274414
0.08121154 0.068279065 0.103301086 0.0042220117 0.08687146 -0.05246389 0.07228013 0.06270313
0.12534711 0.0029593273 0.056238476 0.06528871 -0.11237164 -0.063086405 0.06278109 -0.019744862
0.1262487 0.057482995 -0.06511416 0.019177683 0.0143435085 0.050847284 0.06298117 0.096820295
0.06722982 -0.09624653 -0.09020929 -0.114232816 0.07276247 -0.046517614 0.0067717284 0.10605838
0.122485146 -0.09819202 0.056247983 0.09781558 -0.011466712 -0.071391866 -0.0982347 0.004355314
0.033977497 -0.009985575 0.053593967 0.088913634 0.08831928 -0.012992567 0.09923961 -0.0015577963

bn.weight f4 [64]
00000000: 4f14 813f f313 813f 57b0 7f3f cce4 7f3f
00000010: 27f1 803f ad21 813f 0d98 803f 07d2 7f3f
00000020: 1699 7f3f f2d1 7f3f 5332 813f b716 813f
00000030: c03a 813f 573d 813f 153f 813f fe4e 813f
00000040: c0b9 803f 7910 813f 5741 813f 18b1 803f
00000050: 5a07 813f 0000 803f 97ec 803f f50f 813f
00000060: e5ed 803f e12d 813f cb3e 813f 9832 813f
00000070: d345 803f 152a 813f e103 813f 401e 813f
00000080: fb12 813f 7b43 813f f925 813f ca92 803f
00000090: 10f2 803f c325 813f bee4 803f 6d46 813f
000000a0: bd35 813f a9ba 803f d4e7 803f a52c 813f
000000b0: d728 813f e0eb 803f 40cb 7f3f 874a 813f
000000c0: fe46 813f 0000 803f 48fc 803f ae17 813f
000000d0: f677 7f3f 0000 803f 7d8c 7f3f 2b36 813f
000000e0: 97e4 803f ddfa 7f3f 9a29 813f 771e 813f
000000f0: 9837 813f fb44 813f 753a 813f 4b17 7f3f
1.0084323 1.0084213 0.9987845 0.9995849 1.0073594 1.0088402 1.0046402 0.9992985
0.99842966 0.99929726 1.0093483 1.0085057 1.0096054 1.0096844 1.0097376 1.0102232
1.0056686 1.0083152 1.0098065 1.0054045 1.0080369 1.0 1.0072201 1.0082995
1.00726 1.0092126 1.0097288 1.0093565 1.0021309 1.0090967 1.0079309 1.0087357
1.0083917 1.0098718 1.0089713 1.0044796 1.0073872 1.0089649 1.0069807 1.0099617
1.0094525 1.0056964 1.0070748 1.009175 1.0090588 1.0071983 0.9991951 1.0100869
1.009979 1.0 1.007699 1.0085351 0.9979242 1.0 0.99823743 1.0094656
1.006976 0.9999216 1.0090821 1.0087422 1.0095091 1.0099176 1.0095965 0.9964492

bn.bias f4 [64]
00000000: ef2e c73b 38a9 0bbc dc63 88bb e03b b3bb
00000010: bb4f c6ba cd9f 8ab9 f5e1 053c 3327 14bc
00000020: 124f f23b 3726 113c 4e05 0fbc fc05 10bc
00000030: 60d8 00bc 8d2d e13b 3b93 213c a991 1abc
00000040: f6f8 1abc 6f6f b9bb 1715 cbbb 81f5 f93b
00000050: 9443 1d3c bf49 f13b 98cc 1f3c 1ba3 ef3b
00000060: dcc1 fabb b8fa b4b8 ee08 8dbb 0cc7 12bc
00000070: 0007 c13b 78c6 aabb b23b 073c b150 bcbb
00000080: db14 c7bb 6d06 d8bb 7788 dabb f37d 07bc
00000090: cf5a 15bc 7ed5 0a3c 275a 93bb 0289 0a3c
000000a0: 981c 3939 280b ba3b 692e 5ebb 9ea6 b93b
000000b0: 65a1 c6bb b207 093c cb8d d73b e5b3 0abc
000000c0: c0d9 a93a ffeb 183c 770f f9ba ff92 c8bb
000000d0: 6d92 063c 3307 0bbc 7a5c e83b 723c 64ba
000000e0: 628e babb 2bf5 61bb 6104 173c b892 ff3b
000000f0: 3114 d0ba b2ba 6eba f0ba e5bb 1826 1fba
0.006078593 -0.008524232 -0.004162295 -0.005469784 -0.0015129963 -0.00026440472 0.008171548 -0.009042549
0.00739468 0.008859209 -0.008729292 -0.008790489 -0.007864088 0.006871885 0.009861763 -0.009434142
-0.009458771 -0.005659036 -0.0061975825 0.0076281433 0.009598631 0.0073635275 0.009753369 0.007313145
-0.0076525044 -8.629769e-05 -0.004304043 -0.008958589 0.005890727 -0.0052116476 0.008253979 -0.005746924
-0.006075484 -0.006592563 -0.0066691 -0.008269775 -0.009115889 0.008473752 -0.004496831 0.008455517
0.00017653627 0.0056775995 -0.0033902174 0.0056656143 -0.00606172 0.008363651 0.0065781823 -0.008465742
0.0012958571 0.00933361 -0.0019001801 -0.006121039 0.008213622 -0.008485603 0.007091102 -0.0008706517
-0.005693243 -0.0034478407 0.009217353 0.0077994727 -0.0015875158 -0.0009106799 -0.00701081 -0.0006071045

bn.running_mean f4 [64]
00000000: 2b6c 743d 47d8 423d 03bb cc36 9324 4537
00000010: ab32 ae3d 9154 173e 7f24 543d 15ea cf30
00000020: ab8d 8b3c 5375 ce2f 6d41 6f3d 19f3 3c3e
00000030: dd38 413d 2a63 dc3c ca69 a53d b0a5 d73d
00000040: 8917 233e ca35 b83d a2d8 1c3d 5282 503d
00000050: 7491 613e 0000 0000 a48e 1f3e d344 913d
00000060: 43d3 b83d 3f9f 6b3d baf6 a63d aedb 543e
00000070: e33f 8e3a f1dc 4b3d 8de0 783d 14ec 0e3d
00000080: 5f49 573d 9102 033d 7005 703d 65d3 8f3c
00000090: d248 9e3c 052e 083e 6e76 fe3d 6069 4c3e
000000a0: f008 443d 124e 123c 66ae f03c db00 593d
000000b0: 5f7f 723d d2d6 623c 1260 9d35 2355 743e
000000c0: 993c 6e3e 0000 0000 151c a43d 61b3 993d
000000d0: 1f3b 1939 0000 0000 53ac bc34 5397 323d
000000e0: 64f0 003d 0600 023c fb0e 2e3e 8702 0a3e
000000f0: dc3f a23e e0ce 963d 48af ad3d 3bc9 0037
0.05967347 0.04756954 6.101445e-06 1.1750631e-05 0.08505758 0.14778353 0.051792618 1.5127762e-09
0.017035326 3.7554546e-10 0.058412004 0.1845211 0.04717337 0.026902754 0.08076818 0.10529649
0.15926947 0.089946344 0.038292535 0.050905533 0.22028142 0.0 0.15581757 0.07093205
0.0902467 0.057524916 0.08152528 0.20786926 0.001085278 0.049771253 0.060761023 0.03489311
0.052560207 0.03198487 0.058598936 0.017556855 0.019321833 0.13298805 0.124249324 0.19962072
0.047860086 0.008929746 0.029380035 0.05297933 0.0592035 0.0138451625 1.1725372e-06 0.23860602
0.23265304 0.0 0.08013169 0.07504917 0.00014613241 0.0 3.514311e-07 0.043601345
0.031479254 0.007934576 0.16997902 0.13477527 0.31689346 0.07363677 0.08480698 7.676247e-06

bn.running_var f4 [64]
00000000: 494a 133b 7fb9 043b 9dc9 ec34 b407 2135
00000010: 6622 e23b 41fc 613b 4cc8 613b 3eca d234
00000020: 7355 253a e0c7 d234 da7a 8a3b 3c46 c23b
00000030: 79fc 5d3a de76 f83a 2b3a f23b 52aa d53b
00000040: 379f 9c3b 8ae1 573b 8efc 143b dfa4 6d3b
00000050: e9b5 8b3b 73c6 d234 d676 8d3b 12a8 373b
00000060: 9ef5 323b 23f9 d23a a413 f33a 1d42 aa3b
00000070: de71 2d38 1427 1f3b 659c 303b 8bdc 4d3a
00000080: d583 013b 9c89 b73a fc14 963b e172 1d3a
00000090: f5f7 2d3a 3a59 243b fdf9 b43a 4031 013c
000000a0: 1931 083b 004c eb39 38c3 433a 876d 3f3b
000000b0: 0eff 363b 0090 413a 7196 db34 56fb 163b
000000c0: e885 0d3b 73c6 d234 85be 2d3b 614c 793b
000000d0: d8bc 8f36 73c6 d234 f247 d434 a1f6 d43a
000000e0: 0be7 b93a 3632 4c39 e873 f53b a6e5 1d3c
000000f0: 7cea 153c 5006 483b 14a2 6f3a a5b8 f334
0.0022474697 0.0020252166 4.4105118e-07 5.9988383e-07 0.0069010733 0.003448263 0.0034451662 3.92627e-07
0.00063069834 3.9260976e-07 0.004226071 0.0059287827 0.00084681023 0.0018956324 0.007392188 0.006520548
0.004779722 0.0032940828 0.0022733542 0.00362616 0.0042636287 3.925994e-07 0.004317145 0.0028023762
0.0027307044 0.0016095977 0.0018545282 0.0051958696 4.135246e-05 0.0024284767 0.0026948687 0.0007852993
0.0019762416 0.0014002803 0.0045801383 0.0006006193 0.0006636375 0.0025077597 0.0013807412 0.007885277
0.0020781218 0.00044879317 0.00074677495 0.002920957 0.002792302 0.00073838234 4.090139e-07 0.0023037991
0.0021594707 3.925994e-07 0.0026511264 0.003803991 4.2837164e-06 3.925994e-07 3.9540424e-07 0.0016247818
0.0014183236 0.00019473661 0.0074906237 0.009637272 0.009150144 0.003052134 0.0009141278 4.5396624e-07

fc3.weight f4 [128, 64]
00000000: 7372 cdbc 4289 513d 246a 18bd 44e8 193d
00000010: 2d83 88bd 803c 8ebc 84e3 f1bc e370 c23d
00000020: 3b7b bdbd 44e5 e93c d7b8 e7bc cf5b 8abd
00000030: 6685 e2bd 9fd9 54bc 1a5c 643d cf08 d8bd
00000040: 693f 8fbd bdb7 88bc e525 d63d 1a35 bf3d
00000050: 0fda a8bc 0ce8 823d 37fd 48bc 1491 84bb
00000060: a4a2 bebd b29c 6dbd f853 9e3d e63f d33d
00000070: 594a 8f3d 5ade 65bd c434 263d 47c7 723b
00000080: 7714 d43d 47c5 1ebd 8433 f63d ae12 f7bd
00000090: 4512 603d 44c3 d13d d727 bb3d f911 edbd
000000a0: 6c80 c1bd 11d4 12bb 5fdd ebbd d35d 6e3d
000000b0: 7918 e5bd 1df7 b03d 440d d83c 5707 b0bc
000000c0: ed54 cc3b 966e 9cbc 23fc 5cbd 3e89 db3c
000000d0: bbec da3d 6101 8f3d ca0e b23a 4d58 51bd
000000e0: 1c38 babd 90a0 673d 6351 bbbd cd3e f63b
000000f0: 5694 5bbd 27f7 dbbd 2f0c ffbc 13a8 cf3c
00000100: 0934 30bd c82d 22bd 1c96 453d 0b5e 9bbd
00000110: aead 9fbd 3f1e cf3d 8fea e9bd 1cca ad3d
00000120: 0a75 c03b 40e6 9ebd 30c7 43bd ebae fd3d
00000130: f22d 0dbd cbdf cabd b768 653b 11ae ce3c
00000140: b49f e7bd eaad 83bd c17e fcbc 66d6 823d
00000150: 7bb0 1abd 457d ed3d 700f d1bd 8c2f 01be
00000160: 940e e0bc bc65 a63d 0e37 2c3d 46de b73c
00000170: 841d c63d 553f ccbd 6501 b73d cb0c aa3d
00000180: 8695 cfbb e13b 3b3d 3a1a eb3d fd9a d4bd
00000190: e45f f23d 181e ac3d c237 dbbd 6b00 72bd
000001a0: 49ff 0dbd 1f7e aa3d 3a0c e9bd 0739 31bc
000001b0: d426 103d c255 553c c9c0 82bd 97cd de3c
000001c0: e070 93bc 3f36 843d 8126 00be 0028 29bd
000001d0: bd09 26bd 6a57 97bd fc74 6bbd cf50 99bd
000001e0: 77b3 163d 193a a1bd edfb 423b 2dfe 85bd
000001f0: 4a2d e13d 37a4 08bc c883 c83d f517 55bd
00000200: dc90 3f3d eb3e 30bd e498 2ebd eb4d 38bd
00000210: b85b 8ebd e096 ac3d 002b 40bd fc3e 96bd
00000220: eb5c cfbd a36d 08bd 2ae3 4ebd b09c 77bc
00000230: 60a0 c3bd 7052 babd f803 1b3d cba7 5e3c
00000240: 26b9 34bd a099 cc3d c8ef b8bc 2381 b1bc
00000250: 8b5c 9b3c df12 dd3c 3e15 4b3d f3e7 d23d
00000260: 331b d1bd 1bd2 56bd 4d78 e6bd b2e9 b83d
00000270: 7dd6 9a3d 080a debb 38fe 19bc 40fe 833d
00000280: c41f cb3c b60a d2bd a0b5 e4bd 1908 7b3d
00000290: 6d5d 2e3c 2b7e 48bd 5218 be3d 2f98 c13b
000002a0: 63ca f43d 9ef1 843c 0cb2 bcbc 300f e43d
000002b0: 9ae5 b33d 028d 2ebd 75b0 ebbd fc52 8a3d
000002c0: 67a2 d23d ebb3 a93b 5c31 9fbd 01cb 9abd
000002d0: 30de 433d e836 e4bd cb48 c53c 3837 2cbd
000002e0: d76f 56bd 0224 803c 0ce4 aebc 7d60 10bd
000002f0: 12c4 d9bd ffc7 323c 76d6 2abd b00b c83a
00000300: 7996 353d c3aa f1bd c146 713d 83ba 39bd
00000310: 2ea7 bbbc ff3d 74bd 8a58 f23d 178d b2bd
00000320: 3d06 88bd 4ff5 893c 9ce1 b7bd 0e3d d03c
00000330: 0ac9 78bb b2d1 e03d 0f6f 58bd e2cb 87bc
00000340: e26d daba 228a 5a3d 48fd 94bd 9daa a33c
00000350: 6d40 edbd 35a7 573c 7972 103c df0f 66bd
00000360: 138f 8ebd 1b96 463c 5ef5 913d 8890 f4bd
00000370: 32aa eabd 2a0a 8b3d 4fe6 4bbd 71c5 a33d
00000380: 8c76 fcbc 6b87 ff3c 7f61 72bc 65ae 9bbd
00000390: 93bd 10bd a482 0ebd a4c9 733c 00aa b13d
000003a0: 158c 66bd 791e 243b 35fd 9ebd f2f6 923d
000003b0: 5da6 5b3d 604b e13d d151 ac3d 494d cb3d
000003c0: 0d7d 91bd b2b2 e53c 285a e43d c898 fcbc
000003d0: a378 21bd 5456 efbb 7e54 dc3c f15e b8bd
000003e0: 652e 87bc 2583 72bc 0812 44bd 13e3 8d3d
000003f0: d877 a7bd 045f 31bc b227 993b 8b96 223d
-0.025078988 0.05115629 -0.0372106 0.03757502 -0.06665645 -0.017362833 -0.029527433 0.09494188
-0.0925202 0.028551705 -0.02828638 -0.06755792 -0.110606 -0.012991338 0.055751897 -0.10548555
-0.069945164 -0.016689176 0.104564466 0.093363 -0.020611791 0.06391916 -0.012267402 -0.004045615
-0.09308365 -0.058010764 0.077308595 0.10314922 0.069966026 -0.056120254 0.040577665 0.0037045048
0.10355466 -0.038762357 0.120215446 -0.1206411 0.054704923 0.10242322 0.09138458 -0.11575694
-0.09448323 -0.0022404233 -0.115168326 0.058194946 -0.111863084 0.08640883 0.026373513 -0.021487875
0.00623571 -0.0190957 -0.053951394 0.02679884 0.10689684 0.06982685 0.001358473 -0.0511096
-0.09092733 0.05654961 -0.09146383 0.0075148107 -0.05360826 -0.107405 -0.03113374 0.025348699
-0.043018375 -0.03959444 0.04823886 -0.07586297 -0.07796799 0.10113191 -0.114216916 0.08485815
0.005873327 -0.077587605 -0.047797382 0.123868786 -0.034467645 -0.09905966 0.0035005042 0.025229486
-0.11309758 -0.06429656 -0.03082216 0.063885495 -0.03776596 0.11596159 -0.102080226 -0.12615794
-0.027350701 0.08124873 0.04204469 0.022444855 0.096735984 -0.09973017 0.08935813 0.08303221
-0.0063349633 0.0457114 0.11479612 -0.10381124 0.11834696 0.084041774 -0.10703994 -0.05908243
-0.034667287 0.08324837 -0.11379285 -0.010816819 0.03519328 0.013020935 -0.06384427 0.027197642
-0.017998159 0.06455659 -0.12514688 -0.041297913 -0.04053663 -0.0738972 -0.057484612 -0.07486116
0.036792245 -0.078724094 0.002975221 -0.06542621 0.10994966 -0.008339933 0.0979076 -0.0520248
0.046769008 -0.043028753 -0.042626277 -0.044996183 -0.06951088 0.084272146 -0.046916008 -0.07336232
-0.101251446 -0.033307683 -0.05050961 -0.015113041 -0.095520735 -0.09097755 0.03784558 0.01358981
-0.044121884 0.09990239 -0.022575274 -0.021668022 0.018965026 0.026986538 0.049580805 0.10298147
-0.10210266 -0.052446466 -0.11253414 0.09028949 0.07560442 -0.006776098 -0.009398989 0.06444979
0.02479542 -0.10255949 -0.11167455 0.06128702 0.010642392 -0.04894845 0.092819825 0.0059080343
0.11952665 0.016228493 -0.023034118 0.11135709 0.087840274 -0.042614944 -0.11508266 0.06754109
0.10284882 0.0051789186 -0.077730864 -0.07558251 0.047819316 -0.11143285 0.024082562 -0.04204485
-0.052352753 0.01564217 -0.021348976 -0.03524827 -0.106331006 0.010911941 -0.041708432 0.0015262272
0.044332955 -0.11800148 0.058905367 -0.045343887 -0.022906866 -0.059629437 0.11833294 -0.08718317
-0.06641815 0.016840605 -0.089785784 0.025419738 -0.0037961625 0.10977496 -0.05284029 -0.016576711
-0.0016664828 0.05335439 -0.07274872 0.019978816 -0.11584554 0.013162424 0.008816355 -0.05616748
-0.06960883 0.012120749 0.07126878 -0.1194163 -0.114582434 0.06789048 -0.049780186 0.07996643
-0.030818246 0.031192502 -0.014793753 -0.076016225 -0.035337042 -0.034792557 0.014879618 0.08675003
-0.056285936 0.0025042577 -0.07763139 0.07176007 0.053625453 0.11000705 0.08414043 0.0992685
-0.0710393 0.02803931 0.111500084 -0.03083457 -0.03942169 -0.0073039923 0.026895758 -0.09002484
-0.016501615 -0.014801775 -0.04786876 0.069280766 -0.08177155 -0.010825876 0.0046739215 0.03969435

fc3.bias f4 [128]
00000000: 1a61 713d 479d 01bd 7dfa 003d 19f6 4b3d
00000010: 096d 2c3a a676 e6bd 428c bc3b 4b3a 8e3d
00000020: e5cb 87bd 93d5 e9bd 0009 5dbd d044 513b
00000030: 486e bc3c ae3a ca3d de4e dd3c ef91 e1bd
00000040: 548f ed3d 247c cabd 1eea 8fbd 47ce cebd
00000050: 9c10 ecbd 6b70 ca3c 33af 33bd 5e6c d1bd
00000060: aba5 de3c fae9 9f3d aff7 703d 238d 033e
00000070: 3681 68bd e8d9 a33c a88d 8abc d4d2 7f3c
00000080: b77b 193d 0a43 2fbd f5b0 1cbc c31c 863d
00000090: 5e8d 4abd 8162 a63c ccc5 7f3c df06 003e
000000a0: e502 7c3c 09fb d93d 5768 cb3c d2b5 34bd
000000b0: 49d5 ce3c 3ce0 413d a5b8 91bb 3ecc 6d3c
000000c0: 52cf 5bbc 8b82 953c 0aba 7fba 6300 e03d
000000d0: bf6f e23d b702 313c 4bc0 13bd 2bc8 853d
000000e0: 4314 8c3d 2a94 943d 58b8 e53d 309f e7bd
000000f0: 62bd 0f3d 5cb5 8f3d 5def e7bd 8ef1 c83d
00000100: f9ae 493d ea8b 0e3d 5416 853c 91c3 5fbd
00000110: 9deb 123d 219e 1d3b cc35 043d db77 50bc
00000120: 7b6d c0bc 61f8 ae3d 098d cebd f112 a93d
00000130: 918a adbc d1a8 843d f9fa df3d 05b2 dcbd
00000140: ad9d 133d 883e efbc 1125 49bd a7f2 08bb
00000150: b664 7ebd e14d 26bd 2e6d 31bd df5a 79bd
00000160: a8a2 e6bd 2402 743d d4de 203d ea8d 0fbd
00000170: dae1 5dbb 40ef 9d3d edd0 8d3d 5ca9 333c
00000180: 56a5 ce3b 85a6 9dbd e21c 973c 56f5 8e3d
00000190: 28cf 863c 10f5 ebbc b202 b6bd 4ef6 a23d
000001a0: e0d6 af3d 8fbf 90bd fac5 323d 4e23 d5bd
000001b0: 14ac 93bd b20d 20bd c202 993d 8b50 023e
000001c0: 9b75 c6bd 151a 07bd ac47 9cbd 7d94 65bd
000001d0: 21f0 2b3d 1aa6 df3d 659d 92bd e9ef 8e3d
000001e0: 3e06 ab3d 410f a33b 411d 30bd 341c fc3d
000001f0: f051 acbc b6cd 073d 4713 063d ad67 5bbd
0.058930494 -0.031644132 0.031488884 0.049795244 0.0006577527 -0.11253099 0.0057540247 0.06944712
-0.06630687 -0.11417689 -0.05396366 0.0031931885 0.023001805 0.098744735 0.027015146 -0.11014163
0.11599603 -0.09886959 -0.07027076 -0.10097938 -0.115266055 0.024711808 -0.043868255 -0.102257475
0.027178606 0.07808299 0.05882996 0.12846808 -0.05676385 0.020001367 -0.01691325 0.01561423
0.0374715 -0.042788543 -0.009563674 0.065484546 -0.049451225 0.020310642 0.015611123 0.12502621
0.0153815495 0.10643584 0.024830027 -0.04411871 0.025248187 0.047332987 -0.00444706 0.014514027
-0.013416128 0.018250724 -0.00097552 0.10937574 0.1105647 0.01080387 -0.036072057 0.0653232
0.06839802 0.072548226 0.112168014 -0.113096595 0.03509272 0.070170134 -0.11324952 0.09811698
0.049239133 0.0348014 0.016245998 -0.054629866 0.03586923 0.002405055 0.032277867 -0.012723888
-0.023489704 0.08543468 -0.10085494 0.08255566 -0.021184238 0.06477512 0.10936541 -0.10776142
0.036039043 -0.029204622 -0.049107615 -0.0020896585 -0.062107764 -0.040601615 -0.043317012 -0.060877677
-0.11261493 0.059572354 0.039275005 -0.03504745 -0.0033856542 0.07711649 0.06924615 0.010965671
0.0063063307 -0.07697777 0.01844639 0.06980388 0.016456202 -0.028803378 -0.08887233 0.07957135
0.08585906 -0.07067787 0.043645836 -0.104071245 -0.07210556 -0.03907556 0.07471229 0.12726037
-0.096904 -0.03298386 -0.07630858 -0.056049813 0.04197705 0.10920353 -0.07158927 0.06979353
0.083508 0.0049761836 -0.04299665 0.12310067 -0.021035165 0.033155166 0.032733228 -0.05356567

fc4.weight f4 [196, 128]
00000000: cbd3 b8bc 6db6 643d ebf9 983d 1143 97bd
00000010: 7451 6b3d 8b3c 88bc 1f5b 5abd a867 a5bc
00000020: 0f16 a83d a943 86bd 910a a03d 8270 8bbd
00000030: 4459 a93d a697 a53d 753c 283d dde1 263d
00000040: f79a 18bb 40d7 55bd 6927 95bd 1ebd 0cbc
00000050: 9624 ac3d abef 9bbd f6ea be3d 83f3 35bd
00000060: 7a2a 7ebd 12e2 a1bd c545 5d3d 3aa0 ba3d
00000070: a20f 84bd 4d70 693c fe08 aa3c 330c b53d
00000080: 6ce9 5cbd 4d73 003c 05a2 323d efe4 753c
00000090: 7ada e6bc 7fa3 4bbd 6807 4b3d a932 a0bd
000000a0: 24e8 8b3d 676f 183d e898 33bd b8c5 a1ba
000000b0: ca07 9c3d 5773 abbc c0ee 81bd 1847 abbd
000000c0: 1ffc 773d fd0e d6bc 4e02 78bd ec02 b53d
000000d0: e3ff 453b 6f37 323b 5c70 5fbd d447 72bd
000000e0: b6a8 26bd 678a cb3c e40d 5c3d 9dab dbbc
000000f0: f24a fdbc 8b6f 343d 05f2 26bd f6e0 a03c
00000100: 0854 df3b 4031 673d 1170 be3b 0926 983c
00000110: b876 b13c 67b9 a33d 5167 7ebd 5499 e33c
00000120: ce55 7d3d d69e 0e3d 908e ba3d c4bc be3c
00000130: ccec 6d3d 4afb b93d 9be8 c3bc 1273 eabb
00000140: 407d 58bc aeb9 23bd de8b 65bd 6469 963d
00000150: 7f24 513d 10ee 8d3d 34d5 9f3d 3d7a ec3c
00000160: af14 34bd 43a5 6c3d 69d0 22bd 3547 a1b9
00000170: e778 7c3d 1196 743c 6b25 65bd 1f4f d13c
00000180: 80c9 8fba 9506 b83d edc2 21bd 5ddb c23d
00000190: 3f0b 3bbd 4ff2 76bb 2613 233d a49b 80bd
000001a0: 35ab b73d 022e 713d d2f0 113d 1fb2 3bbd
000001b0: 9584 20bd ee16 70bd 6e33 a2bd 22a4 f6bc
000001c0: a132 eebc 2528 9abc a2c6 93bd 45d0 7f3c
000001d0: 9208 69bd f85a 9ebd 32d7 a0bb 9409 fc3c
000001e0: 04dc 22bd 1556 c43c 754b 96bd 05e1 853b
000001f0: 6cea 083a d995 4fbd 0a00 afbd ee49 3cbd
00000200: 5155 bdbc 735b 26bd 636f 733c b2f8 0ebd
00000210: 42ef cb3c a9e3 0abd 7c77 66bd a59b 5cbb
00000220: 21bd a9bd 91b8 1c3d 4239 8abc f1e4 993d
00000230: 7444 89bd afa0 96bd 2a57 b0bd 5e99 673d
00000240: bb3e 3ebd 224a bfbc 0eb8 cbbc d08d 59bd
00000250: fc8d bfbc 3113 223d 07aa 7cbc d7c0 893d
00000260: a832 b2bd f9be b33c 3bd9 283c b636 93bd
00000270: 85f4 5a3c 2e62 adbd 28b1 29bd 3623 21bd
00000280: 9c6a 7a3d b66b 80bd f41c bc3c 25a7 64bd
00000290: e6fb e63c 78c0 b13d 10e0 813c 8f4c 9abc
000002a0: 2fdd b6bd 272d 9ebb c1a2 abbc d6df 89bd
000002b0: 157f b7bd 3746 39bd 7406 3a3d e9be 0cbd
000002c0: 8a0a 833d 9bb5 96bc d1a2 463d 4fa4 333c
000002d0: a48a e6bc fabb 99bd 6860 89bd 3e29 3c3d
000002e0: c4d6 9b3c 8ba7 b33c ba41 8c3d ad9d 903d
000002f0: 5a91 643d 47a9 583d db0e 84ba e5f9 953d
00000300: da2b 8cbb c65f 083a 5014 6339 ae76 12bd
00000310: f47e 963d 3c07 5bbd 2057 ac3c cd47 a23d
00000320: cabd b83c c635 183c 0a6c dabc 5f6e 2bbd
00000330: 915f 903d b789 1c3d 0302 10bd 23f0 8ebc
00000340: 1e0e 9ebc 922b 2f3d 7f84 94bd 857a 493d
00000350: 1db2 883d e317 0fbb eaa4 1fba 879f 06bd
00000360: 9259 cb3a 9f59 453d 6da3 4e3d 22e6 15bd
00000370: 2fab 2b3d e047 f13c bee2 9fbc 2d80 743d
00000380: b9a5 e13c 1e2f 85bd 9dca 63bd d0d9 94bd
00000390: 78e5 07bd d776 cbbc d479 2dbd 8612 30bd
000003a0: 9f4e 76bb ed59 6b3c 64ef 84bd d3e0 cfbc
000003b0: 42cd 8f3d 50a4 6c3d 58c4 853d f3ab 4bbd
000003c0: 866c 63bd 3d5d a33c 1b31 73bd 3ab8 4e3b
000003d0: 4f39 a33d a81d 88bd 2e71 5f3c 0aab e3bc
000003e0: 012e 1ebd 8231 94bc af0a 4a3d e170 65bd
000003f0: 435b 323d fef3 29bc 8f6a f7bb 2e50 b8bd
-0.022561928 0.055838037 0.07469543 -0.07385839 0.057450727 -0.016630432 -0.053309556 -0.020191029
0.08207332 -0.06555874 0.078145154 -0.068085685 0.08268979 0.08085565 0.04107328 0.040742744
-0.0023285726 -0.05220723 -0.072829075 -0.008590011 0.08405416 -0.076140724 0.09322159 -0.044421684
-0.062052228 -0.079044476 0.054021616 0.09112592 -0.06448294 0.014247966 0.020756241 0.088402174
-0.053933546 0.00783999 0.043611545 0.015008195 -0.02818035 -0.04971647 0.04956761 -0.07822163
0.06831387 0.037215617 -0.043846995 -0.001234225 0.07618673 -0.020929022 -0.06344366 -0.083631694
0.060543176 -0.026130194 -0.060549073 0.08838448 0.0030212335 0.0027193686 -0.054550514 -0.059150532
-0.04068824 0.024846269 0.053724185 -0.02681523 -0.030919526 0.04405169 -0.04075815 0.01963852
0.006815437 0.056443453 0.005811699 0.018572824 0.021663055 0.07994347 -0.06211025 0.027783073
0.061849408 0.034819447 0.09109223 0.02328337 0.058087155 0.09081133 -0.023914626 -0.0071548307
-0.013213456 -0.039972 -0.05604159 0.073443204 0.051060196 0.069301724 0.07804337 0.028866882
-0.043965038 0.057774793 -0.039749537 -0.00030761366 0.06163874 0.014928357 -0.055943888 0.025550423
-0.0010970086 0.089856304 -0.039492536 0.095144965 -0.045665022 -0.0037681048 0.039813183 -0.06279686
0.08968202 0.058881767 0.035630055 -0.045824166 -0.03918894 -0.058615617 -0.07919966 -0.030107561
-0.029076876 -0.01881797 -0.072156206 0.01561362 -0.05689294 -0.07732195 -0.004908466 0.030766286
-0.039760605 0.023966828 -0.07338611 0.0040856623 0.000522292 -0.050680015 -0.08544929 -0.045968942
-0.023111971 -0.040614557 0.0148581 -0.034905143 0.02489436 -0.03390852 -0.056266293 -0.0033662107
-0.082880266 0.038261954 -0.016873006 0.0751437 -0.067025095 -0.07354867 -0.08610375 0.056542747
-0.046446543 -0.023350779 -0.024868038 -0.05311376 -0.023383133 0.039569084 -0.015421397 0.067262344
-0.08701068 0.021941649 0.010305698 -0.0718817 0.013363962 -0.08465992 -0.041428715 -0.03934022
0.061136827 -0.06270544 0.022963025 -0.055823464 0.028196286 0.086792886 0.015853912 -0.018835334
-0.08928906 -0.00482716 -0.02095163 -0.067321464 -0.08959786 -0.045232978 0.04541631 -0.034361754
0.063984945 -0.018397143 0.048495118 0.010964467 -0.02814228 -0.07506557 -0.06707841 0.04593777
0.019023307 0.021930477 0.06848474 0.07061324 0.05580268 0.05289581 -0.0010075228 0.07323054
-0.0042776885 0.00052022596 0.00021655974 -0.035757713 0.07348433 -0.053473696 0.021037638 0.07923851
0.022551436 0.009290164 -0.026662845 -0.041853305 0.07049478 0.038217273 -0.03515817 -0.01744849
-0.019293841 0.04276616 -0.07251834 0.04918911 0.066745974 -0.0021834306 -0.0006089943 -0.03286698
0.0015514365 0.048181172 0.050448824 -0.036596425 0.0419113 0.029453218 -0.019517299 0.05969255
0.027544843 -0.065031275 -0.05561315 -0.07268107 -0.033177823 -0.02483694 -0.042352512 -0.042986415
-0.0037583483 0.014364702 -0.06490973 -0.02537576 0.07021572 0.057773888 0.0653159 -0.04972453
-0.055523418 0.01994192 -0.059373002 0.0031542913 0.07969915 -0.066462815 0.013637824 -0.027791519
-0.03861809 -0.018090013 0.049326595 -0.056015853 0.043544065 -0.010373114 -0.0075505446 -0.08999668

fc4.bias f4 [196]
00000000: 1f05 39bd 44b7 88bd 7685 ddbc 03e8 debb
00000010: cadb 75bd fbf6 acbb f3d9 51bd 505f b0bd
00000020: 2460 13bc 4fcc 163d b7b2 96bd 6338 2b3d
00000030: ba74 b53d 8e70 a33d 9524 1c3c b301 793d
00000040: 14b8 2dbd b264 4e37 36e3 abbd 8d80 a3bc
00000050: a3dc 9ebd 7949 4a3d 6983 963d bb06 a53b
00000060: acc8 393d 5885 3cbd 6665 55bd 3da6 a23d
00000070: 6196 e4bc 55d6 cfbc f3e1 82bd 66bc 86bd
00000080: a1f4 933d 9438 72b9 f065 71bb 9f21 2dbd
00000090: dbe6 ad3d dbbd 8e3d 28e1 adbd 4c8e 7fbd
000000a0: 3b6a 713d ff91 81bd 4655 54bd 4aea 3fbc
000000b0: e80e d2bb 5813 283c 3d90 1a3d d61f 91bd
000000c0: acfd 643d 7e90 78bc 3f69 11bd 4f0f 1d3d
000000d0: 6ed5 013d 2d74 a73d 9484 4abd ac7c 8a3d
000000e0: 955c 113d ad94 8bbd 3446 87bd 811c b3bd
000000f0: 6aa1 8f3d 04e2 d2bc 19e6 943d 4eeb ae3d
00000100: e52c 2b3d 55b4 9b3d 59f2 853c 4eaa edbc
00000110: 8e94 e63c ef8e 9d3d ccfb 8bbd 9a63 8bbd
00000120: 000c a13d 6e9a eebc aaad 993c f38a 0dbd
00000130: 0b62 cebc fd27 ae3d 1b23 f3bb f437 743d
00000140: bcbb 033c 2033 2ebd ac2b c53c ba19 193d
00000150: 68dc d4bb 95b6 a93c 75d5 c3bc 7f6b 44bd
00000160: 3c67 17bc a764 80bd 03f2 8dbc a059 f53c
00000170: ea4b c33c ba96 96bd 3e85 973d 52f9 f2bc
00000180: e4ab a63d 5b96 593d 4308 c03d d965 afbd
00000190: 5537 b5bd 583b 993c d9b2 ec3c 0e3c 07bd
000001a0: 8e38 0cbd d1dd 29bd d303 093c c3f5 8d3d
000001b0: 3ac9 253d f84c 483c 6cfa a83d 01af 283d
000001c0: afe9 7abd 1b7b 37bd 7882 8f3d c940 a7bd
000001d0: a1b5 1ebc f872 a93b dc24 5f3d fea6 b73d
000001e0: 868e b03c 312e d9bc ab3e b7bc c928 ab3d
000001f0: 9ba2 01bd 66d6 1fbd b668 903d c31f 3d3d
00000200: 419d 8d3d fad5 833d f249 35bb 2ce2 14bd
00000210: cff4 623c 571a 9a3d c533 903d b1d5 08bd
00000220: 29cf 91bc dc4d 7b3d fb5f 943d 67e1 2abd
00000230: 8d1f 0fbd 99de 933d 4b58 ab3d a810 1dbc
00000240: 1953 73bd eaac 7a3d eb8a ffbc 1022 b53d
00000250: fe3b 553c 8af6 1bbd fa79 ea3c 0e5a 6fbd
00000260: 5d4b 623c 54e4 703d 9349 1dbd 91df 213d
00000270: 236a 33bd 9206 11bd 6d14 8bbd 83ca 9dbd
00000280: 879e 883d 25cf d53a ac75 85bd f11b 9e3c
00000290: 98f5 58bc 2259 4ebd 1436 d43c eba5 b33c
000002a0: 1cc6 60bd 7fe1 6cbd 6896 463d ece1 80bd
000002b0: d455 de3b 0832 75bd 484b ca3c 16cc 223c
000002c0: b5da 85bd 2f1e 7fbb 498e 3d3d fd2e 473d
000002d0: 6b58 843c 7d59 7b3d 8928 f23c 5232 af3b
000002e0: c40e 133d b119 83bb ce7b 703c ca0e 993d
000002f0: 11ed 75bd cc46 823d 7200 313c 057e 8d3d
00000300: e04e 283d bba1 f3bb fef6 063d 07d8 153c
-0.0451709 -0.0667558 -0.027041178 -0.0068025603 -0.06002406 -0.005278466 -0.051233243 -0.086119294
-0.00899509 0.036815938 -0.07358306 0.04180182 0.088601544 0.079804525 0.009530206 0.060792636
-0.04241188 1.2302002e-05 -0.083929464 -0.019958759 -0.07756927 0.049386475 0.07349283 0.0050362027
0.04535739 -0.046025604 -0.052098654 0.07941864 -0.027903738 -0.025370756 -0.06390753 -0.06578903
0.07224394 -0.00023099995 -0.003683444 -0.04226839 0.08491298 0.06969806 -0.08490211 -0.062391564
0.0589392 -0.06326675 -0.051839136 -0.011713574 -0.0064104684 0.010258518 0.037735213 -0.0708615
0.055905983 -0.015171168 -0.03550076 0.038344678 0.031697683 0.08176456 -0.049442843 0.067620605
0.035488684 -0.06815467 -0.06605187 -0.08745671 0.07013209 -0.025742538 0.0727045 0.085409746
0.04179086 0.07602755 0.016350912 -0.029011872 0.028147008 0.07693278 -0.06835136 -0.06806107
0.07863617 -0.029126372 0.018759567 -0.03455634 -0.025193235 0.08503721 -0.0074199564 0.059623674
0.008040365 -0.042529225 0.024068676 0.03737805 -0.006496001 0.020716945 -0.023905495 -0.04795408
-0.009240922 -0.06269198 -0.017327314 0.029949963 0.02383991 -0.073529676 0.07398461 -0.0296599
0.08138254 0.053121906 0.09376576 -0.08564348 -0.08848444 0.018705055 0.028893875 -0.033016257
-0.034233622 -0.041471306 0.008362728 0.06931641 0.040475108 0.012225382 0.08250889 0.04118252
-0.061258014 -0.044795137 0.07007307 -0.08166654 -0.009686858 0.005171176 0.05447851 0.08967398
0.021552335 -0.026511284 -0.02236875 0.083573885 -0.031649213 -0.039022826 0.07051222 0.04617287
0.069147594 0.06437297 -0.0027662483 -0.036348507 0.013852312 0.07524555 0.07041124 -0.033406917
-0.017798977 0.06135355 0.07244869 -0.041718867 -0.0349422 0.072201915 0.0836645 -0.009586491
-0.05940542 0.06120006 -0.031194171 0.088443875 0.0130147915 -0.038076915 0.028622616 -0.058435492
0.013811913 0.0588115 -0.038400244 0.03951985 -0.04380239 -0.035406657 -0.06791005 -0.07704642
0.06670862 0.0016312344 -0.06516585 0.019300433 -0.013242148 -0.050377972 0.025904693 0.021929702
-0.05487643 -0.057832237 0.048483282 -0.06293091 0.006785134 -0.059862167 0.0246941 0.009936353
-0.06535856 -0.0038927903 0.04627827 0.048628796 0.016155442 0.06136464 0.029560344 0.005346575
0.035902753 -0.0040008654 0.014677955 0.07473524 -0.060040537 0.0636116 0.010803329 0.06908802
0.041090846 -0.0074350513 0.032950394 0.009145743

fc5.weight f4 [32, 196]
00000000: 7e1e 31bd 912c 4e3d 4553 113d 9ef8 87ba
00000010: 9f12 053d 5b78 26bd abca 263d 4da0 c93c
00000020: 7983 603c 6a34 cc3c 6653 2abd efa9 09bd
00000030: 7295 933c 62b7 f33c 18a9 17bc 30d3 2e3c
00000040: e2f3 213b b149 38bd 8b51 3b3d 43e9 b53b
00000050: d001 c73c 290c 92bc 5fab 66bd 45c4 efbc
00000060: e5aa 4dbb a9ac 6ebd 75fa 163a c8a1 27bd
00000070: 996c 093d 1bb4 acbc 2bce 783d 32b6 903c
00000080: 8307 3cbd 6386 893d ed23 8fbd 08f9 cabc
00000090: 6101 21bd 1010 753c b8bc ac3c 3e98 dd3c
000000a0: af85 773a af36 463d 8d4a 59bd 12af 473d
000000b0: 99aa 363d ad0c f9bc 3c37 8abd 8b1d 48bd
000000c0: 9889 0cbd 170f 8b3c 6256 70bd 5f73 393d
000000d0: 1da3 063d 1a45 aebc 6d1a c43c 585f 3b3b
000000e0: 9ecd 83bd ccbe 86bc 78c5 16bd f5d6 94bd
000000f0: 0e08 f7bc fd72 0bbd c0a8 0a3c 9839 6bbd
00000100: 6b59 8c3d dcc7 f63c db27 cb3b 0a4a 8bbd
00000110: 5d76 b43c 3c30 163d 3963 a6bc 0db0 a83c
00000120: 8461 59bd 804c 893d 566d 563d d785 153d
00000130: 106a ad3b 8df6 73bd 0a6e 4ebb b152 f33c
00000140: bce9 87bd 475d f43c 5830 aabc a82b ffbc
00000150: dc24 85bd 18d9 b0bc 6a44 3ebb 3390 e93c
00000160: 0d27 52bd 8a80 a6bc 6448 833d 5f9e c43c
00000170: f71b 59bd ff45 44bd 15c4 01bd bafb 173d
00000180: 2cb3 78bd d8e0 25bd c277 97bd 9749 723d
00000190: 58fd 02bc 3af1 84bc 76b9 87bd 2be8 26bd
000001a0: 8ebc 46bc 177a 4bbd 6575 93bc 4850 643b
000001b0: db16 d6bc 8b29 bfb9 2f6a 8abd abdf e03c
000001c0: 302d 86bd 9f6d 34bd 076f 153d bed1 5abd
000001d0: a660 be3b 3eb0 3ebd 7fa5 343d ec5d 6f3d
000001e0: c819 8a3d 159e ee3b 0775 4f3d 4702 c0bb
000001f0: 9eb5 593c 0258 45bd bec0 b4bc f7e4 8cbd
00000200: 682a 6a3d e112 94bd b217 fcbc 9ce0 debc
00000210: 8d8d 763d d134 f43c 1d42 103d 0fb3 683d
00000220: 15d7 d4bc a528 e73c 5616 273d 902a f53c
00000230: 4b7a 703d 9ebe 33bd 18a1 1a3c e59e 84bd
00000240: 0c40 793c 72ce 663c 5405 27bc 7c99 273d
00000250: a49c 3ebd ea68 85bd f16e 52bc 9909 2ebd
00000260: d238 1c3d 50ba 783d 5cc5 1cbd d57f 56bd
00000270: 8438 3a3d 9938 91bc 2bde a8bc 9960 4cbc
00000280: 3913 1a3d 899e 08bd f7b7 febc 6e5c 62bd
00000290: 67f2 893d 3575 5b3d 6fea 1a3d 6daf 2e3d
000002a0: 05ec 513d 9331 5fbc 3639 e3bc 12d3 8a3a
000002b0: 428c 2ebc 01ab fb3c a595 703d 14cb 113d
000002c0: 59b0 53bd fab0 073d cbbd 92bd 3bb5 173c
000002d0: df90 d8bc a92b 203d fa16 7ebc 4afe 143d
000002e0: f171 2e3d 561e 09bd 1f15 3f3d faf5 16bd
000002f0: 04d1 1e3d 5427 163d c0c3 113c 111b 73bd
00000300: 4f87 24bc 8fb9 773b bfa6 4fbb 5726 0bbc
00000310: 77d1 7bbd 1854 033d e25c 8cbd 51dc 7abb
00000320: ee42 f6bc 0802 7c3c 595e 1bbd 95b1 ddbc
00000330: fc92 54bd e1b8 3bbc ba62 61bd f8d0 7c3d
00000340: 9ccd 183d 1f68 7f3d 7dea 0dbd 5bb1 913d
00000350: dc29 b13b 725d 0cbb 5e8f 633d 70ad c33c
00000360: 2d32 31bd c8bc b23c e9a2 253d 811c 76bd
00000370: 7ae7 6e3d b640 b83c 962e b33b bb92 68bc
00000380: 6082 953d 24f5 aa3c 0a7a 6a3d 69f6 6f3d
00000390: de85 683c de50 543d 8d46 3a3d 1bdf b2bc
000003a0: e972 9ebc e419 133d 1c9d 75bc 3be3 da3b
000003b0: 30ba 5abd 3eec f73a 1131 61bd 0049 833d
000003c0: d0b1 c9bc 7d1c 86bc ca2d 19bd a6e2 a83c
000003d0: a7b1 d4bc 4f4d 84bd 8b4c c1bc 0b3e cc3c
000003e0: cbfd 0ebd 6004 823d c6e8 9fbc 13af de3c
000003f0: d990 563b 717e 91bc d5f3 a13c 43a8 e0bc
-0.04324197 0.05033547 0.035479803 -0.0010373776 0.03248846 -0.040642124 0.040720623 0.02461257
0.0137032205 0.024927337 -0.04158344 -0.033609327 0.018015597 0.02975053 -0.009256624 0.010670468
0.0024712016 -0.044992153 0.045732062 0.0055514886 0.024292856 -0.017828064 -0.056315776 -0.029268393
-0.0031382379 -0.05827013 0.0005759367 -0.04092577 0.033550832 -0.021081975 0.060743492 0.017665002
-0.0459056 0.06715085 -0.06989274 -0.02477695 -0.039307956 0.014957443 0.021086082 0.027050134
0.00094422227 0.048391994 -0.053049613 0.048750944 0.04459629 -0.030401552 -0.06748816 -0.0488563
-0.034310907 0.016974969 -0.05867613 0.045276042 0.0328704 -0.021273185 0.023938382 0.0028590765
-0.06435703 -0.0164484 -0.036809415 -0.07267562 -0.030155208 -0.03404521 0.008463085 -0.057427973
0.068529926 0.030124597 0.0061998195 -0.06801231 0.022029096 0.036667094 -0.020310985 0.02059176
-0.053071514 0.06704044 0.052350365 0.036504593 0.0052921847 -0.0595613 -0.0031498694 0.029702516
-0.06636378 0.029829634 -0.020775005 -0.031148747 -0.06501171 -0.021587893 -0.0029032477 0.028511142
-0.051306773 -0.020324964 0.06410292 0.024001298 -0.053005185 -0.047918316 -0.03168114 0.0371053
-0.060717747 -0.04049763 -0.07395889 0.059152212 -0.007994972 -0.016228307 -0.06627171 -0.040748756
-0.012129916 -0.04967698 -0.018000314 0.003483789 -0.026133945 -0.0003646131 -0.06758534 0.027450403
-0.065515876 -0.044049855 0.036482837 -0.053422682 0.0058098612 -0.046554796 0.044103142 0.05843918
0.06743199 0.0072820284 0.050648715 -0.0058596465 0.01328793 -0.048179634 -0.022064563 -0.06879609
0.057169348 -0.07230163 -0.030773018 -0.027206711 0.060193587 0.029810341 0.0352193 0.05681139
-0.025981465 0.028217623 0.040792786 0.029927522 0.058710378 -0.04388296 0.009437822 -0.06475619
0.015213024 0.014087306 -0.010194141 0.04091786 -0.046536103 -0.065141514 -0.012843833 -0.04248962
0.038140126 0.060724556 -0.038274154 -0.052368004 0.045464054 -0.017727183 -0.02061375 -0.012474203
0.03761599 -0.033354316 -0.03109358 -0.05526393 0.06735688 0.053578574 0.03782123 0.042647768
0.051250476 -0.013622659 -0.027737241 0.0010591468 -0.010653557 0.03072119 0.058736462 0.03559406
-0.05168185 0.033127762 -0.071651064 0.009259517 -0.026436267 0.039104138 -0.015508408 0.03637532
0.04258913 -0.033476196 0.046651002 -0.036855675 0.03877355 0.0366586 0.008896768 -0.059351984
-0.010042026 0.003779981 -0.0031685082 -0.008493028 -0.061479058 0.03206262 -0.068536535 -0.0038278291
-0.030061211 0.015381344 -0.037931774 -0.027062217 -0.051897988 -0.011457653 -0.055025794 0.061722726
0.03730546 0.062355157 -0.034647454 0.07113906 0.0054066014 -0.0021418002 0.055556647 0.023886412
-0.043260742 0.021818534 0.040438566 -0.060085777 0.058326222 0.022491794 0.0054682 -0.0141951395
0.07300258 0.020868845 0.05724529 0.058584604 0.014192073 0.051834933 0.04547744 -0.0218349
-0.019341903 0.035913363 -0.014991071 0.00667992 -0.05340022 0.001891501 -0.054978434 0.06410408
-0.02462092 -0.016371006 -0.037397183 0.020615887 -0.025963617 -0.06460058 -0.023596069 0.024931928
-0.034910005 0.06348491 -0.019520175 0.027183091 0.0032740145 -0.017760487 0.019769588 -0.027423983

fc5.bias f4 [32]
00000000: b9c4 19bd 5ba1 293d 35d9 9e3d 2d21 8b3d
00000010: c309 e6ba 7432 82bd c22f 8f3d 282a 1b3d
00000020: 31e1 dabb c476 113b dd75 563d 4830 06bc
00000030: 78bd cfbc 7f41 683d 37d9 a83c 3677 843d
00000040: 6f33 ec3c f7b7 82bb 863a 5c3d cf42 863d
00000050: 2b1a 4a3d e341 e43c 62d0 38bd af48 2c3d
00000060: fb44 18bd 90d6 593d fd17 b13a fd9b f93c
00000070: 9768 94bd 7279 9e3c bb8b 90bc 15ea 833d
-0.037541125 0.041413646 0.07756273 0.06793437 -0.0017550517 -0.063572794 0.06991531 0.037882
-0.006679677 0.0022196034 0.052358497 -0.008190222 -0.0253589 0.056703087 0.020611389 0.0646805
0.02883312 -0.0039892155 0.05376675 0.065557115 0.049341362 0.027863448 -0.045120604 0.042061504
-0.03717516 0.05318314 0.0013511177 0.030469889 -0.072465114 0.019345019 -0.017644754 0.06441132
