mlops-23-autumn/best_model.pt (torch, 327778 bytes, 16 tensors)

fc1.weight f4 [64, 562]
00000000: 19be 20bd e68a e53c 3d2e 21bd 7be2 173c
00000010: 4078 0b3c 6b38 d3bc bbf5 f2bc b378 89bc
00000020: 741f 4dbd 12b8 8dbb 07c8 acba fbb0 633c
00000030: 4736 e1bc 7c53 0dbd c6cd fc3c 9807 c73c
00000040: f52c 8d3b 0805 debc 189c e7bb ebb6 85bc
00000050: 05e5 09bd c77b ee3c 520f bc3c 1101 48bc
00000060: b469 cbbb a39d 973b 43c3 2d3c 082e cd3c
00000070: 6c59 eebc 436f fd3b 4d12 8e3b 50f5 073d
00000080: 9928 063d 23ae d53c eaf3 27bb 43be 61bc
00000090: bfb9 603c b7eb f33c 9905 c1bc b990 13bb
000000a0: 6f02 113d c8ba 97b9 4b7f b93c e8f8 b0bc
000000b0: bced e1bc dd02 0e3d b6d7 ba3c cf7c 52bc
000000c0: 2a2b 873c a11e 673d 9af2 b53c 0a60 0e3c
000000d0: 6ce6 2b3c fa05 49bd 72b5 8f3c 5e56 293c
000000e0: 958b 543d f8dd 8c3c f702 3bbd af4d b939
000000f0: 7268 263d f910 3dba 5bd2 b03c dd7e 8e3c
00000100: 5cc0 873c f4a1 bbbc ff01 8b3c 9a27 f0bc
00000110: 5b33 913c b334 27bb 5957 da3c 6135 d0bc
00000120: 0ab6 b7bb d5ae 05bd b7d7 0dbd 5dcb a4bc
00000130: 96f6 6a3c eb54 613c c71d 6abc 97f2 64bc
00000140: 7164 0e3c 97ae f1bc ddff ad3a 29b3 ccbc
00000150: a43d a4bc 8a79 bf3c 18c1 33bd adba 3cbd
00000160: e3c6 943c 8cd3 063d 0739 113d 7637 e5bc
00000170: 261a 90bb a58c 9b3b b302 123d 3271 f83c
00000180: 1de2 a4bc 4ccc 0b3d 19d1 1fbd 993c a13c
00000190: 14c3 47bd 5a8a 4c3c 4431 07bd 0b35 aa3c
000001a0: 2bb2 0ebd aaf6 c4bc 686d f2bb c208 903c
000001b0: 7ea0 0b3d 81cf 89bc aa5c 70bc 9a8a b3bc
000001c0: 7df3 303b b65c f4bc 8ed7 52bc a197 e43a
000001d0: 118d 963b 67c1 21bd 88b8 aabb 6744 833c
000001e0: fcf0 cc3c 5b7e d8bc 88a5 b5bc f9cf 85bc
000001f0: b24c 0dbc a267 6b3c 1699 d83b 8e06 fabc
00000200: e6c9 5739 e690 f0bc d67d eabc 6e8f cdbb
00000210: c4e0 81bc 360a 13bc e652 933c c970 8b3c
00000220: fb36 6e3c 5929 14bd 5567 d33c 1574 183b
00000230: 4538 323c 2795 e23c 6c2a 06bd a7a4 9bbc
00000240: 68a2 8e3c 3261 8c3c fb87 07bd 3820 3e3c
00000250: 81be 863c 827e ae3c e15f 0d3d 18ba f4bc
00000260: 975d 0bbc 42a6 b03c 4e7c 15bc c782 21bb
00000270: cbd5 283d c032 fd3c 3c30 7ebc 1e41 9e3b
00000280: f2b8 fabc 1916 e03b 4177 a63c 984b f03c
00000290: 9eef 8cbc 5066 cfbc 2b8f 48bd 9d25 33bc
000002a0: 993f 053d 25ab 35bd e64b f0bc fc4e ca3c
000002b0: c481 2b3d b00d 2e3d 55e6 dcbc 1d29 24bd
000002c0: a9bc 66bc 661b 1bbb 8199 e13c d01f 06bd
000002d0: 1eab 21bd 098d 873c 01e8 0fbd 152a c33b
000002e0: 8237 c53c 84d9 803c b8b8 f53c 8b38 283d
000002f0: f610 dbbc 97bd 21b9 d7cd 0ebd a81a 8b3c
00000300: 9be0 bc3c 1dc7 c3bc 8fd1 efbb 7653 933c
00000310: c5c4 033d 449c 90bc 2bb8 60bc 1d46 883c
00000320: c008 013d 67f6 233c 21c7 293c bfad 9d3b
00000330: b299 263c 0e02 a5bc 440b 1fbd 310b d6ba
00000340: 3c75 ffbc 12e9 0fbb 83ac e1bc 9290 083d
00000350: 173e a0bc 553b 8dbc 8efd faba ae5f ff3c
00000360: a2ae a63c 6ca6 3e3c e866 b5ba 1f03 dd3c
00000370: b084 37bd 1def 1d3b 07b3 f03c feb2 963b
00000380: 498c 9b3a cac6 883b 6786 bd3c 17d0 3ebd
00000390: d063 2fbd c183 af3c 305e 8a3c 8b04 83bc
000003a0: cac3 d13a 850d fd3c dc6f 4a3c d92a ac3c
000003b0: 415a 62bc 4c3a 0abd 8ae6 c03b a485 443a
000003c0: 17eb 05bd 5c6f a8bc 823b f9bc a1d8 71bc
000003d0: 5143 dbbc 147b b4b9 7423 d23a 7b8e b33b
000003e0: 18d7 79bc 3f3b 973c 5dec 2d3c b8b5 f93c
000003f0: be94 983a c7e4 1fbd 187e c3bc 5705 e23c
-0.03924379 0.028020333 -0.039350737 0.009270306 0.008512557 -0.025783738 -0.029658189 -0.016781187
-0.050078824 -0.0043249214 -0.0013182171 0.013897176 -0.027491702 -0.034503445 0.03085984 0.024295613
0.004308338 -0.027102008 -0.0070681684 -0.016322574 -0.033665676 0.029111756 0.022956524 -0.0122072855
-0.006207669 0.004626946 0.010605636 0.025046363 -0.029095374 0.0077342107 0.0043356777 0.033192933
0.03275356 0.026084011 -0.0025627562 -0.013778272 0.01371616 0.029775484 -0.02356224 -0.0022516681
0.03540271 -0.00028940127 0.022643706 -0.021603063 -0.02757918 0.0346707 0.022807937 -0.0128471395
0.016500074 0.056425694 0.022210408 0.00868989 0.010491949 -0.049077965 0.017542575 0.010335533
0.05189093 0.017195687 -0.045657124 0.00035343828 0.04062695 -0.0007212307 0.02158468 0.017394478
0.016571216 -0.022904374 0.016968725 -0.029315758 0.017724684 -0.002551359 0.026652979 -0.025416078
-0.0056064175 -0.032637436 -0.03462955 -0.020116502 0.014341017 0.013753156 -0.014289326 -0.013973854
0.008690939 -0.029502196 0.0013275106 -0.024987774 -0.020048924 0.023373384 -0.04388532 -0.046076465
0.018161243 0.03291659 0.035454776 -0.027980547 -0.0043976484 0.0047469907 0.035647105 0.030327413
-0.02012735 0.03413038 -0.03901777 0.019682216 -0.048770025 0.012484157 -0.033005968 0.020777246
-0.034837883 -0.0240434 -0.007398296 0.017582301 0.034088604 -0.016822578 -0.01467053 -0.021916676
0.00270006 -0.029829364 -0.012868775 0.0017440208 0.004594453 -0.039491083 -0.005209986 0.016023828
0.025017254 -0.026427438 -0.022173658 -0.01633452 -0.008624243 0.01436797 0.006610046 -0.030520704
0.00020579211 -0.029365968 -0.028624456 -0.0062732017 -0.015854247 -0.008974602 0.017983865 0.017021554
0.014539476 -0.036172245 0.025806108 0.002326255 0.0108776735 0.027659012 -0.0327553 -0.01899941
0.017411426 0.01713619 -0.033088665 0.011604361 0.016448261 0.021300558 0.034515265 -0.029873893
-0.0085062 0.021563653 -0.009123875 -0.00246446 0.041219514 0.030907989 -0.01551443 0.00482954
-0.030605767 0.0068385717 0.020320537 0.02933292 -0.017204102 -0.025317341 -0.04896466 -0.010934261
0.032531355 -0.04435267 -0.029333066 0.024695866 0.0418718 0.042493522 -0.0269653 -0.04007827
-0.014083066 -0.0023667454 0.027539017 -0.032745183 -0.03946983 0.016546743 -0.035133366 0.0059559443
0.02407432 0.01572872 0.029995307 0.04106955 -0.026741486 -0.00015424784 -0.034864273 0.016980484
0.023056319 -0.023898656 -0.0073186825 0.017984133 0.032170076 -0.017652638 -0.013715784 0.016634995
0.031502485 0.010007477 0.010362417 0.004811972 0.01016848 -0.020142581 -0.038829103 -0.001633024
-0.031183831 -0.002195899 -0.02754808 0.033340998 -0.019560857 -0.017240206 -0.0019149052 0.031173553
0.020346943 0.011636358 -0.0013839873 0.026979027 -0.044804275 0.0024098821 0.029382242 0.0045989743
0.001186737 0.004174088 0.023135377 -0.04658517 -0.042819798 0.02142513 0.016890615 -0.015993377
0.0016003784 0.030890236 0.012355771 0.021016525 -0.0138154635 -0.033747002 0.0058868574 0.00074967206
-0.032694902 -0.020560913 -0.030423883 -0.014761121 -0.026765497 -0.00034423976 0.0016032294 0.0054796315
-0.015249036 0.018460868 0.010615435 0.030482158 0.0011641008 -0.03903654 -0.023863837 0.027590437

fc1.bias f4 [64]
00000000: b883 223d 9490 473b 9a73 eb3b aaab 0e3c
00000010: e646 22bd fc79 8c3b 1171 b1bb 22eb 5bbc
00000020: 073e bcbc 3ccb 0cbc fe7e 12bd 9d99 80bc
00000030: 2891 15bc 42c1 adbc 672c 053c 1a12 043c
00000040: 28f8 17bd 2113 1fbd 3482 10bb 8fcb 123d
00000050: 6c33 193d dd7d f23c b1c1 6e3b 9d91 8c3c
00000060: f52a 613b 3ec1 2a3d ea1c e63b ed44 a03c
00000070: 91f5 a13b a578 403c 5117 54bc 612b 9cbc
00000080: c634 903c 4a7a 1abc 2721 d3bc d269 163d
00000090: 305c 0c3d 4a9e 5abc 1434 f83c 40ad babc
000000a0: cdf7 b43c 54b1 9fbc e6f3 b83a 7859 21bd
000000b0: 2937 113d 218b 4d3c 1a42 613c 9e0b c4bc
000000c0: a5aa 04bd a6ff 813c 5aa1 23bd 92f5 2abd
000000d0: e2c7 69bc 42c0 1fbd 63a4 ca3c 6fe0 493c
000000e0: 42fb 22bd 584a 5f3c 827b b33c 00cb 7fbc
000000f0: 88a8 14bd 692b 0bbb 8652 0bbc b745 f2bc
0.039676398 0.0030451166 0.0071854116 0.00870792 -0.039618395 0.0042870026 -0.00541509 -0.013422759
-0.022978796 -0.008593377 -0.03576564 -0.015698249 -0.009128846 -0.021210317 0.008128262 0.008060956
-0.037101895 -0.038836602 -0.0022050263 0.03583866 0.037402555 0.029601032 0.0036431367 0.017159278
0.003435788 0.041688196 0.00702249 0.019564116 0.004942604 0.011747514 -0.012945012 -0.019063653
0.01760329 -0.00942857 -0.025772644 0.036722012 0.034267604 -0.013343403 0.03029827 -0.02278769
0.022090817 -0.019493736 0.0014110773 -0.039391965 0.035452995 0.012545378 0.01374867 -0.02393132
-0.0323893 0.015868973 -0.0399488 -0.0417381 -0.014268847 -0.03900171 0.024736589 0.012321576
-0.0397904 0.013628565 0.021909479 -0.015612364 -0.036293536 -0.0021235591 -0.008503562 -0.029574258

fc2.weight f4 [64, 64]
00000000: 9a8d fabd 388d d0bd 9803 e73c e6ab f43d
00000010: 51b4 743d 48e6 013d 52b6 98bd 73e5 8ebd
00000020: 868b ca3d e891 eabc 421b 0e3d e02a 2dbc
00000030: afe3 e23d 5069 33bc 073c adbd 2d0e 063d
00000040: 7eb3 61bd a8c3 a5bd 97f4 a53d b8a6 edbc
00000050: 3082 72bd 1049 f4bd f873 90bb 7071 e8bb
00000060: ca4d f5bd 7c8d 08bd 04a0 c63d 0839 9ebd
00000070: bccf 953d 2c2e 74bd cac4 893d 276a 1bbd
00000080: 177b e13b 0278 8ebd 821a eabd b99e c7bc
00000090: fd24 4dbc 27b3 c2bd 3929 86bb 5988 7abd
000000a0: b17d ad3d a895 d93c cc1f ba3d cc0c 4cbd
000000b0: 96cf fbbd 92b0 d93c e935 18bd 3015 1a3c
000000c0: ecac d7bd 3334 f9bd e5c3 8e3d fb4f 933c
000000d0: 5923 483d 2910 e1bc 32a9 97bd 817f cd3d
000000e0: e6b3 d83d e443 8abd 329d 6d3d 6f64 1a3d
000000f0: 1c6a 4e3d 43ad db3b 611f 6e3c 38d2 62bd
00000100: 1135 e13c 8778 df3c 9491 1dbd 7412 e4bd
00000110: 49d2 363d 4752 39bd be80 213c 4257 bdbd
00000120: 4bab 003d 0836 1d3d a5eb 8b3d cb55 e43c
00000130: fc7d 883d 17e0 153d fad1 bebc 522d 073d
00000140: c000 a9bc c58d ae3c 7af8 42bc c7a3 44bd
00000150: 2248 e2bc 1732 973c 38cf 9cbc cfbb db3d
00000160: bcca a23d 2a51 c5bd e8a0 f1bd baee 74bd
00000170: 2f4a 2e3d 73c7 9d3c 9339 5b3b 1931 38bd
00000180: c3df cd3d 136f 6bbc d236 d2bc 57b1 883c
00000190: eed5 74bd 752b f8bd eef8 2d3c b57c 35bc
000001a0: d46f 74bc af6a 87bd 7e57 b13d a25f c93d
000001b0: 5fd9 dabd be79 e6bd b77b 6d3d fbe4 05be
000001c0: 7c06 123d b2e4 d2bd fcaf 51bd d7e6 b0bb
000001d0: b58f f83c 4d8c 3dbd ad9e f23d df43 053c
000001e0: 3de0 6c3d 5078 c63d 12d1 603d 595e 193c
000001f0: 6698 cf3d 9803 edbd 47af 57bd 1fbc 943d
00000200: ab5b f23d 3253 1c3c a135 c5bd 8fd5 8e3d
00000210: 60e2 163c b9ca 0c3c 8808 523d 86c8 163d
00000220: d81f 03bd 0816 17bd 6b10 1ebd 3689 ff3d
00000230: 324e debd 744f a0bd 75e1 99bd f6b8 41bd
00000240: 6e39 87bd 8393 503b 410a a3bc d862 b5bc
00000250: 68d6 8f3c 537c afbb 8d48 103c 7510 003e
00000260: ae74 f7bc f350 57bd 5604 d8bd 0782 91bd
00000270: 50e0 c6bc 98c9 a53c f6dc c2bd 63aa c13d
00000280: 3ef3 803d 4a23 dabd c5db dd3d a936 aa3d
00000290: 3953 a2bd c755 c53d 363f cebd 930c bbbd
000002a0: 35ba 0d3d c06f c53d fe8d 943d aa74 aabd
000002b0: 22ff b9bd a0a9 f7bd d206 fc3d 8d63 4ebc
000002c0: d46f a0bd 6c5c 12bd b264 eb3d af97 f63d
000002d0: c1bf bbbd 603b 7fbc 70ae 833c 141d 613d
000002e0: d0e6 683c 7642 d9bd c3c8 98bd 2060 f8bd
000002f0: 6dd5 a5bd 4478 bbbd 5c95 2cbd 19a5 f8bd
00000300: 9656 f53c 835a 703c b7c7 663c 304a f33d
00000310: b233 93bd 34f7 f2bc ad9a 293d 4e3f 55bc
00000320: 5f9b b93d 6092 8abd 5a3f 88bc cd60 b33c
00000330: 8870 4bbc 0078 d3bd d3e3 aaba 91e7 a4bd
00000340: 45a6 fdbd 452a f9bd c8d8 ed3d 3037 fc3d
00000350: 8bb2 49bd 9e75 cf3d 89de 8cbc 1913 2a3d
00000360: f836 c73d 3ad5 5fbd 415f d5bd 5e3c 9fbc
00000370: b5ad d63d b5d2 d63d 755a 8c3d f3df 9b3d
00000380: ffdd 03be e449 4e3c ba7a c9bc ddab c2bc
00000390: 6d4e ad3d adee 813d 9463 18bc cc28 2ebd
000003a0: 1027 6cbd ae14 3b3a 41c9 cfbd edfc 78bd
000003b0: 0c31 b83d b7d0 b53b be39 c43d fdd0 b73b
000003c0: c634 7d3d baa1 22bd 66a9 48bd 8758 ad3d
000003d0: a240 013d 7e1e b0bd 516c 9ebc d559 0e3d
000003e0: 41e3 aebd ca4f a5bd 9842 03bd 934c da3d
000003f0: 3c99 563d 1b96 8fbd 88f1 53bd f151 cc3d
-0.122340396 -0.10183185 0.028199956 0.119468495 0.059742276 0.031713754 -0.0745665 -0.06977358
0.09889893 -0.028634027 0.034693964 -0.010569304 0.110785834 -0.010950401 -0.08458715 0.032728363
-0.055102818 -0.08093959 0.081032924 -0.029010162 -0.059206188 -0.11927998 -0.004408356 -0.007093601
-0.11977728 -0.033338055 0.09698489 -0.077257216 0.07315013 -0.059614345 0.06726988 -0.03794303
0.0068811285 -0.069564834 -0.11430837 -0.024367677 -0.012521026 -0.09506827 -0.0040942696 -0.061165188
0.08471239 0.02656062 0.09088096 -0.04981689 -0.12295453 0.026573453 -0.037160788 0.009404466
-0.10531029 -0.12168159 0.06970958 0.017982474 0.048861835 -0.027473526 -0.07405318 0.10034085
0.10581188 -0.0675123 0.05801124 0.037693437 0.050394163 0.006704004 0.0145338485 -0.05537626
0.027491124 0.027279152 -0.038468912 -0.11136332 0.044634137 -0.04524448 0.009857355 -0.09245159
0.031413358 0.038381606 0.06832055 0.02787294 0.066646546 0.03659066 -0.023293484 0.033002205
-0.02063024 0.021307835 -0.011900062 -0.048007753 -0.027622286 0.018456502 -0.019141778 0.10729181
0.07948825 -0.096346214 -0.117982686 -0.05979798 0.042551216 0.019260144 0.0033451065 -0.0449687
0.10052445 -0.014369744 -0.025660906 0.016686125 -0.05977433 -0.12117664 0.0106184315 -0.011077096
-0.01491924 -0.06612145 0.08659266 0.09832694 -0.106859915 -0.11253689 0.05797931 -0.1307563
0.035650715 -0.102975264 -0.051193222 -0.005398612 0.030341962 -0.04627638 0.11846671 0.0081338575
0.057831038 0.096909165 0.054886885 0.009360873 0.101364896 -0.11572951 -0.052657392 0.07262444
0.118338905 0.00954132 -0.096293695 0.06974327 0.009209245 0.008593255 0.051277667 0.036812328
-0.03201279 -0.036886245 -0.038589876 0.12477343 -0.10854758 -0.078276545 -0.07513706 -0.047295533
-0.06602751 0.0031826205 -0.01990235 -0.022141859 0.017558292 -0.005355397 0.00880636 0.12506278
-0.030207004 -0.052567434 -0.10547702 -0.07104879 -0.024276882 0.020237729 -0.09514801 0.09456327
0.06296395 -0.10651262 0.10832933 0.08311207 -0.0792603 0.09635501 -0.1007065 -0.09133258
0.03460141 0.09640455 0.07253645 -0.08323033 -0.09081866 -0.120929 0.12305988 -0.012596977
-0.078338295 -0.03573267 0.114938155 0.1204065 -0.091674335 -0.015578121 0.01607439 0.05495937
0.014215186 -0.106083795 -0.07460167 -0.121277094 -0.08097348 -0.09153798 -0.042134628 -0.12140865
0.029948514 0.014670017 0.014085702 0.118793845 -0.071875945 -0.029658891 0.041407276 -0.013015581
0.09062838 -0.067662 -0.01663177 0.021896744 -0.012416966 -0.103256226 -0.0013037868 -0.0805198
-0.12385229 -0.121662654 0.11613613 0.12315214 -0.049242537 0.101298556 -0.017195957 0.04152212
0.09727281 -0.054646708 -0.10418559 -0.019437965 0.10482351 0.10489408 0.06853191 0.07611074
-0.12877654 0.012590859 -0.024594653 -0.023763591 0.08462224 0.06344352 -0.009301085 -0.042519376
-0.05765444 0.00071365654 -0.10145808 -0.060788084 0.0899373 0.0055485624 0.09581326 0.00560963
0.061817907 -0.039705016 -0.048989676 0.08464151 0.03155578 -0.08599566 -0.019338759 0.03475364
-0.08539439 -0.08071859 -0.03204593 0.106591366 0.05239223 -0.07011052 -0.051744014 0.099765666

fc2.bias f4 [64]
00000000: 0493 e0bd 15e7 48bc a052 58bd 67e4 0a3d
00000010: 424c bdbd 25de 653d d29c cc3d fe0c fabc
00000020: 1d47 cbbc dedf 15bd 9c39 b33d 81d6 05be
00000030: b47b fcbd ae83 d73d 3f98 833c 9227 95bd
00000040: 06dc 6b3d 64dc 94bd da43 95bd 88ae 99bd
00000050: 1abc dc3d b6fc 9bbd d4ef e23d f10d 25bd
00000060: f7ef b43d a978 64bd 5a3b afbd 031d 69bc
00000070: 4747 f2bd 2ffa cb3c 4cef 06bd c47b 2fbd
00000080: 4bc9 34bd d881 f23d 0267 73bd 172a ab3c
00000090: 8f3d 5bbd 36ac b83d 7c0b b83d 7b78 983d
000000a0: 825f 4a3c deab 3c3d 0490 b63c 4467 dabd
000000b0: 6c32 8fbd 3bc7 ce3d e8d9 f03d e5f3 9fbd
000000c0: fca8 5b3d 4b5b 703b 7f23 a83d 766d 1abd
000000d0: 9a73 8fbd 3cac 323d 93ec 28bd 2358 87bd
000000e0: edd6 7a3d bc45 7bbd f2d6 cd3d b0d8 17bc
000000f0: dfd2 8cbd 1783 473c b557 dd3d 09a8 993b
-0.10965541 -0.0122621255 -0.052813172 0.033909228 -0.09243061 0.056120057 0.099908486 -0.030523773
-0.024814183 -0.03659045 0.087512225 -0.13070108 -0.12328282 0.10523163 0.016063808 -0.07282938
0.057582878 -0.07268599 -0.07288332 -0.07503992 0.10778065 -0.0761656 0.110809 -0.0402965
0.08834832 -0.055779133 -0.08556242 -0.014228108 -0.11830001 0.02489957 -0.032943055 -0.04284264
-0.04413728 0.11841172 -0.059424408 0.020894093 -0.053525504 0.09017222 0.089865655 0.07444855
0.012351872 0.046062343 0.022285469 -0.106642276 -0.06992039 0.10096594 0.11760312 -0.07810191
0.053627953 0.0036675509 0.08209895 -0.037702046 -0.07004471 0.043621287 -0.04124124 -0.066086076
0.061240125 -0.0613458 0.10050763 -0.009267971 -0.06876158 0.01217725 0.108077444 0.004689221

bn.weight f4 [64]
00000000: d03a 7f3f 8704 843f aa14 803f afff 833f
00000010: 0000 803f 6ca9 7f3f 71ec 833f ed95 833f
00000020: 4ede 833f 9bd4 7f3f fdcb 833f d8d1 833f
00000030: 05ff 833f 6ac7 833f 7f84 823f 17c8 833f
00000040: f80b 843f 0000 803f ebe2 833f 48d3 833f
00000050: 82c9 833f 0000 803f 16e2 833f dac9 833f
00000060: 5bdd 833f 6eb1 833f 0000 803f a5e7 833f
00000070: b9d7 833f 1ff7 833f 0000 803f 0000 803f
00000080: 1623 843f 4ecc 833f db96 7f3f 34c1 833f
00000090: 351c 843f 0d15 843f 73c9 833f f5c7 833f
000000a0: 0eba 833f 8f9c 833f 51e0 833f 0000 803f
000000b0: e0bc 833f 0c7d 833f b933 833f c155 7f3f
000000c0: 0f47 843f 19c8 833f e3d7 833f 4e99 7e3f
000000d0: d7d0 833f baf5 833f 429a 833f 4f1c 843f
000000e0: e6c2 833f 9ac7 823f 4ceb 833f 15b9 833f
000000f0: b86a 833f e0bc 833f 2fe7 833f fdca 833f
0.99699116 1.0313882 1.0006306 1.0312403 1.0 0.9986789 1.0306531 1.0280129
1.0302217 0.99933785 1.0296627 1.0298414 1.0312201 1.0295231 1.0196685 1.0295438
1.0316153 1.0 1.0303625 1.0298853 1.029587 1.0 1.0303371 1.0295975
1.0301927 1.0288522 1.0 1.0305067 1.0300208 1.030979 1.0 1.0
1.0323207 1.0296724 0.9983956 1.0293336 1.0321108 1.0318924 1.0295852 1.0295397
1.0291154 1.0282153 1.0302831 1.0 1.0292015 1.0272536 1.025016 0.99740225
1.0334185 1.029544 1.0300258 0.99452674 1.0298108 1.0309365 1.0281451 1.0321139
1.0293853 1.0217164 1.0306182 1.0290858 1.0266943 1.0292015 1.0304927 1.0296322

bn.bias f4 [64]
00000000: 6c87 e4bc ccdf c5bb d810 fe3c d38b a2bc
00000010: c558 fd3c 35ac e43c c63b e1bc bb9a 0a3c
00000020: e599 c539 0bf4 003d 2ce7 a73a 4cf8 c839
00000030: 13de e5bc c1cf b23c 5d7a dfbc b624 e0bc
00000040: a23f f2bc b240 04bd 7f1d e6bc f03b 773c
00000050: bbb4 afbc 6a16 04bd 823a a13c de34 e7bc
00000060: 8bdf c43c 306a d1bb 76ad 04bd 53a4 bcbc
00000070: 2b24 923c a07a ebbc 6ca3 fc3c e869 ffbc
00000080: 3654 e6bc 4b4d 92bb 1c43 05bd f224 553b
00000090: c7b5 c8bb 6f23 d23c 272c d039 9c69 abba
000000a0: 9ed1 983c a7af 88bc 5393 603b 86b6 f7bc
000000b0: 5f0f 94bb 6a25 0b3b a7d0 5abc 2163 aebc
000000c0: 7d67 e9bc 2708 90bb 8de5 8d3c f76d f23c
000000d0: c038 cebc 1488 97bc ea35 a3bc 9b66 8b3c
000000e0: 2721 863c eac5 023c 9545 d63c 09ef d7bc
000000f0: 5f64 fcbc acfb bcbc 21e1 c23c 9e77 b83c
-0.027896605 -0.0060386416 0.031013891 -0.019842064 0.030926118 0.027914146 -0.027494323 0.008459742
0.00037689428 0.031482738 0.0012809983 0.00038331968 -0.028059995 0.02182758 -0.027280027 -0.027361255
-0.029571358 -0.03228826 -0.028090237 0.015089974 -0.021448484 -0.03224794 0.019681219 -0.028223451
0.024032375 -0.0063908324 -0.032391988 -0.023027575 0.017839512 -0.028744996 0.030839644 -0.03117843
-0.028116327 -0.0044647804 -0.032534704 0.0032523242 -0.006125185 0.025651662 0.00039705748 -0.0013077739
0.01865464 -0.01668532 0.00342675 -0.030238401 -0.004518434 0.0021232017 -0.013355411 -0.021287503
-0.02849173 -0.004395503 0.017321372 0.029593451 -0.025173545 -0.018497504 -0.01992317 0.0170167
0.01637323 0.007981757 0.026156226 -0.026359098 -0.03080958 -0.023069225 0.02378899 0.022517975

bn.running_mean f4 [64]
00000000: 8f72 9727 b3f4 ad3d d165 b434 e711 f13c
00000010: 0000 0000 304d 2139 4b23 d03d be99 3e3d
00000020: cbf8 bf3d e0c8 9519 bd76 3b3d d796 123e
00000030: 92e4 0d3c 0c52 493e 2fa7 543c dbb2 833d
00000040: d382 c53d 0000 0000 c215 ef3d 1010 453c
00000050: 6cf7 663e 0000 0000 2ca3 8a3e 7ba8 553d
00000060: adfc 813d e9e0 603d 0000 0000 5dad b83d
00000070: c534 243d 804e 113d 0000 0000 0000 0000
00000080: bd2c 323d 6a07 8e3d 66d4 5424 17f2 e13d
00000090: f151 9a3c 91ab 9c3d bc77 a43d 37fd a53e
000000a0: e775 793d a1e1 983e e9d3 a33e 0000 0000
000000b0: 476c 0d3d 763c c83d 9f8a a03e c917 c425
000000c0: 200d f83b 57b9 663e f210 723e 950a ca36
000000d0: a447 463d 2ad4 9a3e 6e0a 1d3d 0365 023d
000000e0: 6b52 a13e e2ef 373c 3977 c63d a13b be3e
000000f0: f42c 613d c9f8 123e e4b8 4d3e 663b d53d
4.2035124e-15 0.08493938 3.3601694e-07 0.029427482 0.0 0.00015382911 0.101629816 0.04653334
0.09373625 1.5487372e-23 0.045767535 0.14315353 0.008660452 0.19660205 0.012979313 0.06430598
0.09644093 0.0 0.11674072 0.012027755 0.22555321 0.0 0.27077615 0.05216263
0.06347022 0.05490199 0.0 0.090174414 0.040089387 0.035475254 0.0 0.0
0.043499697 0.06935008 4.615008e-17 0.11032503 0.0188379 0.07649911 0.0803065 0.3241975
0.060903456 0.2985964 0.31997612 0.0 0.03452709 0.09777157 0.3135576 3.4016698e-16
0.007569924 0.22531639 0.23639277 6.021301e-06 0.048408166 0.30239993 0.038340025 0.031834614
0.31508192 0.011226626 0.09690709 0.37154868 0.05497451 0.14352717 0.20090061 0.1041172

bn.running_var f4 [64]
00000000: 437b c424 300b 283b 5bdd 6330 e277 c83a
00000010: 23f8 0a1e 7b1a fe35 4a3a d33a bc68 2a3b
00000020: e85a 393c 5ef9 0a1e 010e 263b ad21 fa3b
00000030: abb8 f639 2edc 473b 98c0 403a e613 703b
00000040: b186 2a3b 23f8 0a1e 0a54 023c 7b82 643a
00000050: 5300 b63a 23f8 0a1e 9b9b 003c 7d1b 853b
00000060: 5a98 8e3b a207 4d3b 23f8 0a1e bac5 043c
00000070: e3d5 413b e5ba ed3a 23f8 0a1e 23f8 0a1e
00000080: 7be3 533b a126 8d3b 0b92 2b20 586d 2a3c
00000090: ada9 c43a ab19 9a3b b3e3 bf3b 294d bb3c
000000a0: beca 963b 1d29 413b ebf5 363c 23f8 0a1e
000000b0: f14c 213b 4c7f 0c3c ce25 773c 7194 1222
000000c0: 99db bc39 64b1 293c 223a d33b 53d6 9033
000000d0: 8c0c 0b3b 1616 0f3c 8a87 ca3a baa6 6e3a
000000e0: e32b 3f3b c39d 323a f24e fc3b cc88 3d3c
000000f0: 5230 a63b cb31 ac3a a8c9 e73a c308 513c
8.5210264e-17 0.0025641434 8.2896684e-10 0.0015294517 7.356973e-21 1.8932182e-06 0.0016115394 0.0026002368
0.011313178 7.357227e-21 0.0025337937 0.007633409 0.00047058365 0.0030496228 0.00073529175 0.0036632954
0.0026020224 7.356973e-21 0.007954607 0.0008716953 0.0013885595 7.356973e-21 0.007849599 0.0040621147
0.004351658 0.0031285067 7.356973e-21 0.008103782 0.002957695 0.0018137364 7.356973e-21 7.356973e-21
0.0032331634 0.0043075834 1.4532585e-19 0.010402046 0.0015004181 0.004702767 0.0058560013 0.022863941
0.0046018055 0.0029473968 0.01116703 7.356973e-21 0.002461251 0.008575272 0.015084697 1.9865274e-18
0.00036021767 0.010357235 0.006446139 6.744508e-08 0.0021217195 0.008733293 0.0015451771 0.00091038237
0.0029170446 0.00068136695 0.0076998407 0.011568259 0.005071678 0.0013137398 0.0017684 0.012758437

fc3.weight f4 [128, 64]
00000000: 5419 3d3d 2020 e03a 23f3 9c3d 21a3 683d
00000010: f652 b0bd 99d7 993d 95d2 2fbd dd3c 2a3d
00000020: df7f 613d 79b6 3dbc cd97 36bc 5432 abbd
00000030: ef81 0a3e 9291 013d 3b95 c53d 2da2 c0bd
00000040: 7215 ba3d f0d1 51bd c6e3 67bd c41a 9ebd
00000050: ef56 cdbd 840d c0bd 6cf8 363d e924 f73d
00000060: ddae 653d e4c0 1abd 8434 b03d 8986 023d
00000070: 9f8e c1bd f5e3 843d a206 e83d 71eb ccbc
00000080: bfc7 8bbb 0776 febc a707 b83c 5818 8bbd
00000090: 87fc fa3d ffde 983d df49 bd3d 1b37 a13d
000000a0: c481 96bd 2892 0d3e a25d 773d 03e5 e73c
000000b0: bdfc 703c 182e 01be 0cde a33b 83ce f93c
000000c0: 9a12 b23c 7a86 023e 16c2 0b3e 18fa 72bd
000000d0: 70de cb3d 8528 133e cfe6 0a3c 58fc aa3d
000000e0: 40b3 ae3a a617 98bd 4392 743d 9e13 e93d
000000f0: 4d21 6dbd 85a8 6bbd a916 db3d fc92 083e
00000100: dc25 063d c50a 653d 443c ed3d 5a65 bebd
00000110: 8898 acbd 3cae 90bd 955f 3d3d 8ab3 253b
00000120: e68a 03be 0577 133a e940 57bd f316 6c3d
00000130: e266 3e3d dac7 5e3d 81b3 c0bd 6f71 6e3d
00000140: ccd5 493d f382 98bd 7240 723d 2832 31bd
00000150: 1922 ab3d e29d 6a3d 68d6 f2bb bbd3 e4bd
00000160: 1125 dd3d 23fd 00bd b1c4 a63d 30f0 07be
00000170: 9725 183e 758c 593d 6b6d 50bd eb64 aeba
00000180: daf2 1abe c5e4 3fbd 012b 9f3d 467c 3d3d
00000190: 75cb b53d 7535 d93d 5ac7 dcbd d13d a3bd
000001a0: ba57 be3d 49c1 8abd 48b6 afbd 4bf4 d93b
000001b0: a31b 6bbd 1033 51bd 1faf fe3c 08cd fcbd
000001c0: 6ef3 02be 9640 503c 8c3f c3bc c8a5 003e
000001d0: 0ffd 8dbd 8cc3 08be 3c94 39bd 91eb f63d
000001e0: 11a1 043e 5ede c23d ba53 80bc 922e 12be
000001f0: b088 b53d f717 4fbd f1e4 d2bd 6bc9 02bd
00000200: 82e2 8c3d 144f 60bb 934e 5c3d ae43 a7bc
00000210: c189 e13d 8599 6dbb 14bb dd3d aef7 603c
00000220: c89d b1bd 7f67 333d daf5 87bd 72c7 b9bd
00000230: 6781 f93c bcc2 13be a96b ef3c 5c19 273d
00000240: d989 8bba dc37 a13d 0793 ab3d 1d73 c53d
00000250: 1c0f 5b3d c944 a8bd a810 2abc ae90 35bd
00000260: 82f5 6e3d a4e6 033e 5375 03bd 3ccc f9bc
00000270: 214e 08be df53 dd3d b4b6 c43d 9a37 723d
00000280: 9172 56bd c806 dabc 49bb 033d 33fc 913d
00000290: 5fd0 1cbd a157 e9bb d2cf c43c b0b2 c2bd
000002a0: 38d0 a53c a8a7 19bd f101 1bbd c70d 36bd
000002b0: 267f 7abc ad29 a1bd 6064 d03d 3346 9cbd
000002c0: b5ac bd3d f9b8 913c 9f8e e7bd 9d1e 543d
000002d0: e19d 1fbd 7694 973d 514e 973d 535a fdbd
000002e0: 2a2d 0abe 6094 3cbc 44ef 41bd df1e acbd
000002f0: 2c5c 2ebd 8436 163d 1515 073d 20c1 ea3b
00000300: b524 f1bd 1b52 acbd 58ce 013e b5eb 133d
00000310: d739 5b3b ede2 4fbd a045 11be 53d7 ad3d
00000320: 72fb 3a3c a071 34bd 3e5c 9e3d 8b78 85bc
00000330: 54f1 07be 11eb b9bc 3d25 a2bd fc95 f4bd
00000340: 5d48 cdbd 2514 6ebc ea1a a2bd b59e 1ebd
00000350: 89b2 4bbb 8895 e2bc 46bd 04bc 026d bfbd
00000360: b838 013e 9136 88bd 7dd1 523d 0dae fb3c
00000370: 098a 0dbd 54ca 10be 6652 87bd 7fe7 93bd
00000380: 3bfa 20bd 7f4a b93b 156b 14be 0bfe 76bd
00000390: 5b61 8e3d 7659 bebc 292e 94bd 2d6f 993d
000003a0: 24eb 1bbd 4f44 723d 5696 14be f466 85bc
000003b0: 6cf9 413d ec50 473d 3dbd b53b f433 f13d
000003c0: 4d46 6fbd 21ff b3ba 2c13 3abd 79fa a9bd
000003d0: a3fd 8ebd 334f 0abe 8857 c13d 8e6e 3fbd
000003e0: 6a7a 77bd 5174 473d 8832 7c3d 3792 15be
000003f0: d25c 74bd 365a 303d 7b90 c93d 4b2b c93d
0.046166733 0.0017099418 0.07663562 0.056796197 -0.086095735 0.07511825 -0.042925436 0.04156195
0.055053588 -0.011579149 -0.011144591 -0.08359209 0.13526128 0.031632967 0.09647604 -0.094059326
0.090861216 -0.051225603 -0.056613706 -0.07719949 -0.10026347 -0.09377578 0.044670507 0.12067587
0.056074966 -0.03778161 0.086037666 0.031866584 -0.09451031 0.06488792 0.1132939 -0.025014611
-0.004265755 -0.03106214 0.022464586 -0.067917526 0.12255197 0.07464408 0.092426054 0.07871839
-0.073489696 0.13825285 0.06039203 0.028307443 0.014708695 -0.1261524 0.0050008353 0.03049398
0.021737386 0.12746611 0.13648257 -0.05932054 0.09954536 0.14370926 0.008477881 0.08348912
0.0013328567 -0.074263856 0.0597098 0.11380695 -0.057893086 -0.05753376 0.106976815 0.1333732
0.03275095 0.055918474 0.115837604 -0.09296675 -0.084275305 -0.070644826 0.046233732 0.0025284016
-0.12845954 0.000562534 -0.052552138 0.057639074 0.046484835 0.054389812 -0.09409238 0.058213647
0.04927616 -0.074468516 0.05914349 -0.043260723 0.08356113 0.057279475 -0.007410813 -0.11173197
0.107980855 -0.03149141 0.08142985 -0.13275218 0.1485809 0.053112466 -0.0508856 -0.0013305222
-0.15131703 -0.04684903 0.07771874 0.046261095 0.08876697 0.10605899 -0.10780211 -0.07970775
0.09294076 -0.067751475 -0.08579689 0.0066514364 -0.057399403 -0.051074088 0.031089364 -0.12343794
-0.12788174 0.012710711 -0.023834012 0.1256324 -0.06933033 -0.13355845 -0.045307383 0.120566495
0.12952067 0.095150694 -0.015664924 -0.14275578 0.08863962 -0.050559964 -0.10297573 -0.03193037
0.068791404 -0.0034226822 0.05378587 -0.020418014 0.110126026 -0.0036254835 0.10826698 0.013730926
-0.086726725 0.043799873 -0.06638689 -0.09071244 0.030457212 -0.14429754 0.029226141 0.04079567
-0.001064594 0.078719825 0.083776526 0.09641097 0.053481206 -0.08216245 -0.010379948 -0.04432743
0.058339603 0.12880951 -0.03209431 -0.030492894 -0.13311054 0.10807013 0.0960516 0.059135057
-0.052355353 -0.026614562 0.03216103 0.07128181 -0.038284656 -0.007121042 0.024024878 -0.09506738
0.020240888 -0.037513405 -0.03784365 -0.044446733 -0.015289104 -0.07869277 0.10175395 -0.07630577
0.09261457 0.017788397 -0.113065 0.051787008 -0.038968924 0.074013636 0.073879845 -0.123707436
-0.13493791 -0.011509985 -0.047347322 -0.08404326 -0.04256837 0.036673084 0.03297909 0.0071641356
-0.117745794 -0.08414098 0.1267637 0.03611346 0.0033451223 -0.050753523 -0.14186716 0.084883355
0.011412488 -0.044053674 0.077324376 -0.01629283 -0.13275653 -0.022695096 -0.07917259 -0.1194267
-0.10023568 -0.01453117 -0.0791529 -0.038725574 -0.0031081757 -0.027659193 -0.008101767 -0.093469635
0.12619293 -0.06651033 0.051469315 0.030722642 -0.03455547 -0.14139682 -0.06607513 -0.07221889
-0.03930114 0.0056546326 -0.14493974 -0.060300868 0.06952163 -0.023236018 -0.07235367 0.07491908
-0.038066044 0.059147175 -0.14510474 -0.016284443 0.047357008 0.048661157 0.0055462406 0.117774874
-0.058416653 -0.001373265 -0.04542844 -0.08299727 -0.06981971 -0.13506775 0.094405234 -0.046736293
-0.060419478 0.048694912 0.061571628 -0.14606558 -0.059658833 0.04305478 0.098420106 0.098227106

fc3.bias f4 [128]
00000000: 613a 003d 9ec7 c0bd d275 223c 3e82 973c
00000010: 1c46 c8bd 4b09 733d 650a 46bd 0a73 ca3d
00000020: 8612 05bb 9068 933d 20fe 22bd 5a9a 9f3d
00000030: fffc 7ebc 06b1 ab3c 9152 95bd 234e 713d
00000040: fa4a b6bd 3891 5aba 7623 a53d 1953 613c
00000050: 0b4e ac3d 89b4 69bb 8b72 873c 7540 103e
00000060: 7771 fd3d c4aa 873d d485 183d 87b5 7ebd
00000070: b2b4 cbbd 8934 143e 5a87 a43d 11b5 ed3d
00000080: 2e2f 3e3d 4460 da3d 32e1 0c3e b2fa f23d
00000090: 41c2 5c3d fff1 b9b8 205e a0bb de07 053e
000000a0: 6d9e 8e3d f08c 8f3d 41d1 203d b764 f43d
000000b0: 43b1 95bc 9606 aebd d7f8 e13d 4ef9 7ebc
000000c0: 0edc 66bc 295d ad3d f43b 82bd 4b05 5bbd
000000d0: 34e0 c0bc bf71 b0bd 4d70 f83d 0e3e 063d
000000e0: 3e61 d9bd 8bff 92bd 43bf 043e 8f37 a5bd
000000f0: 7b9b f73d edae 68bd 1bda c6bd 7e93 80bd
00000100: 66c3 163e da26 b3ba 56ef 8b3d ec7a 94bd
00000110: 1751 8dbd 9278 d4bc ffb6 28bd 4014 4dbd
00000120: e9e3 e93d b3b7 29bd 224a de3d b09a 61bb
00000130: 6411 ea3d dd0e 88bd 4628 a3bd aa78 abbc
00000140: 1b11 bdbd ed86 c2bd 43a2 2d3a 31ba a5bd
00000150: e4e2 8dbd 5be1 92bc 9610 0b3e 6d23 8cbd
00000160: 5518 36bc 7a51 e93d 2957 a2bd acc9 573d
00000170: 6184 62bb 04e9 ed3d f8f7 e3bd e631 223d
00000180: d8ae c43d ee11 d23d cf4f 9cbc 5479 f9bc
00000190: 75ef 9f3d 7146 b3bc 5bea 3abd bd19 da3d
000001a0: 5cda c13d ade8 5e3d acd0 f13d 5589 173d
000001b0: 3060 a9bb 023f 81bc e40e 1f3a b625 2dbd
000001c0: fa1b aa3d 1fb3 f03c de7e 793d dcec 633c
000001d0: eaf8 ad3c 5078 a23d a32f dabc e78b 443d
000001e0: 4040 bc3d 5924 8e3b 9364 40bd f396 c9bd
000001f0: ac19 113e c46e 5a3d 8cab ad3d 577a 893d
0.031305674 -0.09413074 0.009915786 0.018494722 -0.09778997 0.059335034 -0.048349757 0.09885223
-0.002030523 0.07197678 -0.039793134 0.07793112 -0.015563249 0.020958435 -0.07291139 0.058912408
-0.089010194 -0.00083376793 0.08063404 0.013752722 0.08413323 -0.0035660586 0.01653411 0.14087088
0.12375157 0.06624368 0.037237003 -0.062184837 -0.09946574 0.14473166 0.08033629 0.11606801
0.046431713 0.106628925 0.1375778 0.118642226 0.053896192 -8.866563e-05 -0.004894033 0.12991282
0.06963811 0.070093036 0.03926206 0.11933272 -0.018273002 -0.0849735 0.110337906 -0.015562369
-0.014090551 0.084650345 -0.063590914 -0.053471845 -0.023544408 -0.08615445 0.12130795 0.032774024
-0.106142506 -0.07177647 0.12963586 -0.080672376 0.120902024 -0.056807447 -0.09709569 -0.06278132
0.14722976 -0.0013668195 0.06832759 -0.07250008 -0.06900232 -0.025936399 -0.041190144 -0.05006814
0.114204235 -0.041434955 0.108539835 -0.0034424476 0.11429098 -0.0664346 -0.07966666 -0.02093156
-0.09231778 -0.09498391 0.0006623605 -0.08092154 -0.069280416 -0.017929723 0.13580546 -0.068426944
-0.0111142 0.113924935 -0.07926781 0.052682564 -0.0034563767 0.1161671 -0.11131281 0.039598368
0.09603661 0.10257326 -0.019081024 -0.030453362 0.07809345 -0.021884175 -0.045633655 0.106494404
0.09465477 0.054421116 0.11807379 0.036996204 -0.005168937 -0.015777115 0.00060675875 -0.042272292
0.08306117 0.029382287 0.060912006 0.013911452 0.021236856 0.07933104 -0.026634043 0.047984984
0.09191942 0.004337829 -0.046970915 -0.098432444 0.1416995 0.05332829 0.084799856 0.067127876

fc4.weight f4 [196, 128]
00000000: 593e df3c ab18 9a3d a615 3ebd 01d4 953a
00000010: 2741 10bd 26aa aabd 01a6 2abd 7624 88bc
00000020: 3037 5839 73f1 b8bd 03ea 5dbc fd19 47bd
00000030: e669 063d 4678 983d 0621 3fbc 13ee 853d
00000040: acd5 133d 8ddf 813d 0582 3b3d ffda 10bd
00000050: 35f9 813c 244b 59bc 96ff 21bd 0d80 a33d
00000060: 7d17 493d 8ef2 dbbc 3f76 9cbd e973 85bd
00000070: 8a46 95bd 346a 65bd aab7 083d 1b95 bcbd
00000080: 9e74 3ebd 40b9 093d f1f4 4dbd 972d f03a
00000090: dc0d 413d d4f4 02bb d8b0 493d 3ecb 4b3d
000000a0: ee84 0abd e9d7 9abd b839 2b3d 7acb afbd
000000b0: a43f a43d 2415 7e3d b20e 82bd 6e36 de3c
000000c0: 0c7b 11bc 2095 9a3d b000 a2bc 1fc6 d73c
000000d0: 677a 3e3b 94bd 32bc d46b 81bc 72a3 e9bc
000000e0: cee1 27bd c84b 9cbd a980 a13d 120c fd3b
000000f0: 7c60 9a3d 77ac aabd a06e 0e3d b339 7cbc
00000100: 7512 373d 0b55 003d 4cdd 8abc cec3 5a3c
00000110: 4f00 ac3d ba81 1b3d 9c99 83bd 7490 99bd
00000120: e1fd 83bd 9651 123c f175 823d 0bb7 413d
00000130: 02bf acbd 1b2d e1bb c44a 5cbd 90d0 e33c
00000140: c3ec 813d c07e 7cbd 53f3 12bd 8914 503d
00000150: 9cd7 a3bd 3ddc d43c 95c5 8cbd 6d53 a33d
00000160: 5045 423c 1957 acbd 8863 a8bc 0149 9e3d
00000170: f8ba e6bc c7e1 2e3d a197 583d e7c3 c43c
00000180: 5ce4 453d b68d 94bd b7e7 8e3c bd13 2d3c
00000190: 343b 013d 5f19 443d 06a3 beba b64e c8bc
000001a0: 5f3f 963c 69ad 84bc 115c 8bbd 609e 63bc
000001b0: 4276 32bd 6bf8 61bd 184b 2a3d 3b43 75bd
000001c0: 2346 8cbd 14a1 9fbb 9380 843d 553d 99bd
000001d0: d30d 003d 3558 e6bc d717 123d 6351 a6bd
000001e0: 605d 43bd d727 8d3d c285 0abd b78b b8bd
000001f0: a59c aa3b 065b 30bd e4bd 603d 02bf 6e3d
00000200: dc9d bfbc 324c 08bc fa96 b03d fe49 15bd
00000210: e69a 13bd 52ea 1a3d efb5 b13d f00e cf3c
00000220: 22b0 afbd f8e2 153d ee29 4abc 13d6 bf3d
00000230: 0783 f4bc 2558 7d3d ade1 7d3d 63b7 d9bc
00000240: 7e5e a0bd 8dca 42bd ef6e ad3d 0223 4fbc
00000250: cd80 e13b 9570 9a3d f8e0 553d df10 5d3d
00000260: 5219 823d cb7a 5bbd e76f 4bbd 657c bb3d
00000270: a84f db3d 4b4e 2abd cb7e 82bd 5f8e 85bd
00000280: a645 153d 990b 22bd 02b8 20bd 4caa 043d
00000290: 04e8 28bd c6ad e9bb 970a 16bd 5fa1 c0bb
000002a0: 4922 c03d 88a7 6f3d e7dc 83bc 4fb9 b53c
000002b0: 463c 8e3d 5c7a bf3d 680e 313d d88b aa3d
000002c0: 11d6 3c3d d42d 853d 205e 813c a903 d23d
000002d0: 4c9d 733d ebfe 34bd 853b 8cbd 5629 49bd
000002e0: dca9 08bd e0ca 853c 558d 9f3c 4f7a 9bbd
000002f0: 5b85 76bd 8470 5e3d a933 b13d 86cc de3a
00000300: 4d80 f1bc ce01 733d 8a1b d83c 0a4e 863d
00000310: ba98 d33d 0eb0 f5bc 1f9a db3c 4278 aa3d
00000320: 876f 8e3c 270a 9b3d ff9d aebd a784 a53d
00000330: deb1 86bd a02d 543d 8248 6d3d 73cb 90bd
00000340: 7cb5 7abb 0441 c7bd 1d83 b23d 0700 0abd
00000350: 8ad9 11bc 5603 d3bc 865c de3c 3842 93bd
00000360: 86fa 8cbd b414 e63c 11b1 7fbc 0df4 5d3d
00000370: f4b3 263c eee5 d83d bdd7 9d3d 57d7 0c3d
00000380: 5376 89bd c7f7 1abd 531e 4b3c b164 d63c
00000390: 0288 563d 0c8d 90bb eb66 76bd d1bf dfbb
000003a0: 47c8 853d f047 933a 82d1 053d b832 233d
000003b0: e68e a13d e849 183d bd58 663d 5543 6b3d
000003c0: 4e15 52bd acfb d03d 04f2 903d 1c2a 2c3d
000003d0: dc2e 88bc 538c 9b3d aa56 dc3c a2c3 bb3d
000003e0: 9408 713c 6d13 e9bc 9999 963d 585c 2c3c
000003f0: 357a 7e3d 01bf 0cbd 8489 32bb ef94 813d
0.02725141 0.07524236 -0.046407364 0.001143098 -0.035218384 -0.083332345 -0.04166222 -0.016618948
0.00020619924 -0.09030428 -0.013544562 -0.04860877 0.032815836 0.07444815 -0.011665588 0.0653955
0.036092445 0.06341467 0.045778293 -0.0353651 0.015865901 -0.013262544 -0.039550386 0.07983408
0.049094666 -0.026849058 -0.07639741 -0.06516249 -0.07288845 -0.056009486 0.03337828 -0.09208127
-0.046497934 0.033623934 -0.050282422 0.0018324134 0.047132358 -0.0019982355 0.049240917 0.049754374
-0.033818178 -0.07560713 0.04180309 -0.08583732 0.08019951 0.06203188 -0.06350459 0.027125563
-0.008879434 0.075479746 -0.019775718 0.026339589 0.0029064657 -0.010909457 -0.015798487 -0.02852032
-0.04098683 -0.076316416 0.07885868 0.007722386 0.07537934 -0.08333676 0.03477347 -0.015394616
0.044695336 0.031331103 -0.016951226 0.013352348 0.08398496 0.037965514 -0.06425783 -0.07498255
-0.06444908 0.008930584 0.06370152 0.047293704 -0.08434869 -0.006871832 -0.05378224 0.027809411
0.06343987 -0.061644316 -0.035876583 0.050800834 -0.080001086 0.025983924 -0.06873623 0.079748966
0.011857346 -0.0841505 -0.020555273 0.07728768 -0.028165326 0.042695787 0.05287898 0.024019195
0.048313484 -0.07253592 0.017444475 0.010563788 0.0315506 0.04787576 -0.0014544434 -0.024451595
0.018340765 -0.01619597 -0.0680467 -0.01389274 -0.04356981 -0.05516855 0.04157552 -0.05987857
-0.06849315 -0.004871497 0.06469836 -0.07482401 0.031263184 -0.028118232 0.035667267 -0.08120992
-0.04769647 0.068923645 -0.033818968 -0.090110235 0.0052066618 -0.043055557 0.054868594 0.058287628
-0.023390703 -0.008318948 0.086225465 -0.036447518 -0.036036395 0.03782112 0.08677279 0.025275677
-0.085785165 0.036593407 -0.012339098 0.09367003 -0.029847635 0.06185164 0.0619828 -0.026576703
-0.07830523 -0.04755645 0.084684245 -0.012642624 0.0068818093 0.075410046 0.0522165 0.053971168
0.06352486 -0.0535839 -0.049667265 0.09154586 0.107085526 -0.041578572 -0.0637184 -0.06521296
0.036443375 -0.03956184 -0.039237984 0.03238897 -0.041236892 -0.007131311 -0.036631193 -0.005878612
0.093815394 0.05850938 -0.016096545 0.022183089 0.0694509 0.0934951 0.04322663 0.08327454
0.046102587 0.06502882 0.015791953 0.10254604 0.059476182 -0.04418842 -0.0684729 -0.049111687
-0.033365116 0.01633209 0.019476572 -0.07591688 -0.06018577 0.054306522 0.086524315 0.0016998209
-0.029480124 0.059327893 0.02638032 0.065578535 0.10331865 -0.029991176 0.02680689 0.083237186
0.017387165 0.07570296 -0.08526229 0.08081942 -0.06576894 0.051801324 0.057930477 -0.07070055
-0.0038255146 -0.097291976 0.08716414 -0.033691432 -0.008901963 -0.025758427 0.027143728 -0.071903646
-0.06883721 0.028086044 -0.015606181 0.054187823 0.01017474 0.105907306 0.077071644 0.03438505
-0.06712022 -0.037833955 0.012397367 0.02617106 0.0523758 -0.0044113453 -0.060156744 -0.006828286
0.065323405 0.0011236649 0.032670505 0.03984329 0.07888584 0.037179857 0.05623697 0.05743726
-0.05128985 0.102042526 0.07077411 0.042032346 -0.016623907 0.07595124 0.026896793 0.091681734
0.014711518 -0.028451646 0.07353515 0.010520063 0.062128264 -0.034361843 -0.002724261 0.06327235

fc4.bias f4 [196]
00000000: fd4e 2f3c 014d 26bd fdff 9a3d 20fd 0d3c
00000010: 6c2a 71bd d67e 573d e53b e5bb dc68 9f3d
00000020: 8c64 1fbd 016b e6bc 493f 28bd c66f 1ebd
00000030: 29b0 23bd ceab 5ebd 231c 893d 4ce8 933d
00000040: 118f 8e3d 3b13 213d 00f3 8e3d 0e8a 893d
00000050: 5aa0 013d b409 37bc e49c 74bd 43ce 5c3b
00000060: 7c19 573d 7fa7 a6bd e730 7dbd 6028 853d
00000070: 8765 1c3d 95ae 84bd 4b9d af3d 2304 8e3d
00000080: 0368 5fbd 5503 8d3b 32de 1ebc 30c6 603d
00000090: 90c1 4c3d a1d9 9b3d b565 d73c a909 f6bc
000000a0: dc0a e1bb ffce 61bd dc45 683d 0265 183d
000000b0: 2656 5cbc a7c7 d63d 7ef9 88bd 1597 823d
000000c0: 7770 8b3c a221 45bd 1ff6 9bbb 4e12 b2bc
000000d0: ebb3 a23d 567c 473d 66b0 3b3d 9bb3 433d
000000e0: e6ad 523b 8ecf 6ebc f275 b93d 855e 9b3d
000000f0: f29b 91bc b03c d33d dc6f 993d bac0 15ba
00000100: 2810 9b3d 7f21 94bc 04fe 0dbd f3c7 88bd
00000110: 4c4b 413c 1cea ad3d 5526 83bd 6283 b5bb
00000120: 7cc5 813d 0191 4abd d492 f8bc 3220 b13d
00000130: 0b8e 993d 0683 993d 40f1 76bd ec02 9bbc
00000140: 2a36 a53d b776 42bd 25f1 81bc 2371 1d3d
00000150: 70d7 c43d f334 963d 234c 2c3d 2cd8 0cbd
00000160: 107b e63c ee9c 80bd a21e a6bb 44b5 a73d
00000170: 2208 cd3d a3ea 393d 880f 673d 7720 cc3d
00000180: 2c2a 85bd 9c4f 973c c898 dd3b ff11 d73c
00000190: 00c5 c2bc 2abe e2bc 156e febb be3e 8d3d
000001a0: fbf1 5c3d 6732 2e3c 2a7c b3bd ea6a 89bd
000001b0: 173f ebbc c317 7dbd 943c e93c 7c22 9dbd
000001c0: aa7e ba3d 28c0 8dbd e755 c63d 4538 b13d
000001d0: ef13 353d 7a94 413c 75d7 7c3d 39a5 193c
000001e0: fc28 63bd e888 913d 00aa 4d3d 7234 be3d
000001f0: 7344 e7bc 4113 913d d04f 953d 69f0 52bd
00000200: 8124 633d a700 c0bc 26b8 f1bb eec3 c73d
00000210: c6f4 c4bc b989 043d e2ae 3bbc c602 ae3d
00000220: 5a62 783d d9b9 16bd d979 d33d 05f6 47bb
00000230: 370c 14bd a6c3 613c 95f7 e53d 0846 4abc
00000240: 4364 a63d 5a22 8d3d 372f 63bd 4317 783d
00000250: 3ce3 873d f178 64bb f00a bebc fb69 b03d
00000260: 4f1d 3f3d 76f9 a3ba 1909 e8bc 96fe c53d
00000270: a50a 253d dfeb b53d ed2b b5bd 2241 323d
00000280: 097b 8f3c fb6e 133b 232b 583d 6e02 8bbd
00000290: 27a9 3fbd f696 863d 38f0 6fbd fd06 8cbc
000002a0: 34ab 973d 43b6 aebc 68d6 533c 9671 51bd
000002b0: c489 913d ff07 dc3c 718f 19bc fe29 63bc
000002c0: 03dd 783d c8b5 d73d 0a5b 91bc 4bea d9bc
000002d0: ae9b 8dbd a764 a23d b2bb 21bd 4577 3e3d
000002e0: dd7f 383d 31a4 4f3d 5982 5f3d d5f2 7e3d
000002f0: 861d bfbc 64f4 9dbd 0ab7 613d e83b 40bd
00000300: 9da4 3c3d 3858 aa3d 32d0 a1bd 23ef 84bd
0.010699985 -0.04060078 0.07568357 0.008666307 -0.058878347 0.052611195 -0.0069956654 0.07783672
-0.03891425 -0.028127195 -0.04107598 -0.038680814 -0.03996292 -0.054363064 0.0669482 0.072220415
0.069608815 0.03932498 0.06979942 0.06715785 0.031647064 -0.011171747 -0.059719935 0.0033692278
0.05251454 -0.08137416 -0.061814215 0.065018415 0.03818276 -0.064786114 0.08574923 0.06934383
-0.054542553 0.0043033757 -0.00969653 0.054876506 0.049989283 0.07609869 0.026293615 -0.030033903
-0.0068677496 -0.055129047 0.056707248 0.037205704 -0.013448274 0.104872994 -0.06688212 0.06376473
0.0170214 -0.048127778 -0.0047595645 -0.021737244 0.07944473 0.04870256 0.045822524 0.047778707
0.0032147109 -0.014575852 0.090556994 0.075863875 -0.017774556 0.103143096 0.074920386 -0.00057126174
0.07571441 -0.018082378 -0.034666076 -0.06678762 0.011797737 0.084919184 -0.06403796 -0.0055393437
0.06336495 -0.049454693 -0.03034345 0.08648719 0.07497796 0.07495694 -0.060288668 -0.018922292
0.080669716 -0.047476497 -0.015862057 0.038437974 0.09611404 0.07334318 0.042064797 -0.034385845
0.028134853 -0.06279932 -0.0050695697 0.081888705 0.10011317 0.045389783 0.056411296 0.0996713
-0.06502184 0.018470578 0.0067625977 0.026253698 -0.023775578 -0.027678568 -0.0077645876 0.06896733
0.053941708 0.010632134 -0.08763917 -0.06709845 -0.028716607 -0.06179024 0.028471269 -0.07672593
0.091061905 -0.069214165 0.09684353 0.08653311 0.044208463 0.011815185 0.061728913 0.009377771
-0.055459008 0.07106191 0.050210953 0.09287347 -0.028230881 0.070837505 0.07290614 -0.051498804
0.055454735 -0.023437811 -0.0073766885 0.097541675 -0.024042498 0.032357905 -0.0114552695 0.08496623
0.06064067 -0.036798332 0.10325975 -0.003051163 -0.03614446 0.013779556 0.11228863 -0.012345798
0.08124592 0.06891318 -0.05546495 0.06056906 0.066351384 -0.0034862126 -0.023198575 0.08613964
0.04665881 -0.0012510258 -0.02832465 0.09667699 0.040293355 0.088828795 -0.08846269 0.043519147
0.017514722 0.002249657 0.052775513 -0.06787573 -0.046792176 0.06571762 -0.0585787 -0.017093176
0.07405701 -0.021327144 0.012929536 -0.051133715 0.07106355 0.026859282 -0.009372578 -0.013864992
0.06075765 0.10532719 -0.017743606 -0.026600977 -0.06914459 0.07929354 -0.03948564 0.046500463
0.045043815 0.050693695 0.05456767 0.0622433 -0.023329508 -0.077126294 0.0551062 -0.04693213
0.046055425 0.08317608 -0.07901038 -0.06490924

fc5.weight f4 [32, 196]
00000000: 758b 02bd 9df3 6f3d dbe6 87bd 0f94 3abd
00000010: d4ea 16bd 1c63 723d f656 21bc 9b61 853d
00000020: f067 343d 0ace 883d 72f1 b03c ca10 80bd
00000030: 7670 ce3a a67c 24bb 8a76 4fbd 9b77 debc
00000040: ac3b 263d b522 bc3d 6006 9dbc 6fc6 383d
00000050: f58e f8bc 1c02 2ebd 4713 cf3c 3aba 5a3d
00000060: 6e99 693d 67bc f43b 1526 6cbd 2763 ab3b
00000070: 5f45 e1bc 5b91 083d 7dc7 b43d 2ffb 843d
00000080: 3be3 98bd 9ce9 b1bd 1957 36bd bb74 38bd
00000090: 601a 8dbd 477f 15bd eb31 853d dd9f 3f3d
000000a0: 583b 53bd 9c6a 6cbc c20f 3f3c 960d 9a3d
000000b0: 811e 39bd 05d1 73bd 0d02 c339 26ab d23c
000000c0: ce93 843d c24c 07bc 3e98 69bd 62e3 f93b
000000d0: 91ee c73d ed2f 083d 48b4 90bc 0168 ecbc
000000e0: 6738 39bd 7482 39bc cf68 2bbd 1ba2 643c
000000f0: 101d 203d f02b 033c f634 403d 2971 433d
00000100: 397b 21bd b35d 783d a551 823d ba55 923d
00000110: 4a0b f0bc 854f e83b f403 a9bd f3f6 733c
00000120: 5dd0 2f3d f16a 51bd c7cc d3bb a75f d13c
00000130: b659 7a3d df6a 3a3d 5228 b93d 0d2a af3d
00000140: b513 57bd eb52 8d3d 2fbc 39bd 8138 763c
00000150: eb94 2bbd f560 8d3d 072b 903d 4345 b23c
00000160: 6749 023d cde3 b23d 4179 8b3d 1ec5 f1bc
00000170: 4ed1 083c 8248 70bd 5b45 563c d189 963d
00000180: 189d 15bd 71a6 22bd 8ae0 bc3c 4af0 5fbd
00000190: 51dc a8bc 0f45 99bc 90d2 443d 85c2 9f3b
000001a0: c7a9 2cbc 7bae 0fbd 988c 2ebc 9ce6 bb3d
000001b0: 5bc1 4a3d 43e3 a4bc 00e5 51bd f770 273d
000001c0: f6b9 0bbc 616a 103d d568 873d 10a3 a43d
000001d0: ade5 2fbc 4756 3439 24e2 373d d3c8 db3c
000001e0: 9bf7 26bd 52e0 69bc 1097 b5bc 007c 45bd
000001f0: daa1 3abd 0c4f 1a3d 1b0b 1e3d 04b7 96bd
00000200: 8d3c 0d3d e8a5 af3d fe6f 983c 720d 3e3d
00000210: 5368 84bc ffe9 673d f7a8 a13c dbf0 b6bc
00000220: badd 933d 96e1 143d 58a0 333d 5113 8e3b
00000230: 05ca 6bbc b69c 12bd ba0e 1e3d 33ba 3b3d
00000240: 1985 403d 8e69 733d 5625 bebc b141 3abd
00000250: 27b0 523d 99fc 563d b056 5b3d 62dc 9a3d
00000260: 2d68 26bd 81bf 773c 381b 443b c703 843d
00000270: 11b4 76bd 5fa7 a2bd 8d4c 9f3d e48f 91bc
00000280: dc9b 65bb 196b 7c3d 79bb b43d b88e 983d
00000290: 1413 983d 8a3d 563c 0e59 91bd ca92 56bd
000002a0: 9c9d 3a3d f53b 6fbd 94d9 533d cdb7 4a3d
000002b0: d8cd 593d 06c0 78bd 34b0 0b3c 8e8f 0b3d
000002c0: 150d 2d3d 52ac f4bc 443f 123c 001b a23d
000002d0: 93b2 153d ea9f 42bd 3545 3c3c 3ffa dfbc
000002e0: 8940 b2bd 20de 97bd 3611 5e3c e140 4abc
000002f0: bb5c a8bc dc88 833c daec cfbc b722 bb3d
00000300: a4fb 8c3d 1757 b23d af7c d7bc 17f5 703d
00000310: de93 6ebd c581 d53a 5af7 4c3d 488b 783c
00000320: 5f25 a23b 0857 a73c 1c4a 893d e789 183d
00000330: e612 453d 00e7 febc 1099 673d f19e 0e3d
00000340: f216 3d3d f87f 85bd e19c 74bd 5ec4 363d
00000350: 91ff e43c 45fc 98bd e6cf aabb 16c9 053d
00000360: cc8b 9bbd fdf0 5e3d d49c 333c be4e 02bd
00000370: fc34 943d 039b 673d 3d14 aabb ead0 c0ba
00000380: 20d6 413d ca91 95bc 4d8d 37bc b2cc 35bd
00000390: 709d a13d 1bde 293d 39db 8fbd f12b 97bc
000003a0: 13ce b23d 5ec2 a9bc c673 0ebd de50 f2bb
000003b0: 2f1d 293d 0f9d c73b 8901 8d3d a226 50bc
000003c0: 7ca9 88bd 4b59 8f3b aaea a6bd 54bb 74bd
000003d0: 4a95 cb3c c8d0 7dbd a413 c9bc 5819 85bc
000003e0: b725 653c 7443 c73c 0501 473d de68 26bd
000003f0: e33a d2bc 3821 0fbd 8e8d 65bd 3c1e 8e3d
-0.031871278 0.058581937 -0.06635829 -0.045551356 -0.036845043 0.05917655 -0.009847393 0.065127574
0.044044435 0.06679924 0.021599505 -0.06253202 0.0015750069 -0.002509871 -0.050650157 -0.027156642
0.04058425 0.09186307 -0.019168079 0.045111116 -0.030341605 -0.04248248 0.025277747 0.053400256
0.057031088 0.0074687484 -0.057653505 0.0052303257 -0.027498899 0.033341747 0.08827112 0.06493222
-0.07465216 -0.086871356 -0.044516657 -0.045033198 -0.06889796 -0.036498334 0.06503662 0.046783317
-0.051570266 -0.0144297145 0.011661472 0.075221226 -0.045195106 -0.05952551 0.00037194826 0.025716376
0.06473504 -0.008258047 -0.057029955 0.007625983 0.097623 0.03324883 -0.01766409 -0.028858187
-0.045219805 -0.011322606 -0.041848 0.013954665 0.039090216 0.008006081 0.046925507 0.04771534
-0.039424155 0.060636234 0.06363229 0.07145257 -0.029302258 0.0070895576 -0.08252707 0.01489042
0.04292332 -0.051127378 -0.0064636203 0.025558306 0.06112071 0.045512076 0.090408936 0.085529424
-0.05250903 0.06900581 -0.04534548 0.01502812 -0.041890066 0.06903259 0.07039457 0.021761542
0.031808283 0.08734856 0.06810237 -0.029512938 0.008350683 -0.0586629 0.013078059 0.07350505
-0.03652677 -0.039709512 0.023056287 -0.054672517 -0.020612868 -0.018709688 0.04805237 0.0048754835
-0.010538525 -0.035078507 -0.010653637 0.091748446 0.049500804 -0.020127898 -0.051243782 0.040879216
-0.008528223 0.0352577 0.06611792 0.08038914 -0.010735911 0.00017198279 0.0448934 0.026829159
-0.04076348 -0.014274674 -0.022166759 -0.04821396 -0.04556451 0.03767304 0.03858481 -0.07359126
0.034481574 0.08576566 0.01860809 0.04639954 -0.016163027 0.05661964 0.019733889 -0.022331646
0.07220025 0.036347948 0.043854088 0.004335799 -0.014391427 -0.035793982 0.038588263 0.04583187
0.04700193 0.059426837 -0.023211163 -0.045472804 0.051437523 0.05248699 0.05354947 0.07561566
-0.040626694 0.015121342 0.002992345 0.06446033 -0.06023032 -0.0794208 0.07778273 -0.017768808
-0.0035035526 0.061625574 0.0882482 0.074490964 0.07425514 0.0130761955 -0.07097064 -0.052386083
0.045560464 -0.05840679 0.05172117 0.049491692 0.053174824 -0.060730003 0.008525897 0.03407245
0.042248804 -0.029867325 0.0089262165 0.07915306 0.036547255 -0.047515787 0.01149111 -0.027341006
-0.08703715 -0.07415414 0.013553908 -0.01234457 -0.02055203 0.01605647 -0.025381494 0.09137481
0.06883934 0.08708017 -0.026304571 0.058827486 -0.058246486 0.0016289285 0.05004058 0.015169926
0.0049483026 0.020427242 0.06703588 0.03724089 0.048113726 -0.031116009 0.056542456 0.034819547
0.04616446 -0.06518549 -0.059719924 0.044620864 0.027953895 -0.074699916 -0.0052127717 0.032662474
-0.075950235 0.054429043 0.010962684 -0.031813376 0.072366685 0.056544315 -0.005190401 -0.0014710699
0.047323346 -0.018257994 -0.011203122 -0.044384666 0.07891357 0.041471582 -0.07024235 -0.01845357
0.08730712 -0.020722564 -0.03477838 -0.007394894 0.041287597 0.006091721 0.068850584 -0.012704523
-0.066729516 0.004374658 -0.08150227 -0.059748963 0.02485146 -0.061966687 -0.024545498 -0.016247436
0.013986043 0.024324156 0.048584957 -0.040627353 -0.025662845 -0.03494379 -0.0560432 0.069393605

fc5.bias f4 [32]
00000000: 6fd4 933d a6ba fcbb 9ac5 7c3d 4431 9abc
00000010: 112c 003d 0f04 8ebd eb27 c9bc bad7 59bd
00000020: 3e4a ff3b 73da 1c3c 7e0e fd3c edb0 083d
00000030: ac65 03bd 1eea 713d 34a0 d8bb 7fd2 4e3d
00000040: 172f fe3c ee37 b83c 5f80 2e3d eaa3 f83c
00000050: d6d0 c7bc 50be 61bd 4df8 a83d 79ac 32bd
00000060: 6b44 96bc e9d5 debc baa2 363d 7e7f 0b3d
00000070: 1297 bebc b61f 663d 7a10 033d 2881 af3d
0.07218253 -0.00771268 0.061711885 -0.01882232 0.031292025 -0.06934368 -0.024555167 -0.05318425
0.007790833 0.009573567 0.0308907 0.033371855 -0.032079384 0.059061162 -0.0066108946 0.050493713
0.031028314 0.022487607 0.042602893 0.030351598 -0.024391573 -0.055113137 0.082504846 -0.043621514
-0.018343171 -0.02720161 0.044588782 0.034057133 -0.023265395 0.056182586 0.031998135 0.085695565
