mlops-23-autumn/best_model.pt (torch, 327778 bytes, 16 tensors)

fc1.weight f4 [64, 562]
000000 4e 1f fa 3c 02 20 e6 bc ae ee 2c bc 39 8a de bc
       0.030532505 -0.028091434 -0.010554953 -0.02716552
000010 ec ef 17 3d a6 6f 22 3d 99 29 c4 bc 9f 33 cb 3c
       0.03709404 0.039657257 -0.023945617 0.024804888
000020 03 ed c2 3c 78 dd 89 3c fb c9 4b bc d5 cc 7b 3c
       0.023794657 0.016829237 -0.012438293 0.01536866
000030 f4 37 90 bb ff a6 8c 3c 0d 69 df 3c 50 05 b0 3c
       -0.0044012014 0.017169474 0.027271772 0.021486908
000040 cc 33 b5 bb ac 12 fe 3b 55 7b 3f 3c 74 f0 a4 3c
       -0.0055298563 0.0077536907 0.0116871195 0.020134188
000050 52 4a 07 bb cb 5c 32 3b 0b f7 bd 3a 7c df 6e 3b
       -0.0020643664 0.0027215953 0.001449318 0.0036449125
000060 e3 6c c8 bc 1b 53 51 bc 96 b8 be bc 42 26 a1 bc
       -0.024465984 -0.012776162 -0.023281377 -0.019671563
000070 9e af 34 3c af 17 44 bc ee 91 20 3d 5c 4e 05 3d
       0.0110281985 -0.011968537 0.03920167 0.032545432
000080 75 01 8c 3c 7b e4 41 3c a9 a3 9a 3c 21 d4 3c bb
       0.017090539 0.011834259 0.018876867 -0.0028812962
000090 52 72 8c 3c 1a 54 18 3d a3 30 84 3c 3e 69 65 bb
       0.017144356 0.03718958 0.016136473 -0.0035005356
0000a0 d8 70 89 3c 78 30 29 3d 72 22 95 bc 2a 21 f8 3b
       0.01677744 0.04130599 -0.018204901 0.007572313
0000b0 44 14 cc 3c 3b 64 0a 3d 95 0f 2b 3c 74 9f 69 bc
       0.024912007 0.033786993 0.010440727 -0.014259208
0000c0 46 ce 31 3c 9a b3 9f 3c 7f b8 26 3c de ee 86 3c
       0.010852402 0.01949482 0.010175823 0.016471323
0000d0 8e 45 2b bd a9 e3 84 3c c6 f3 1f 3d 12 45 c3 3c
       -0.04181438 0.016221838 0.03905084 0.023836646
0000e0 3d 88 e6 bc 18 cd ed 3c 0b 09 63 bc f4 c7 ee 3c
       -0.028141135 0.02902846 -0.0138571365 0.02914808
0000f0 23 7b 01 3d 68 3e ec 3c f6 07 be 3c 85 ee 8e 3c
       0.031611573 0.028838351 0.023197155 0.01744772
000100 43 54 f9 bc 19 af 60 3c b7 de 5b bb c5 66 f9 bc
       -0.030435687 0.013713622 -0.0033549496 -0.030444512
000110 41 51 e7 3b e4 9c 2e bd 45 71 bd 3c 17 f8 59 3c
       0.007059247 -0.04263009 0.0231253 0.013303778
000120 33 62 62 3c 33 a6 a8 3c b4 1a 20 bd 23 1d 5d bc
       0.013817358 0.020587062 -0.039087966 -0.013495716
000130 ed f2 a5 bb 8c e0 de 3c c5 64 8b 3c 71 73 89 3c
       -0.0050643594 0.027206682 0.017015824 0.01677868
000140 0b b0 30 3b c3 01 8c 3b 85 27 12 3d 46 7c 14 3d
       0.0026960399 0.004272671 0.03568222 0.03625133
000150 29 0b 85 3c a2 39 21 bb 7d 31 09 bb 35 c5 18 ba
       0.016240673 -0.0024601002 -0.0020934038 -0.0005827726
000160 3e f3 af bc 2e dd a9 bc 2f 9a 2b bc 62 39 0f bd
       -0.021478292 -0.02073535 -0.010473772 -0.034966834
000170 e5 81 3e bc e5 cd b7 bc 79 ae 2e bb 1d bb 9e 3c
       -0.011627649 -0.022437045 -0.0026654287 0.019376332
000180 61 11 07 3b fe 5d 8c bc c2 0e 36 bc 1b 75 e2 bb
       0.0020609724 -0.017134663 -0.011111917 -0.0069109327
000190 33 66 0f 3d 11 e4 d2 3c 52 75 87 3c 76 06 eb 3c
       0.035009574 0.025743516 0.016535435 0.028689604
0001a0 52 5b c8 bc 67 55 1f 3d 1b d7 8a bc 98 69 07 3d
       -0.024457607 0.038899805 -0.016948273 0.033059686
0001b0 e2 52 08 3c 38 1c bb 3c 54 34 18 bd f9 fc c3 3c
       0.008320542 0.022840604 -0.03715928 0.023924338
0001c0 51 9f fa 3c 83 e2 b0 3c 4f dc fb bc b4 30 a0 bb
       0.030593546 0.021592384 -0.0307447 -0.0048886184
0001d0 ee d6 15 bd 2a da 08 bd ef 8f f8 3c f2 fb d3 ba
       -0.036581926 -0.033411182 0.03034207 -0.0016173108
0001e0 a7 33 0b bd c3 24 17 bd fd d1 15 bd 1f a5 ab bc
       -0.033984806 -0.036900293 -0.036577214 -0.02095276
0001f0 c3 ae 80 3b 0f 5c 0f 3d c4 6e d0 3c 49 61 44 3c
       0.003927083 0.034999903 0.025443442 0.011986085
000200 67 43 a1 3c 01 08 f8 bc c3 df 8d bc 3c fa 04 bd
       0.01968546 -0.030277254 -0.017318612 -0.032465205
000210 d4 45 b0 3c 8a ec 22 ba ec d3 05 bd 01 3d 14 bd
       0.021517672 -0.00062150566 -0.032672808 -0.03619099
000220 08 f2 bf bb 7e 2a ff bc cc f7 6a bc 51 64 08 bd
       -0.00585771 -0.031148192 -0.014341306 -0.033298794
000230 d6 f9 41 3c 1c 91 1f bc 4b 6b 1f 3d bd 8c b0 bc
       0.011839351 -0.009739187 0.038920682 -0.021551484
000240 36 c4 4c bc 90 80 bd bb 03 6c 01 3d 65 b3 c8 bc
       -0.012497952 -0.005783148 0.03159715 -0.024499604
000250 c0 a2 b8 bc 09 53 b4 bc f9 b8 e7 3c 0a 8b 3b 3b
       -0.022538543 -0.02201225 0.028286444 0.002861681
000260 51 6a 0a bd 8e 12 cf bb 51 9d c9 bb c4 3c 2c bd
       -0.033792797 -0.0063193506 -0.006152787 -0.042050138
000270 a7 bc 1e bc cc 70 2e ba c0 45 20 bb 08 93 46 bc
       -0.009688533 -0.0006654381 -0.0024455637 -0.012120016
000280 3a 7b d6 bc be 45 17 3c c7 3d 9a bc db 56 e2 3c
       -0.026181806 0.009232936 -0.018828286 0.027629307
000290 50 76 7c bb ce fa 0c bd ed f9 dd 3c f0 8d 46 3c
       -0.0038522668 -0.034418873 0.027096713 0.0121188015
0002a0 e9 8c 00 3d b0 6a 13 3d a9 c3 1b 3d dd e2 da bc
       0.031384382 0.035990417 0.038028393 -0.026719505
0002b0 a6 98 d0 bb 6c 62 ad 3b 4f 5e c8 bc 58 cb bc bc
       -0.0063658534 0.005291274 -0.024459032 -0.02304618
0002c0 2e 59 c4 bc 39 48 1b bd 8a 85 af b9 0f 84 c3 3c
       -0.023968305 -0.037910674 -0.00033478095 0.023866681
0002d0 c4 12 a1 bb 52 1c 4e 3c 19 85 a5 3c 70 bf 0d bd
       -0.004915567 0.012579994 0.020205067 -0.034606397
0002e0 6a 9b 09 3d 14 25 01 bd bf d9 af bc 52 cb 07 bd
       0.03359548 -0.0315295 -0.021466134 -0.033152886
0002f0 b2 d1 90 3c bf 94 93 bc a0 5c e0 bc ea 21 dd bc
       0.017678116 -0.018015264 -0.027387917 -0.02699371
000300 06 cc 0a bd b9 6e bf 3c 8e b3 9a 3c a6 a2 fe bb
       -0.03388598 0.023368226 0.018884446 -0.007770854
000310 98 47 92 3c 5f c5 91 bc 59 a6 0c bd e8 b1 d2 3c
       0.017856404 -0.01779431 -0.03433833 0.025719598
000320 c3 7a 5d 3c 85 af d4 bc 37 85 89 3b 71 7e c9 3c
       0.013518038 -0.0259626 0.0041967887 0.024596425
000330 8e 79 85 bc 48 6c 99 3c d1 84 e1 bc 63 33 22 bd
       -0.016293313 0.01872839 -0.027529152 -0.039599787
000340 2b dd f6 3c 87 8f e6 bc 18 52 ab 3a b7 1e ea bc
       0.030134758 -0.028144611 0.001307073 -0.0285791
000350 d1 59 9e bc e6 47 17 3d 36 fb c4 bb 1f 84 91 3c
       -0.019329937 0.036933802 -0.006011392 0.017763196
000360 63 6c 2f bd 0f fe 6d bc 2d 2f 80 bc 09 3d 98 bc
       -0.042827975 -0.014525904 -0.015647495 -0.018583791
000370 91 98 2c 3b c3 57 09 3d 22 41 d3 bc 38 9a 82 bc
       0.0026336054 0.03353096 -0.025787894 -0.015942678
000380 2a 01 5a 3c 08 75 28 bd 29 36 e2 bc 6b 71 ba bc
       0.013305942 -0.041127235 -0.027613716 -0.02275916
000390 e6 da ca bc 7b 1e ef 3c a0 70 de 3b 3c 3c c4 bc
       -0.024762582 0.029189339 0.0067883283 -0.023954503
0003a0 30 1c 7e 3c 0d ef ad 3c 3f d6 19 3d 72 a8 2e 3c
       0.01550965 0.021232152 0.037557837 0.010660278
0003b0 86 2d 78 bc e0 a9 d1 bc dd 71 04 bd 12 06 e1 bc
       -0.015147572 -0.025593698 -0.03233515 -0.027468715
0003c0 00 f2 29 bd b4 38 27 bb 89 3a c8 3c 0d f4 04 3c
       -0.041490555 -0.0025515975 0.024441974 0.008114827
0003d0 02 ac ad 3c ee 34 a2 3c 72 25 c5 3c 13 ab 97 ba
       0.021200184 0.01980063 0.024065707 -0.001157137
0003e0 01 8d a5 3c f2 b1 1b bd b8 7d a7 3c de d7 9e bc
       0.020208837 -0.0380115 0.02044569 -0.019390043
0003f0 d5 91 2a bd 47 10 f7 bc b4 a5 e3 3a 22 80 01 3d
       -0.041642983 -0.030159129 0.0017368109 0.031616338

fc1.bias f4 [64]
000000 fc 47 19 bd 1c 7d 01 3c bd 91 89 bc 68 ca 4d 3c
       -0.037422165 0.007903364 -0.016793126 0.012560464
000010 3e 09 c6 3c 30 df a9 3c 63 ed 28 3c 59 fa 0e 3d
       0.024174329 0.020736307 0.010310504 0.03490672
000020 c0 2e 0f 3d 8d 3c 0e 3d c4 56 2d 3c 91 f5 02 bd
       0.034956694 0.034725714 0.010579769 -0.03197247
000030 e1 14 0d 3d 00 59 e7 ba 2e 22 d9 bc 6b 1c fd 3b
       0.03444374 -0.0017650425 -0.026505556 0.007724335
000040 b0 86 08 3c 6b 69 03 3c 0f a9 26 bd 1c ce 1c bc
       0.008332893 0.008020739 -0.04068857 -0.009570625
000050 98 02 0d 3d f0 77 52 bc ed c3 27 bd 8e c6 3c 3c
       0.0344263 -0.012845978 -0.040958334 0.0115219485
000060 35 df c1 3c 8a fc d2 bc 63 51 f4 3c 41 e9 f9 3c
       0.023666004 -0.025755186 0.029823964 0.030506732
000070 6c f6 1a bd 3b 79 3e bc 40 8a 1e bc b9 95 d7 bc
       -0.037832662 -0.011625583 -0.009676516 -0.02631651
000080 18 b8 19 3d 7d 82 b8 3c 3e 92 ec 3b 91 13 88 bc
       0.03752908 0.02252316 0.007219582 -0.016610892
000090 5a dd 0a bd c3 46 6e 3c 3c 04 0f 3d db 1b f9 bc
       -0.033902504 0.014543238 0.034916148 -0.03040879
0000a0 25 38 cc 3c 46 08 da 3c dc 62 1b 3d 4a 3f 69 3c
       0.024929116 0.026615273 0.037936077 0.014236281
0000b0 99 33 d2 bc 11 c2 ad 3c c8 b7 9b 3c c2 a3 b1 3c
       -0.02565937 0.021210702 0.019008532 0.021684531
0000c0 ab b2 94 bb 85 aa eb bb 27 11 bc ba 15 1a 36 bc
       -0.0045379004 -0.0071919584 -0.0014348374 -0.011114617
0000d0 ab 64 89 bc e6 d2 22 bd 90 77 12 3b b2 17 b0 bb
       -0.016771635 -0.03975191 0.0022349097 -0.0053739185
0000e0 60 cf d2 3a 08 a4 b5 bb 03 0e ce bc 2f 1e fd bc
       0.0016083531 -0.0055432357 -0.025153166 -0.030898182
0000f0 1f 10 d3 bc f2 49 ea 3c e9 5b a6 bc a2 e6 f9 bc
       -0.025764523 0.028599713 -0.020307498 -0.030505482

fc2.weight f4 [64, 64]
000000 d8 a9 d3 3d 14 f3 56 bd 70 8f 3d 3c a0 72 4d 3c
       0.103351295 -0.05247791 0.011569843 0.012539536
000010 38 ea f9 bc e0 44 64 bc f2 15 8f 3d e0 ed 04 bc
       -0.030507192 -0.013932437 0.069866076 -0.008113354
000020 0c 48 07 bd 84 a3 ef bd ce b2 a8 bd c2 8b 9e 3d
       -0.033027694 -0.1170111 -0.08237229 0.077415004
000030 18 71 b7 bc 7e 36 a7 bd 3e 04 ef bd 1e fe 88 3d
       -0.022392794 -0.081646904 -0.11670731 0.06689094
000040 40 5a bf bc 4c b0 e6 bd d0 a3 be bc 30 bc c6 3c
       -0.023358464 -0.11264095 -0.023271471 0.024259657
000050 58 80 6d 3d 50 64 8b 3c 30 f3 5c bd 00 10 9f bc
       0.057983726 0.017015606 -0.05394286 -0.01941681
000060 be 4a f8 3d 28 3f c7 bd 50 0b 00 bc ac aa 3a bd
       0.12123631 -0.09728843 -0.007815197 -0.04557292
000070 66 db 9a 3d a0 4c 15 bc 7c 0a ea 3d 78 f6 f4 3d
       0.07561378 -0.009112507 0.11427781 0.11961073
000080 ea df fb bd 30 b3 8e 3d 32 ac ad bd 54 3a 40 bd
       -0.122985676 0.06967771 -0.08480109 -0.046930626
000090 10 0d 98 bc 50 89 f8 bd ac 57 c4 bd 50 c1 7e 3c
       -0.018560916 -0.12135565 -0.095870346 0.015549019
0000a0 ec 68 31 bd c8 20 8b 3c b8 b0 ce 3d 70 48 aa bd
       -0.043312952 0.016983405 0.100923 -0.083145976
0000b0 f4 c2 18 bd 1e 16 c5 bd 0c ff f9 3d 60 10 a1 3b
       -0.037295297 -0.09623359 0.122068495 0.004915282
0000c0 a4 0a 19 bd aa 2a 8f 3d 58 33 bb 3d 3c 8c ae bd
       -0.037363663 0.069905594 0.091406524 -0.08522841
0000d0 c0 ed ea bb 00 de 13 bc 84 00 01 3d 00 1f 0a bc
       -0.0071694553 -0.009025097 0.031494632 -0.008430243
0000e0 aa 90 e0 3d 10 40 42 3d 60 41 89 3d 1c af b2 3d
       0.109650925 0.047424376 0.067019224 0.08724806
0000f0 50 2e 3a 3c 70 87 c5 3c 8c a3 07 3d e8 03 00 bd
       0.011363581 0.024112433 0.033114955 -0.031253725
000100 70 20 df bc 08 67 f9 bc 46 c7 a4 bd 98 02 7a bd
       -0.027237147 -0.030444637 -0.08045821 -0.06103763
000110 f0 52 15 bc a0 74 b7 3b bc 37 84 bd ba ea a5 3d
       -0.009114012 0.0055986196 -0.06455943 0.08101411
000120 b0 70 b5 bc c8 63 b0 bc 34 a3 f6 bd 20 e8 3c bc
       -0.02214846 -0.021531954 -0.12042847 -0.011529952
000130 00 90 fd 3d ec bf 74 3d f8 01 b2 bc 48 db c0 3c
       0.123809814 0.059753343 -0.021729454 0.023542061
000140 c4 1d 9f bd 2c 2a ae bd 4e 11 95 bd 40 2a 09 3b
       -0.07769349 -0.085041374 -0.07278691 0.0020929724
000150 fa c9 e6 bd 0c a6 ea bd d0 d3 9e bd b8 f1 db 3c
       -0.11268993 -0.11457452 -0.07755244 0.026848659
000160 f8 07 e4 3d 50 5f 05 3c b0 99 ce 3d 88 bd 8f 3c
       0.111343324 0.0081404 0.10087907 0.01754643
000170 20 db 67 3c dc 2b 21 bd ac 2f 2d 3d 40 5b 25 3b
       0.014151365 -0.03934847 0.04228179 0.0025231391
000180 70 16 ea 3c e8 8e db bc a4 d2 a4 bd 48 d6 c7 3c
       0.028575152 -0.026801541 -0.08047989 0.02439417
000190 40 61 c2 3b 12 c0 d6 3d f4 06 c9 3d c6 bf e9 bd
       0.0059320033 0.10485853 0.09815779 -0.11413531
0001a0 de ea ba 3d b2 54 e3 3d 50 ab 38 bc 3e 58 94 3d
       0.091268286 0.11100139 -0.011271313 0.07243393
0001b0 94 95 99 3d 7c 56 52 bd 42 f2 d1 bd 0c 6b 66 3d
       0.07499233 -0.05135201 -0.10251285 0.05625443
0001c0 78 15 bc 3c f0 30 05 bd 00 b1 68 bd f8 71 9f 3d
       0.022959456 -0.032517374 -0.056809425 0.0778541
0001d0 90 4e 2a bc c0 fa 3c bc 66 86 a3 bd da f1 fc 3d
       -0.010394707 -0.011534393 -0.07984619 0.12350817
0001e0 e8 02 f7 3c 3a 46 ff 3d f2 86 d4 bd 10 a5 ae bd
       0.030152753 0.124645665 -0.10377301 -0.08527577
0001f0 18 5d ce bd d4 17 59 bd dc c9 4c 3d 7c 71 e6 bd
       -0.1007635 -0.05300124 0.049997196 -0.11252114
000200 2c 70 d9 bd de b6 e4 3d 48 8a c1 bd 86 23 f3 bd
       -0.10617098 0.11167692 -0.09450203 -0.1187201
000210 5c ba 9f bd 58 c5 96 3d e0 21 a2 3c 18 8f 02 3d
       -0.07799217 0.07361859 0.019791543 0.031874746
000220 40 b2 26 bd 64 10 58 bd 42 26 f3 bd 0c 01 76 3d
       -0.040697336 -0.052750006 -0.118725315 0.060059592
000230 80 7d b3 bd c0 29 41 3d 30 a6 01 3d 18 78 8b 3d
       -0.087641716 0.047158957 0.03165263 0.068100154
000240 38 ac 6c bd 24 79 97 bd 74 86 8c 3d 48 0a 8d 3d
       -0.057781428 -0.073961526 0.068615824 0.068867266
000250 34 d5 bb bd 6c f1 30 3d 02 f4 a1 bd ea ff db 3d
       -0.09171525 0.043198988 -0.07907869 0.10742171
000260 08 85 f6 3c 7e ed cb 3d 1a 2c c7 bd e4 9f e8 bd
       0.030092731 0.099574074 -0.097252086 -0.11358622
000270 9c 0d 67 3d f8 2b d3 3d 1c 69 33 3d 4c ea f5 3d
       0.056409463 0.10311121 0.043801412 0.12007579
000280 82 54 bf bd 3e 80 eb 3d ae 44 d2 bd 9e 3c 9d bd
       -0.093422905 0.1149907 -0.10267006 -0.076775774
000290 8c d3 5e bd 7e 49 f6 3d 74 e6 44 3d 8e 23 98 bd
       -0.054400966 0.12025736 0.04807134 -0.074286565
0002a0 58 95 e9 bc 78 3f f6 3d f6 f3 94 3d 30 37 ce bc
       -0.028513595 0.120238245 0.07273094 -0.0251728
0002b0 ba 02 83 3d 00 5f 59 3a ea 60 be bd 10 fd 8f bd
       0.063970044 0.0008292049 -0.09295829 -0.0703069
0002c0 80 39 0c bc 4e ef ee bd c8 fb fc 3d 66 63 f1 bd
       -0.008558631 -0.116667375 0.12352711 -0.11786537
0002d0 e0 9c 03 bc ec f7 8f bd 72 48 a6 bd a0 d7 d6 3d
       -0.008033007 -0.07029709 -0.081192866 0.10490346
0002e0 c2 67 b3 3d 88 95 a1 bd b4 33 3c bd 80 06 a7 3b
       0.087600246 -0.07889849 -0.045947745 0.0050972104
0002f0 58 36 c8 bd 18 16 b5 bc 4e b5 c0 3d 8c d2 a3 3d
       -0.0977599 -0.022105262 0.09409581 0.07999143
000300 6a 03 bb 3d 61 9f a9 3d 1f 1b 00 be 28 51 cf 3d
       0.091315106 0.08282352 -0.12510346 0.10122901
000310 fc d9 03 3e 20 5b fe bd 63 e7 ef bb e0 cb c3 bd
       0.12876123 -0.124197245 -0.0073212846 -0.095603704
000320 38 9b b2 3d 5b 72 33 3d d2 ca c2 3d 73 de a8 3d
       0.08721012 0.04381023 0.09511341 0.08245554
000330 2b d5 ec 3d 22 33 b6 3d e3 31 9b bd 8f 99 78 3d
       0.11564096 0.088964716 -0.075778745 0.06069332
000340 21 5c 59 3d f1 b4 81 3d 35 96 b8 bd 0c a0 56 3d
       0.053066377 0.0633334 -0.09013025 0.052398726
000350 fb ce 0e 39 a0 11 9f 3c 20 28 51 bd 74 ac 76 3d
       0.00013619282 0.019417584 -0.051063657 0.060223058
000360 68 54 ce 3d 2f 01 89 3c 72 0d c1 bd 0f a4 dd 3d
       0.10074693 0.016724197 -0.094263926 0.10822307
000370 09 4b dc bd 00 85 9d bb 88 b7 94 3c 8d 1a cc bd
       -0.10756499 -0.0048071146 0.01815392 -0.09966002
000380 29 3f 25 3d 17 d9 21 bc a5 c0 47 bc 9d 17 ac bc
       0.040343437 -0.009878418 -0.012191926 -0.021007353
000390 8a 73 10 3b 73 6f d0 3d 83 f6 2b bd 74 a8 bc 3b
       0.0022041523 0.10177507 -0.04198314 0.005757386
0003a0 40 fc 90 bd 0b 7c da 3d ed b8 9c 3c f8 b6 5a bd
       -0.07079363 0.106681906 0.019131148 -0.05339715
0003b0 40 57 b4 bd f4 e0 83 ba b8 e1 de bd 5d f5 be 3d
       -0.08805704 -0.0010061548 -0.10882896 0.09324143
0003c0 71 89 6f bd 2d 46 b7 3c 9a c8 d7 bc fd b2 90 3d
       -0.058480684 0.02237233 -0.026340771 0.07065389
0003d0 4c 6b f9 b9 d9 4b 78 bd 7a e9 b9 3d 9a 42 8b 3d
       -0.00047572923 -0.06061921 0.09077735 0.067998126
0003e0 50 3c 38 3d 0d 68 17 3d 07 3d ff 3b 19 a2 d4 bd
       0.044979393 0.036964465 0.0077892574 -0.1038248
0003f0 34 2b c9 3d 3d ab 4e bd 3b 47 81 3c 0f a1 f5 3c
       0.098226935 -0.050456274 0.015781036 0.029984025

fc2.bias f4 [64]
000000 24 b4 ea bd 18 88 a9 bd 82 d0 f5 bd 36 9f a1 3d
       -0.1146014 -0.08277911 -0.1200266 0.07891695
000010 4d a6 7b bd 4c 93 a9 bd 58 26 be bd c5 9c d1 3b
       -0.061437894 -0.08280048 -0.09284657 0.006396862
000020 b5 55 11 bc e0 15 e3 3d dc c9 9f 3d 31 e7 15 bd
       -0.008870532 0.11088157 0.078021735 -0.036597434
000030 13 48 bb bb 64 4a b5 bd 94 87 f8 bd 79 89 1b 3c
       -0.005715379 -0.088520795 -0.121352345 0.009493225
000040 3b 5b db 3d 01 79 1a bd 40 d8 de bb 76 7e d1 bd
       0.1071076 -0.037713055 -0.0068006814 -0.10229199
000050 5a 64 e8 bd 6f 7a 06 bd 6a 9b 9e bc aa a3 bd 3d
       -0.113472655 -0.032831606 -0.019361217 0.09259732
000060 0a f8 88 bd 42 49 c8 bd 7d c1 14 bd c9 37 b3 bd
       -0.06687935 -0.09779598 -0.036317337 -0.087508745
000070 01 5f 91 bc 80 44 c2 bb b7 af 32 3c 64 8e 01 3e
       -0.017745497 -0.005928576 0.0109061515 0.12651974
000080 c6 b3 7c bb 9f 48 b4 bc 9e 4d 5b bd b5 c3 12 bd
       -0.0038559302 -0.022007285 -0.05354082 -0.035831172
000090 68 d1 bc bd a7 d2 57 3d 32 4e aa bd e3 78 7c bd
       -0.092196286 0.052691128 -0.08315696 -0.061638724
0000a0 56 60 77 bd 31 b9 ff 3d e0 78 01 3d 00 ea e5 bd
       -0.060394607 0.12486494 0.031609416 -0.112262726
0000b0 54 d2 9e bd 25 20 7d bd 58 8d f0 bc 45 e8 6a bd
       -0.07754961 -0.061798234 -0.029364273 -0.057350416
0000c0 08 40 5f bd 1c 8d 9d bd b3 85 e7 3c b8 43 d1 bd
       -0.054504424 -0.0769293 0.028261995 -0.102179945
0000d0 d7 15 a3 3d 5f 52 30 3d 6f 8f 2b 3d 92 95 bd bd
       0.0796315 0.043047305 0.041884836 -0.09257044
0000e0 3a fb 21 3d 82 4c 92 bd 6c ce dc bc 72 a6 63 3b
       0.03954623 -0.07143499 -0.026953898 0.003473666
0000f0 b8 4d de bd b7 fd ae 3d c0 73 54 bd 70 08 8c 3d
       -0.108546674 0.08544486 -0.0518682 0.06837547

bn.weight f4 [64]
000000 00 00 80 3f 00 00 80 3f 00 00 80 3f 82 6f 81 3f
       1.0 1.0 1.0 1.0112154
000010 9a fa 80 3f 58 8e 81 3f 55 93 81 3f 8a a7 81 3f
       1.0076478 1.0121565 1.0123087 1.0129254
000020 b1 b0 81 3f f3 9e 81 3f 95 93 81 3f b2 ee 7f 3f
       1.0132047 1.0126632 1.0123163 0.99973595
000030 8c a3 81 3f 00 00 80 3f 00 00 80 3f 5e bb 81 3f
       1.0128036 1.0 1.0 1.0135305
000040 13 b7 81 3f ec 9f 81 3f 00 00 80 3f b5 b1 81 3f
       1.0133995 1.0126929 1.0 1.0132357
000050 3f bf 81 3f 51 b1 81 3f a5 a6 81 3f ca a8 81 3f
       1.0136489 1.0132238 1.0128981 1.0129635
000060 32 c9 81 3f 78 52 81 3f 1c bf 81 3f fd bd 81 3f
       1.0139525 1.0103292 1.0136447 1.0136105
000070 b4 d5 7f 3f 00 00 80 3f c9 c2 81 3f 7e a0 81 3f
       0.9993546 1.0 1.0137569 1.0127103
000080 27 bc 81 3f f2 b9 81 3f f5 c0 81 3f c4 a0 81 3f
       1.0135545 1.0134871 1.0137011 1.0127187
000090 c8 98 80 3f 36 b9 81 3f 00 00 80 3f 2f b8 81 3f
       1.0046625 1.0134647 1.0 1.0134333
0000a0 8f 15 80 3f 38 8a 81 3f 39 bd 81 3f 00 00 80 3f
       1.0006579 1.0120306 1.0135871 1.0
0000b0 00 00 80 3f 0a 09 80 3f 00 00 80 3f 65 42 80 3f
       1.0 1.0002759 1.0 1.0020262
0000c0 fc 11 80 3f 00 00 80 3f b4 0d 80 3f 00 00 80 3f
       1.0005488 1.0 1.0004182 1.0
0000d0 a2 b4 81 3f 13 b7 81 3f 4e 25 81 3f 00 00 80 3f
       1.013325 1.0133995 1.008951 1.0
0000e0 7d a9 81 3f 00 00 80 3f e5 7c 81 3f d5 71 81 3f
       1.0129849 1.0 1.011624 1.0112864
0000f0 e5 ea 7f 3f d3 b7 81 3f 30 5b 81 3f b1 0a 81 3f
       0.99967796 1.0134224 1.0105953 1.0081388

bn.bias f4 [64]
000000 e2 59 2b 3c c6 2f 59 3c 3a 96 43 3c 68 5d 34 bc
       0.010458441 0.013256019 0.011937672 -0.011008598
000010 34 8e 37 bc 34 9b 3f bc db 4b 3b 3c ae 37 13 bc
       -0.011203337 -0.011694718 0.01143166 -0.008985443
000020 0b 64 52 3c 20 f2 8a bb a7 8c 3a 3c be 20 49 3c
       0.012841235 -0.0042402893 0.011386073 0.012275873
000030 1f 89 27 3c ff 0c 4d bc c1 35 52 bc 73 13 1d bc
       0.010225563 -0.012515306 -0.012830199 -0.009587157
000040 a8 a9 0c bc ed 1f 14 bc f5 97 4a 3c e6 f7 2f 3c
       -0.008585371 -0.009040815 0.012365331 0.010740256
000050 ff b8 2a 3c ce 92 8b 3b 4a be f6 3b 39 f9 dc bb
       0.010420083 0.004259444 0.0075300084 -0.006743577
000060 e5 ad 94 3b 6e 99 4e bc 98 93 30 3c da 00 1d bc
       0.0045373314 -0.012609823 0.010777377 -0.009582723
000070 18 a2 46 3c 7a 94 56 bc 09 f0 3d 3b f4 bc 39 bc
       0.012123607 -0.013096923 0.0028982183 -0.011336554
000080 8a 9e 11 bc 7a 61 36 3c 5a a7 30 bc de 40 37 bc
       -0.008887896 0.011131639 -0.010782087 -0.011184899
000090 e8 5b 13 bc 8f ac f9 ba 5d 00 4d bc 4d 06 c2 3b
       -0.00899408 -0.0019048619 -0.012512294 0.0059211613
0000a0 28 a0 58 3c a0 a0 1a bc 5e d3 ec 3a e8 0c 5c 3c
       0.013221778 -0.00943771 0.0018068363 0.013430811
0000b0 8f f7 49 bc 52 03 51 3c 0a 84 3d 3c 65 88 3f bc
       -0.012327089 0.012757139 0.011567125 -0.011690234
0000c0 cd de 2a 3c ad 58 56 3c 57 be 46 bc 4b 01 55 bc
       0.010429096 0.013082665 -0.0121303415 -0.013000797
0000d0 74 d8 07 3c 92 a5 13 3c 55 96 e5 3b 9a 33 5c 3c
       0.008291353 0.009011643 0.0070064464 0.013440037
0000e0 ee 27 1a 3b be f1 48 bc 09 5d a3 3b ba 69 3f 3c
       0.0023522335 -0.012264667 0.004985456 0.011682922
0000f0 5a 9a 4a bc 72 64 25 3c 94 53 34 3c ca 9e f3 bb
       -0.012365902 0.010094749 0.011006255 -0.0074347006

bn.running_mean f4 [64]
000000 00 00 00 00 00 00 00 00 00 00 00 00 6e 7c d8 3d
       0.0 0.0 0.0 0.10570608
000010 da d2 8d 3c 8c 4b 4b 3d 19 a5 9f 3d 95 5a 97 3d
       0.017312456 0.049632594 0.07795162 0.07390324
000020 b8 5c ac 3d 78 fc 2f 3e 20 ac 2d 3e 4f 10 03 3d
       0.08416122 0.17186153 0.16960192 0.031997975
000030 d2 a7 8b 3c 00 00 00 00 00 00 00 00 15 d3 91 3c
       0.017047796 0.0 0.0 0.017800847
000040 88 1e 72 3e 7c ea ba 3d 00 00 00 00 b0 9b b0 3c
       0.23644459 0.091267556 0.0 0.021558613
000050 e8 4b de 3d c6 85 84 3c a0 10 a0 3d 66 fc 6b 3d
       0.10854322 0.01617707 0.07815671 0.057613753
000060 ee f2 57 3d 72 f4 fc 3c 2e eb ab 3d 21 49 a4 3d
       0.05272191 0.03087828 0.08394466 0.08021761
000070 1b 2e 70 2a 00 00 00 00 76 c8 51 3c d9 94 6c 3d
       2.1332278e-13 0.0 0.012804141 0.05775914
000080 41 90 09 3d d3 30 85 3d 81 ce 18 3e b3 0e c9 3c
       0.033584837 0.06503453 0.14922525 0.024543142
000090 0d 93 0b 3d c9 97 5f 3d 00 00 00 00 31 21 c4 3d
       0.034075785 0.054588113 0.0 0.09576643
0000a0 61 2e d2 36 7e a4 a5 3d 85 63 cf 3c 00 00 00 00
       6.263887e-06 0.08088015 0.02531601 0.0
0000b0 00 00 00 00 39 37 fe 28 00 00 00 00 fe d0 35 3b
       0.0 2.8223614e-14 0.0 0.0027742977
0000c0 f0 85 81 2c 00 00 00 00 e0 d1 43 29 00 00 00 00
       3.6812706e-12 0.0 4.3480736e-14 0.0
0000d0 d5 7d 15 3d fb 6e 38 3d 1e 52 00 3e 00 00 00 00
       0.036496956 0.045027714 0.12531325 0.0
0000e0 5c e6 83 3e 00 00 00 00 20 84 95 3d 76 40 6a 3d
       0.25761688 0.0 0.073005915 0.05719038
0000f0 db 4e 3a 2b ad cf ad 3d 1b 74 e6 3d f2 ba 5c 3e
       6.618991e-13 0.08486877 0.11252614 0.21555689

bn.running_var f4 [64]
000000 5d 63 c7 31 5d 63 c7 31 5d 63 c7 31 c5 4f 68 3b
       5.8029586e-09 5.8029586e-09 5.8029586e-09 0.0035447937
000010 84 2d d4 39 f5 77 8f 3b 77 aa 02 3c de 43 eb 3b
       0.00040469703 0.0043783137 0.007975212 0.0071797213
000020 66 51 70 3b 9a 42 fc 3a 4c 61 84 3c be a0 46 3a
       0.003666961 0.0019245923 0.016159676 0.0007577053
000030 67 22 1f 3a 5d 63 c7 31 5d 63 c7 31 e2 9f 77 3a
       0.0006070495 5.8029586e-09 5.8029586e-09 0.00094461266
000040 e5 f8 de 3a eb d2 2d 3c 5d 63 c7 31 91 3e 70 3a
       0.0017011432 0.010609369 5.8029586e-09 0.00091645966
000050 3b 3f 82 3c 92 9c 5e 3a b3 6e f1 3b 96 d6 40 3a
       0.015899291 0.0008491959 0.0073679327 0.00073561945
000060 8e bc 60 3b 33 ab c1 3a 91 c0 cd 3b 90 16 67 3b
       0.0034292075 0.0014775753 0.006279059 0.003526125
000070 5d 63 c7 31 5d 63 c7 31 bb 98 1e 3a 68 82 30 3b
       5.8029586e-09 5.8029586e-09 0.00060499803 0.0026933197
000080 68 ab ad 3a e4 68 ab 3b 65 8b fe 3b ff 50 83 3a
       0.0013249936 0.00523101 0.007768082 0.0010018646
000090 3a a9 de 3a 39 f2 f9 3a 5d 63 c7 31 69 25 03 3b
       0.0016987689 0.001906938 5.8029586e-09 0.0020011312
0000a0 40 0a 3b 33 24 92 b1 3b 92 49 92 3a 5d 63 c7 31
       4.3548653e-08 0.0054190326 0.0011160842 5.8029586e-09
0000b0 5d 63 c7 31 5d 63 c7 31 5d 63 c7 31 dd 6f d7 38
       5.8029586e-09 5.8029586e-09 5.8029586e-09 0.00010272835
0000c0 c1 63 c7 31 5d 63 c7 31 5d 63 c7 31 5d 63 c7 31
       5.803003e-09 5.8029586e-09 5.8029586e-09 5.8029586e-09
0000d0 20 3c 95 3a 04 8d 55 3b 76 7c ed 3a 5d 63 c7 31
       0.0011385716 0.0032585273 0.0018118757 5.8029586e-09
0000e0 27 21 45 3c 5d 63 c7 31 bd 49 b7 3b e8 51 55 3b
       0.01203183 5.8029586e-09 0.005593507 0.003255004
0000f0 78 63 c7 31 d6 84 04 3c 74 12 d1 3b 1d 66 7a 3a
       5.8029705e-09 0.008088311 0.0063803736 0.0009551959

fc3.weight f4 [128, 64]
000000 c3 13 29 bd 21 99 12 3d 3e 1c 32 3d e8 5a cd bd
       -0.041278612 0.035790566 0.043483965 -0.100271046
000010 89 20 87 bd ea b1 d9 3c 87 68 9a bc bc 8f ab 3c
       -0.065980025 0.026574094 -0.01884867 0.020942561
000020 67 3a f6 bc 9e 84 81 bc dd bd 61 bd 04 4d 3a bc
       -0.030057145 -0.015810307 -0.05511271 -0.011370901
000030 c1 07 91 3d 2f 0e ab 3d 4f 7b 5a bd 91 c7 97 bd
       0.07081557 0.08352315 -0.053340252 -0.07411111
000040 43 9b bd bd 1b a6 a8 3d c5 3e aa ba 1a 3e 2e 3d
       -0.092581294 0.08234807 -0.0012988677 0.042539693
000050 49 37 06 3d 3d 81 96 bd f9 16 e7 bc 5c 64 ee 3d
       0.032767568 -0.07348869 -0.028209196 0.11640236
000060 e8 0b cf bd 8e 26 c1 bd 13 91 83 3c 0f e3 e9 bd
       -0.10109693 -0.09431182 0.016060388 -0.11420261
000070 e6 07 dd bd 10 06 8d bd 97 72 02 3e 14 90 86 bc
       -0.10792522 -0.06885922 0.12739025 -0.016426124
000080 de 48 16 3d 67 59 5b 3c 87 ac 89 bc 07 6f 24 3d
       0.036690585 0.013388014 -0.0168059 0.040144946
000090 82 97 b0 3d a2 db 86 bd 42 45 ae 3d 57 44 b4 bd
       0.08622648 -0.065848604 0.08509304 -0.08802097
0000a0 46 3a d5 bc 5d 55 a6 3d bd 63 ce bc 68 b2 a7 3d
       -0.026028764 0.081217505 -0.025194043 0.08188325
0000b0 b2 5f 6b 3d 2e 03 5e 3d 5a 44 16 bc 84 32 2f bd
       0.05746431 0.05420225 -0.00917157 -0.042772785
0000c0 7a bd 4e bd 98 b3 86 bc b5 52 91 3c 6f 25 cd bc
       -0.050473668 -0.016443059 0.017739633 -0.025042264
0000d0 88 bd f8 bd 48 74 01 3e dd 8d 30 bd d4 88 a8 bd
       -0.12145525 0.12642014 -0.04310404 -0.08229223
0000e0 ec 10 74 bb ef 7b e2 bd f8 bf ae 3d ef 00 82 3c
       -0.0037241532 -0.11058795 0.08532709 0.015869586
0000f0 0a 8d e4 3d 11 66 00 bc eb d5 ba bd f2 5c 05 bc
       0.111597136 -0.0078368345 -0.09122833 -0.008139836
000100 1d c8 a8 bc a4 f5 96 3d 88 87 c9 3d 53 55 ac bd
       -0.020603234 0.07371071 0.09840304 -0.08414712
000110 54 36 0b bd 04 3a fe 3c db 76 4a bd 5c 4b e7 bc
       -0.03398736 0.031033523 -0.049429756 -0.028234176
000120 5e a4 78 3d 95 f0 1f 3c 10 3b d9 3c 2b d6 5b bd
       0.060703628 0.009761949 0.026517421 -0.053671043
000130 ad 0b c7 bd 2f 10 91 bd 71 bd 99 bd 15 a5 bb bc
       -0.09719024 -0.07083165 -0.07506836 -0.022905866
000140 19 4e 4a 3d 03 53 aa bd 51 66 af 3c e2 86 82 bc
       0.049390886 -0.083166145 0.021411093 -0.015933458
000150 4c 4a 13 bd c4 a3 06 bd b3 d0 b1 3d 4a 0a c9 3d
       -0.035959527 -0.032871023 0.08682384 0.098164156
000160 f8 24 d7 3c 4b 63 b4 3c e0 f0 6f bd ec b0 83 bd
       0.026262745 0.022020003 -0.058579326 -0.064302295
000170 9e 71 02 3e ac 86 26 bd cc fc fa bd fe 82 79 3d
       0.12738654 -0.040655777 -0.122552484 0.06091594
000180 70 62 f4 3d 45 72 cd bd c2 87 60 bd 90 4e ef 3d
       0.11932838 -0.10031561 -0.05481697 0.116849065
000190 64 12 91 3c 87 65 de bc ba 94 f7 3c f6 93 d6 3d
       0.017708965 -0.027148021 0.030222286 0.1047744
0001a0 89 06 d1 3d 5d 94 cb 3d 1e 6c ef 3d ac 34 ef bd
       0.102063246 0.099404074 0.116905436 -0.11679968
0001b0 c1 5d 31 3c aa 68 27 3c 70 92 38 bb b3 5c 73 3d
       0.010825575 0.010217825 -0.0028163455 0.059414577
0001c0 cc 12 ba 3d 41 74 d9 3c a2 38 d5 3d 36 7d 8c 3c
       0.090856165 0.026544692 0.104111925 0.017149549
0001d0 64 6e d4 bd ae 2c 06 bd d1 70 6c 3d b6 90 a4 3d
       -0.10372618 -0.032757454 0.057724778 0.08035414
0001e0 35 55 aa bd e1 5e a7 3d 0b 76 56 3d c5 60 db 3d
       -0.08317033 0.081723936 0.05235867 0.10711817
0001f0 d7 2e 60 bd 37 b0 8e bd bd 0e bb bd ed 5f a6 3d
       -0.05473217 -0.06967204 -0.091336705 0.08123765
000200 ac ca f3 3d ce 78 96 3d ea 4d 76 3d 41 49 15 3d
       0.11903891 0.073472604 0.0601329 0.036446813
000210 29 d3 8c 3d 0c af 5a bd ed c0 c5 3c 79 b7 74 3d
       0.06876213 -0.053389594 0.024139846 0.059745286
000220 f9 0d 4d 3c 68 c9 be bc 07 b9 98 bd 39 2f 49 3d
       0.012515538 -0.023289397 -0.07457166 0.0491173
000230 02 12 da 3d ab 49 3d 3c 2b 47 a2 bc 44 56 66 bd
       0.10647966 0.011553208 -0.019809326 -0.056234613
000240 62 de ca bd c3 5f 9c 3d 45 c7 bb 3d 43 57 e2 3c
       -0.099056974 0.076354526 0.09168867 0.0276295
000250 3e 3d 87 bd 6a aa fe bb 6a d7 bd 3c 20 f3 70 3d
       -0.06603478 -0.00777178 0.023174006 0.058825612
000260 1b 58 b3 bd 6e bf 19 bd 88 db f7 bd cf 74 1a bd
       -0.08757039 -0.037536077 -0.12102419 -0.037709054
000270 9c 26 af bd 5f 55 92 bc 74 4b bd bb 90 6e b7 3d
       -0.08552286 -0.017862974 -0.005776817 0.08956635
000280 da e9 a3 bd e3 1b f2 3c 64 c2 87 bd c6 ef 98 bd
       -0.08003588 0.029554313 -0.06628874 -0.07467608
000290 fb 61 d9 3d 4b bd f3 3c de 24 5e bc 70 d5 bc bd
       0.106143914 0.029753348 -0.0135585945 -0.092203975
0002a0 17 57 4f bd ec e8 93 3d 2e bf de bd 32 d0 5d 3d
       -0.050620165 0.07222161 -0.108763084 0.05415363
0002b0 f4 23 ba 3c b0 df ce bd b7 fb c7 3d c0 fc 2a bd
       0.022722222 -0.10101259 0.09764808 -0.041744947
0002c0 72 56 d0 bd c6 53 b2 bc 6e 22 83 3d a2 c3 79 3d
       -0.10172738 -0.021768462 0.06403051 0.060977586
0002d0 24 c5 a3 3d 18 2e ff 3d 3c a5 26 3a 71 41 2c 3d
       0.07996586 0.124599636 0.00063570193 0.042054597
0002e0 db e2 c0 bd c8 18 8a 3d ff 71 ac 3d 8f d7 69 3c
       -0.09418269 0.06743008 0.084201805 0.014272585
0002f0 ee a5 61 3c a0 9a a5 3c 87 84 dc bd 23 e2 25 bd
       0.013772471 0.020215333 -0.10767465 -0.040498864
000300 7f b9 c9 bd fb 51 1a 3d ba 80 8a bd 34 45 a3 3d
       -0.09849834 0.03767584 -0.06762834 0.07972184
000310 7a a4 2f bd f2 9e f0 bd 06 61 21 3d 46 ae 06 be
       -0.042881466 -0.117490664 0.03939917 -0.13152418
000320 e6 49 3c bc a2 95 f6 3c e6 1e b0 bd a1 69 c5 3d
       -0.011492228 0.030100647 -0.085996434 0.09639288
000330 af 8d af bd 93 d7 ae bc 2e 15 0c bd db af af 3c
       -0.08571946 -0.021343028 -0.034199886 0.02144616
000340 ff 32 19 3d 3e 1c de bd ba 6c 1b 3d cb 66 6a bc
       0.03740215 -0.108452305 0.037945487 -0.014306734
000350 ea fe f4 bd c3 36 c2 bd 0e 27 8c bd 99 f4 cb 3d
       -0.119626835 -0.09483101 -0.068433866 0.09958763
000360 cb 6d 4b bd cb 98 16 3d 84 dc 4f bc e9 2d d2 3d
       -0.049665254 0.03676681 -0.012686852 0.10262663
000370 cf 6f 87 3d e0 3d d7 bd d2 82 cb 3d df 05 d2 bd
       0.06613123 -0.105098486 0.09937061 -0.10255026
000380 29 b2 93 bb 5c 6a c9 bd 1f ed 4d 3d 21 eb 9b bb
       -0.0045073223 -0.098347396 0.050274964 -0.004758254
000390 4f fe c7 3d 52 15 01 bd 11 42 e1 3d da de 60 bd
       0.097653024 -0.031514473 0.10998929 -0.054900028
0003a0 d1 32 c3 bc 67 11 74 3d ad 91 bd bc 02 fc 2f 3d
       -0.023827942 0.05958691 -0.023140753 0.042964943
0003b0 b7 1f c9 bd 05 02 a8 bd 07 15 99 bd 88 6b a4 bd
       -0.09820502 -0.0820351 -0.07474714 -0.080283225
0003c0 be 78 02 bd 46 16 ba bd 36 ec ae 3b 66 6f 51 bd
       -0.03185343 -0.090862796 0.005338217 -0.05113163
0003d0 11 5f c1 3d d5 3f 33 bd 75 fd 90 bd 55 3c 38 3d
       0.094419606 -0.043762047 -0.07079593 0.044979412
0003e0 ac 62 6b 3d 00 be 9e bb 52 7a fa 3d 1b b9 58 bc
       0.057467148 -0.004844427 0.12230362 -0.013227726
0003f0 ec 62 9c 3b cd b6 cb 3d e9 82 6e 3d 17 e0 b1 bc
       0.0047725346 0.09946976 0.058230314 -0.0217133

fc3.bias f4 [128]
000000 5a f9 9b bd 8d bd e1 bd de 7e ba 3d e8 1f 89 bd
       -0.076159194 -0.11022482 0.09106229 -0.06695539
000010 68 cd a1 bd 38 db 08 3c c3 9f b6 3d 47 cb 0c bc
       -0.07900506 0.008353047 0.08917191 -0.008593387
000020 16 22 ca bd fc 2a b5 3d b6 fa 7c bd 03 e8 c1 bc
       -0.098697826 0.08846089 -0.061762534 -0.023670202
000030 c6 91 08 3c 39 73 8e bc 77 41 0c 3d 25 e1 dd bc
       0.008335536 -0.017388927 0.03424212 -0.027084896
000040 db 7c 54 bd 92 aa 46 3c 6a b1 c8 bd ce 4c c1 3c
       -0.051876884 0.012125628 -0.09799464 0.023596194
000050 9a 92 c6 3d ed d6 45 3b fd 48 76 bd b5 b7 0a 3d
       0.09695931 0.003018792 -0.0601282 0.033866603
000060 3c be aa 3d 3b 21 d9 bd 83 bc 9d bd 75 5b 87 bd
       0.083370656 -0.10602041 -0.077019714 -0.06609241
000070 5c 6a df bd d4 9c d1 bb b6 a1 b8 3d a5 a7 db 3d
       -0.10908958 -0.006396869 0.09015219 0.10725335
000080 fd 53 16 bd 3e b0 f8 3c aa e2 de 3d 25 5d 5b bd
       -0.03670119 0.030357476 0.108830765 -0.053555626
000090 d5 40 1f 3d 78 2c 18 bd e8 19 e7 bd 16 21 66 3d
       0.038880188 -0.037151784 -0.11284238 0.056183897
0000a0 ef 91 d2 3d 8b b3 a4 3c 92 d6 69 3d 75 0c d4 3d
       0.10281741 0.020105144 0.057089396 0.103539385
0000b0 3f 34 ff 3d e2 cb 8e 3d e6 39 30 bc 58 f1 a7 bd
       0.12461137 0.06972481 -0.010755992 -0.082003295
0000c0 98 13 72 3d cb 49 1b 3d 57 50 05 bd 54 ab c1 bd
       0.059100717 0.03791217 -0.03254732 -0.09456506
0000d0 b2 aa 59 3d f8 cf af bd b9 78 bd 3d 0d f3 83 bd
       0.053141303 -0.08584589 0.09251542 -0.06442843
0000e0 3d 51 0d bd e3 ed 9f 3d 30 5e 31 bd de b2 b8 3c
       -0.034501303 0.07809045 -0.043302715 0.022546228
0000f0 1f 14 b8 bd be 32 74 3d 33 5a 0a 3e d5 ca d7 bd
       -0.08988213 0.059618704 0.13510971 -0.10536734
000100 00 20 63 bd 8d 0b 52 3d 93 db 3a 3d 61 3f d3 3c
       -0.05545044 0.051280547 0.04561956 0.025787057
000110 8e dd d8 bc 32 64 f1 bc a8 8c db 3d ae b6 67 3d
       -0.026472833 -0.029466722 0.107201874 0.0565707
000120 e9 ea bb 3d 15 a4 aa bd c3 9f a9 bc 06 f8 df 3d
       0.09175665 -0.083320774 -0.020706063 0.109359786
000130 f8 2a ee 3d 3d d8 9b 3b d0 b6 e3 bd 34 1e 24 bd
       0.116292894 0.004756002 -0.11118853 -0.040067866
000140 e9 dd dd 3a d7 99 82 bc 04 03 a7 bd 35 7d 05 3e
       0.0016927096 -0.015942497 -0.08154872 0.13036044
000150 ae c7 22 bd 24 52 99 3d 51 36 67 3d 8c 03 0a 3c
       -0.03974121 0.0748637 0.056448285 0.008423697
000160 92 39 af 3d ee 79 10 ba 5c 46 2c 3c 16 f2 a9 bd
       0.085559025 -0.0005511333 0.010514822 -0.08298127
000170 43 11 84 bd a4 e0 bf bd 22 a8 49 3d d3 2a 8b 3d
       -0.06448605 -0.09369019 0.04923261 0.067952774
000180 7c 2f ab bd 61 db df 3b 2f 30 79 bc c5 6a 9c bd
       -0.08358666 0.006831572 -0.015209242 -0.07637552
000190 0c 72 08 bd a0 e8 53 bd 87 3c ce 3d 44 d0 5a bd
       -0.03331189 -0.05173552 0.100701384 -0.053421274
0001a0 02 2a 9f bc fe f0 b8 3d 68 be f2 bc 7a e9 be bd
       -0.01942921 0.090303406 -0.029631808 -0.09321876
0001b0 97 be c0 bd 3c 10 e9 3d b9 4b e9 b9 26 c9 b7 3d
       -0.09411352 0.113800496 -0.0004449764 0.08973913
0001c0 ea 45 79 3c 6d 2b 09 3e 16 c0 d9 3d 16 4a 89 bc
       0.015214423 0.13395472 0.106323406 -0.01675896
0001d0 5b 7b bc bd fb a8 5e 3d fb 4d 60 bd 26 d6 ec 3d
       -0.09203216 0.05436037 -0.054761868 0.11564283
0001e0 fe 5e b9 3c 3f 13 35 bd 09 55 c9 3d 02 73 ab bd
       0.022628304 -0.044207808 0.09830672 -0.083715454
0001f0 c5 6a 00 3e 4d 90 44 3d 65 60 93 bd 01 41 df 3d
       0.1254073 0.04798918 -0.0719612 0.109010704

fc4.weight f4 [196, 128]
000000 be 0f 82 3d ea b9 18 3d 2a 9d 9b bd 63 ed 4d 3d
       0.06350659 0.037286676 -0.07598336 0.050275218
000010 03 d3 bf 3c ab 94 02 3d 95 92 38 3d be df 42 bb
       0.023416048 0.031880062 0.045061667 -0.0029735412
000020 37 86 aa 3d 7e 9a 0d bd ec 36 95 3d f8 39 5f 3d
       0.08326381 -0.034571163 0.07285866 0.054498643
000030 3f 3a e4 bc 85 6a 26 3b 42 cc 85 3d 39 e8 8d bc
       -0.027859805 0.002539308 0.065331 -0.017322646
000040 20 e3 0c 3d e5 d4 46 bd e5 ac 88 3d 82 2c 83 bd
       0.03439629 -0.048542876 0.06673602 -0.064049736
000050 d6 32 04 bd b7 a9 f4 3c 09 68 ae 3d ed 59 09 3c
       -0.032275043 0.029866083 0.08515937 0.008383256
000060 5c 4f c0 3c fb b9 96 bd 34 09 4d bd ef 82 8f 3c
       0.023475341 -0.07359692 -0.050057605 0.017518489
000070 eb bf cc bc 32 15 99 3d 9e 0d 87 3d 54 06 91 bc
       -0.024993857 0.07474746 0.06594394 -0.017703213
000080 c7 a6 31 bd 0b 20 a3 bc f2 8d 1f 3d 40 50 52 3d
       -0.043371942 -0.01991274 0.03895373 0.051346064
000090 29 96 9e 3c f6 0f 8c bd 3d 98 a9 bc 39 cb 9a bc
       0.019358711 -0.06838982 -0.020702476 -0.018895732
0000a0 a7 dc 09 3c b7 43 85 bd 17 7c a6 3c d3 77 80 3d
       0.008414424 -0.06507056 0.020322843 0.06272855
0000b0 8c 43 ae 3c 6b 88 50 bd 2d 91 1a 3b de 1e 40 3c
       0.021272443 -0.05091135 0.0023585067 0.011726109
0000c0 e0 b5 b9 3c c2 62 ff 3c 65 af 37 bd da af 67 3d
       0.022669733 0.031175021 -0.044845004 0.05656419
0000d0 26 9a 72 bd e6 ce d6 ba b6 0b df 3b 85 58 a3 3d
       -0.05922904 -0.0016388565 0.006806816 0.07975868
0000e0 8b a0 96 bd 3e af 8b bc 19 92 66 bc 43 b5 55 3d
       -0.0735484 -0.017051335 -0.014072918 0.052174818
0000f0 f7 dd 89 3d d3 1d 78 3d 33 0a 14 bd c8 30 5e 3a
       0.067317896 0.060575318 -0.03614254 0.0008475897
000100 ea 97 8b 3c fe 0e 2e 3d 4e a1 08 bd b4 7f 28 3d
       0.017040212 0.042494766 -0.033356957 0.041137412
000110 8f f4 ff bc 80 e0 55 3c 09 ee 21 ba bf 97 be 3d
       -0.031244544 0.013054013 -0.00061771326 0.09306287
000120 65 eb 8d 3c ee f7 46 bd ef da be 3d b1 38 91 3c
       0.017324159 -0.048576288 0.09319102 0.017727228
000130 80 7d ba 3c da 67 3a bd 90 40 09 3d 18 28 e8 bb
       0.022764921 -0.045509197 0.033508837 -0.0070848577
000140 91 fa a3 bd 17 65 99 3d b1 84 c7 3d d7 47 49 3b
       -0.08006776 0.074899845 0.09742106 0.0030712986
000150 6b ba 10 bd 3c 54 f8 3c a0 79 6f bd 37 45 c3 3d
       -0.035334032 0.030313604 -0.0584656 0.09534686
000160 aa 3e 8d bd 91 76 c9 bc 77 81 4f 3d 8b 34 5d 3d
       -0.06896718 -0.02459267 0.050660577 0.054005187
000170 9e 7d ea bc a3 4a 9b 3d 1e 65 52 bd cf c3 e0 bc
       -0.028624352 0.07582595 -0.051365964 -0.027437119
000180 6c ec a2 38 9a 7d 63 38 ad 11 5d bc 54 d7 3d 3d
       7.768799e-05 5.4237993e-05 -0.013492984 0.04634793
000190 cb 68 c8 3c 64 34 c9 3d 89 6d 42 bb 14 5a 96 3d
       0.024464032 0.09824446 -0.0029667339 0.073414
0001a0 18 f8 0d bd ba 7b 75 3d 83 37 6e bd b0 dd 8c 3d
       -0.03466043 0.059932448 -0.05815841 0.06878221
0001b0 e7 10 0d bd dd 14 5d 3d 59 b8 66 bd 06 25 80 3d
       -0.034439947 0.053974975 -0.05632815 0.06257062
0001c0 23 1a 4b bd 78 bc 9b 3c 94 e5 cc bc 0e af ad bc
       -0.049585473 0.019010767 -0.025011815 -0.021201637
0001d0 36 a6 b8 3d 77 32 05 3d e2 10 5e 3c 77 1a a8 3d
       0.09016077 0.03251883 0.01355383 0.08208173
0001e0 3e 02 2a bc c2 d2 70 bd 55 59 47 3b 2f e8 ac bc
       -0.010376511 -0.058794744 0.0030418236 -0.021106808
0001f0 b1 2c 18 3d de b2 fd bc 8c 21 05 bd 9d 53 0c 3d
       0.037151996 -0.03096908 -0.032502696 0.034259427
000200 83 b8 57 bd 85 67 8c 3d 52 f2 66 3d 7a 3a 5f bd
       -0.0526662 0.06855682 0.05638344 -0.054499127
000210 5d 25 a5 bd e4 79 9a 3d cc 6f 3c bd e0 23 29 bd
       -0.08063767 0.0754278 -0.046005055 -0.04129398
000220 a5 5d af bc d2 1e 68 bd 24 aa 51 bd 02 89 b6 3d
       -0.021406958 -0.056670018 -0.05118765 0.08912851
000230 e4 c8 0f bd cb c6 83 bd ca 29 9e bb c7 48 95 3c
       -0.035103694 -0.06434401 -0.004826759 0.01822318
000240 95 12 5b bd d6 8d c0 bc a5 70 b9 3d 1d 24 09 3d
       -0.053484518 -0.023505133 0.09054688 0.033481706
000250 e3 99 e1 3c a4 db 66 3d cc 9e 82 bd 22 cc 82 3c
       0.0275392 0.05636181 -0.06377944 0.015966479
000260 16 39 87 bd f1 e0 f4 3c d0 13 a5 3d 8c dc ff bc
       -0.06602685 0.029892417 0.080604196 -0.031233095
000270 4b 46 59 3d a0 bf e8 36 34 03 fa 3c b8 47 25 3d
       0.053045552 6.936447e-06 0.030519105 0.0403516
000280 08 42 e8 bc fe 9f 7c bb b4 58 19 3c 9c f3 2d 3d
       -0.028351799 -0.0038547511 0.009359527 0.042468652
000290 62 34 14 3d 3b 52 2e 3d 98 0c 97 bd 2f 78 0e 3d
       0.03618277 0.04255889 -0.07375449 0.034782585
0002a0 d5 c9 94 bd c0 8a 90 bd 60 18 63 3d 97 79 37 3d
       -0.07265059 -0.070577145 0.055443168 0.04479369
0002b0 2d 34 47 bd c2 5c 29 3d 1b b0 9e 3d 63 44 d7 bc
       -0.048633743 0.041348226 0.07748433 -0.026277727
0002c0 54 7e d9 3c 8e 3f 52 3c 35 08 89 bd 9c a5 88 3d
       0.026549496 0.012832535 -0.066910185 0.066722125
0002d0 10 df 3c bd f6 0c 83 3d 4e 47 8a 3d 38 ea 08 3d
       -0.046111166 0.063989565 0.067518815 0.033426493
0002e0 84 38 1d 3d 3c bc 03 bc aa 0e 81 3d d5 53 af bc
       0.038383976 -0.008040484 0.06301625 -0.021402279
0002f0 ef ca 12 bc d2 85 34 3d d9 5c dd bb ac b3 8f 3d
       -0.008959516 0.044072933 -0.006755453 0.070166916
000300 07 34 ae 3d 43 48 82 3d d2 57 63 3d c2 a1 8f 3c
       0.08506017 0.06361439 0.055503674 0.017533187
000310 ae 19 71 bd dd eb 14 3d f9 6e fd bc b6 85 89 3d
       -0.05886238 0.03635775 -0.030936705 0.067149565
000320 d7 ee 21 bd 38 7a 9d bd b4 03 1e 3d d5 6d 7a 3d
       -0.039534416 -0.07689327 0.03857775 0.0611399
000330 b0 ce 16 3d 7c 4e 2f bd c2 dd fb 3c af 88 10 bb
       0.036818206 -0.042799458 0.03074539 -0.0022054126
000340 a5 f9 a5 3d 1d 18 05 bd a8 04 14 bc f4 dd e0 bc
       0.081042565 -0.0324937 -0.009034313 -0.027449585
000350 93 4b 25 3d d0 a0 c8 3c bf 42 ab 3d 9a e9 6a 3d
       0.040355276 0.024490744 0.0836234 0.057351686
000360 01 2e 6f 3c e9 b9 b2 bc 7a 9f 57 bd 8d 65 ad 3d
       0.0145983705 -0.021817164 -0.052642323 0.08466635
000370 7f 53 15 bd 35 27 11 bd 2f a2 aa 3d f9 41 b1 3c
       -0.03645658 -0.03543778 0.08331715 0.021637904
000380 6b 4c 7b bd 09 7d 78 3c 0f d3 51 3d 79 74 a4 3d
       -0.061352175 0.015166529 0.05122667 0.08030028
000390 46 da c3 3d f2 93 cb 3d 84 45 9d bc 3e a4 b7 bc
       0.09563117 0.09940328 -0.019198187 -0.022417184
0003a0 f2 7d 50 bc 77 83 64 3c c3 d3 48 bd 57 35 9f 3d
       -0.01272534 0.013947359 -0.049030077 0.07773846
0003b0 f1 58 35 bc 1f a3 fa 3c 5f ea d9 3c 05 8f 4f 3c
       -0.011068569 0.03059536 0.026601015 0.012668376
0003c0 d4 e3 4f bd b9 eb 80 bd f7 43 80 bc e1 c3 71 bc
       -0.050754383 -0.062949605 -0.015657408 -0.014756174
0003d0 55 ce a1 bd 2a aa b3 bd 2e a2 8b bd c6 3c 94 3d
       -0.07900683 -0.087726906 -0.06818043 0.07238154
0003e0 1d 90 81 bd c3 eb 61 bd 46 9c 94 3c 4a d6 cd bc
       -0.063263156 -0.05515648 0.018140923 -0.025126595
0003f0 62 32 2f bd ed 35 8c 3d eb 4d 83 bd 6c f0 de 3c
       -0.04277266 0.06846223 -0.06411346 0.027214251

fc4.bias f4 [196]
000000 0e d0 5a bd 1e 7b 47 bc 65 b8 25 3c 26 7a b2 ba
       -0.053421073 -0.0121753495 0.010114764 -0.0013616725
000010 9b ea 09 3d 52 df 3f 3c 8d 94 9c bd 65 23 53 3d
       0.033671003 0.011710959 -0.07645521 0.051547427
000020 ce ac 5d bc f0 7d c3 3d d2 b4 02 3c 81 06 8d bd
       -0.013529969 0.09545505 0.007977681 -0.06886006
000030 be 3c b5 3d ed 07 ad 3d f1 4f 9f 3d 66 bc ec bb
       0.08849476 0.08448777 0.077789195 -0.0072246073
000040 a3 aa 7c bd 11 ea 0c bc 94 fb 93 3d 0d db 3b 3d
       -0.06168617 -0.008600728 0.07225719 0.0458632
000050 5c b8 8f 3c fb cf ef 3c d5 96 1e bb 66 df 6d bc
       0.017543964 0.029273978 -0.002419879 -0.014518594
000060 2f 74 a7 3d 73 27 12 3d 67 9f 60 3d 4c 56 85 3d
       0.08176457 0.035682153 0.054839518 0.065106004
000070 4d 4a 0f bc 32 f7 13 bd de d3 ab bd fa e3 82 3d
       -0.008745742 -0.036124416 -0.0839002 0.06391139
000080 9b 0f 8f bd 14 2f 9d 3d d8 5a 8c bd cd da 8e 3d
       -0.069853984 0.07674995 -0.068532646 0.06975327
000090 f0 fa 05 bd 1e 8b 3a 3d a2 b9 9f bc 87 3a 7a bd
       -0.032710016 0.04554283 -0.019497696 -0.061090972
0000a0 69 c8 44 3c 06 42 36 3d f7 a5 9d bd b5 45 78 3c
       0.012010672 0.04449656 -0.07697671 0.015153338
0000b0 9a 42 0e ba ae 65 b5 bc 80 67 ab 3d 9b 31 73 3d
       -0.00054267945 -0.022143211 0.083693504 0.05937348
0000c0 92 54 54 bb 6e 6b 88 3d 81 f5 85 3d 03 42 b2 3d
       -0.003239904 0.066611156 0.06540967 0.08703997
0000d0 98 4c 94 3d b4 af af bd 4a f7 b4 3d e8 72 77 3d
       0.072411716 -0.085784346 0.08836229 0.060412318
0000e0 2a c6 65 3d 40 45 d1 bc b6 68 78 bd dd ea 99 bd
       0.056097187 -0.025545716 -0.060646735 -0.075155
0000f0 ec 3b b7 3c 34 ba fc bc 26 1b 83 bd bb b7 fb ba
       0.02236744 -0.030850507 -0.064016625 -0.0019204536
000100 5f 4e 2c bd 56 28 9e 3d b3 f1 33 3d a5 2f 94 3b
       -0.042066928 0.07722537 0.043931674 0.0045222812
000110 fa fb 05 bd f8 9c dc bc a9 3b 81 3d 2b 8a d5 bb
       -0.032711007 -0.026930317 0.063102074 -0.006516715
000120 14 47 6a bc 91 f4 aa 39 20 52 70 3c df 6e 7a 3a
       -0.014299173 0.00032607143 0.014668018 0.0009553264
000130 6b b8 63 bd 98 35 43 3d 61 cc 37 3d a0 c1 97 bd
       -0.055595797 0.047658533 0.044872645 -0.07409978
000140 e8 f8 82 bd e9 fe c3 3d 47 76 13 bd 7e fc fd 3c
       -0.06395131 0.09570105 -0.03600147 0.031004187
000150 69 6d 8d 3b 98 ab 1f 3d 9d 23 dd bc 0d 04 b0 bc
       0.004316021 0.038982004 -0.02699452 -0.021486307
000160 2d 71 b4 3d bc 4e 9f bd 22 b1 53 3d f1 b6 cd 3c
       0.08810649 -0.07778689 0.0516826 0.025111647
000170 98 11 7e bd 7e 0a bf bc 8d 8a a7 bc 11 d8 92 bd
       -0.062028497 -0.023320433 -0.020451808 -0.07170118
000180 1b e8 70 bd a8 f0 e5 b7 6e d8 8a bd 7a f0 7e 3d
       -0.058815103 -2.7410992e-05 -0.06779562 0.062241055
000190 39 69 31 3d 83 54 c9 3d bf f4 4a bd 6f a4 80 bd
       0.04331324 0.098305725 -0.049549814 -0.06281363
0001a0 9b 1e a3 3d a6 18 35 3d 1c 53 ea 3a 6e 13 77 3d
       0.07964822 0.04421296 0.0017877552 0.060321264
0001b0 e3 4d 74 bd 8c 5f 73 3d bf 4d 08 3d 5a 29 8b bc
       -0.05964459 0.059417292 0.03327727 -0.016987491
0001c0 65 93 7a 3d 63 0c c8 3c f7 4c 93 3d 9e f2 0c 3c
       0.061175723 0.024419969 0.07192414 0.008602766
0001d0 cc 15 5f bd 6d a6 17 3c 8e 48 43 3d 58 62 7e 3d
       -0.054464146 0.009255988 0.047676615 0.062105507
0001e0 42 9c 08 3d eb b0 e6 bc 0b f8 81 bc f2 2e d0 bc
       0.033352144 -0.028160533 -0.015865346 -0.02541301
0001f0 e0 c8 62 3d 90 63 43 bd 5c c1 4d 3b 11 01 98 3c
       0.05536735 -0.047702372 0.0031395769 0.018555196
000200 aa d4 9a 39 68 83 6d bd f6 a3 80 3d 39 28 97 bd
       0.00029531616 -0.057986647 0.06281273 -0.07380719
000210 0c d5 91 bd 35 ad bd 3c 5a c8 a7 3d 1b 4d 8e 3d
       -0.071207136 0.02315388 0.08192511 0.069483005
000220 9e 52 79 3d c7 9e a1 3d dd 55 38 bd fa 60 9d bd
       0.060869806 0.078916125 -0.04500376 -0.076845124
000230 36 20 2e bd 39 ee c9 3c 6c ae bb 3c c0 23 ba 3c
       -0.042511187 0.024649726 0.02291032 0.022722125
000240 a8 70 24 3d e8 d6 44 bd f2 57 1e 3c 72 b8 b6 3d
       0.0401465 -0.048056513 0.0096645225 0.08921899
000250 a0 44 fe 3c 99 65 54 bc d7 9c 1a bd 73 fc c9 3d
       0.031038582 -0.012963676 -0.03774723 0.09862604
000260 f5 a4 52 bd 9c b2 19 3d 70 aa 1d ba a8 fc 97 3d
       -0.051426847 0.03752385 -0.0006014472 0.07421237
000270 81 02 5e 3c b5 04 36 3c bb e4 35 bd 61 b3 3f bd
       0.013550402 0.011109521 -0.044407587 -0.04680193
000280 0d 89 b8 bd de 12 15 bd d1 1a 4a bd 4f b1 a1 3c
       -0.09010515 -0.036394946 -0.04934198 0.019737868
000290 5b 98 a2 bd cf 94 06 3d 3a 79 aa 3d ac c7 ac 3d
       -0.07939216 0.03285676 0.083239034 0.08436522
0002a0 31 f5 f9 3b 6e bc 6a bd ab 13 94 bd b2 a2 93 bd
       0.007628106 -0.057308607 -0.07230314 -0.07208766
0002b0 7c 98 42 bd a1 a7 72 3d d7 41 79 3d 6d 8a 99 bd
       -0.0475087 0.059241895 0.060853805 -0.07497106
0002c0 3e 0e 93 3d ac 21 7f bc 5a 2b 81 bd f1 74 73 3d
       0.07180451 -0.015571993 -0.06307097 0.059437696
0002d0 25 84 20 3d e5 50 bf 3b a2 c4 2b 3d 1a 0b a2 3d
       0.039188523 0.005838501 0.04193557 0.07912274
0002e0 1c 3c b1 bd 26 c3 a3 bd 80 b0 56 bd b6 4f e6 3b
       -0.08654043 -0.07996206 -0.052414417 0.0070285453
0002f0 5b 52 d2 bb ed 76 f2 3c 90 90 06 3d 8a 6c 69 3c
       -0.006418509 0.029597724 0.03285271 0.014247069
000300 c5 1d 83 bd b2 63 44 bd 76 d4 76 3d 6e 20 91 bd
       -0.064021625 -0.04794664 0.060261212 -0.070862636
