mlops-23-autumn/best_model.pt (torch, 327778 bytes, 16 tensors)

fc1.weight f4 [64, 562]
000000 2a cc 1b 3d 7f 29 9a bb 95 96 1a bd 14 6f de 3b
       0.038036503 -0.0047046538 -0.037741262 0.006788144
000010 09 35 c2 bc 15 59 83 3c 57 02 f3 bc a1 f2 22 3d
       -0.02370693 0.016033689 -0.029664202 0.03978217
000020 f6 a1 72 3c 0d 27 b8 3c 29 79 5e bb a0 81 94 bc
       0.014809122 0.022479558 -0.0033946729 -0.018128216
000030 8c ab 20 bd 22 e1 a1 ba bd a8 fc bc f9 fe 78 bc
       -0.0392261 -0.001235042 -0.03084218 -0.015197509
000040 b7 5a 45 3b f4 ce c0 bc d0 50 cf 3c c2 73 91 3c
       0.0030113885 -0.023536183 0.02530709 0.017755393
000050 1c 4d a8 bc c9 61 0c bc 5d 7f 21 bd ba 66 84 bc
       -0.020544581 -0.008568236 -0.039428104 -0.016162265
000060 05 ab 0d 3d b1 cd 0c 3d 55 8d 40 3b a5 9b c2 bc
       0.034586925 0.03437585 0.0029381115 -0.023755858
000070 86 54 9d 3a 78 c8 f2 bc f4 c4 0c 3a 8d 09 13 bd
       0.0012003339 -0.029636607 0.00053699245 -0.03589778
000080 42 58 42 bc 37 fb 20 bd bf 00 00 bc 8c 25 b0 ba
       -0.011861863 -0.039302077 -0.007812678 -0.0013438924
000090 b6 6b 46 3c 7b c9 30 bc 1a a2 34 bc df 48 2e bd
       0.012110641 -0.010790224 -0.011024976 -0.042549964
0000a0 48 2c 27 bc e7 d5 64 3c 1b 80 c0 3c 8f c5 0a bd
       -0.010203429 0.013967014 0.023498585 -0.033879813
0000b0 84 e4 dc bc 5d c6 e5 bc 69 be f8 3c 45 b3 f7 3c
       -0.026964433 -0.028048689 0.030364232 0.03023685
0000c0 36 a8 02 3d 97 1f 77 3c 61 f6 6a 3c 31 31 bf 3c
       0.0318987 0.015083215 0.014340968 0.023338886
0000d0 4a 44 34 3c 8f 28 02 3d 76 f3 8c 3a 0a 10 11 3c
       0.0110026095 0.03177696 0.0010753709 0.008853922
0000e0 77 cd dc 3c d8 97 f3 3c 6c a7 96 bc f9 3c 93 3a
       0.026953442 0.02973549 -0.01839038 0.0011233381
0000f0 08 99 b0 bb 1d 0b 7d bc 7a c7 99 bc 01 33 8d bb
       -0.0053893365 -0.015444544 -0.018771876 -0.0043090587
000100 9f 49 1d bd 2b 23 d1 bb c1 03 b0 3c 71 a7 0a 3c
       -0.03840029 -0.006382366 0.021486165 0.008462773
000110 a7 6d 6a 3c 92 4a 89 bc e1 6b 1b bd a8 01 00 bd
       0.01430837 -0.01675919 -0.03794468 -0.03125158
000120 87 6e 0e bc 6d bf f0 3c 72 6e 09 bb 18 51 a7 bc
       -0.008693344 0.029388154 -0.0020970372 -0.02042441
000130 a5 63 bb bb e1 10 b4 3c 51 5f ba 3c 1e e7 8f 3b
       -0.0057186657 0.021980705 0.022750529 0.004391565
000140 dd db 21 3d f8 b6 45 bc f4 57 be bc 30 b6 d0 3c
       0.03951632 -0.012067549 -0.023235299 0.025477499
000150 f2 20 d6 3c 8a e9 07 3d ed b1 0f bd 43 5d 1c bc
       0.026138756 0.033181705 -0.035081793 -0.00954372
000160 e7 15 96 bc b0 e5 10 bd 0b aa 96 3b 20 11 d8 bb
       -0.01832099 -0.035375297 0.0045979074 -0.0065938383
000170 ea 28 ca bb fe f1 02 bd 12 6d 2e 3c 92 c9 b3 bc
       -0.006169428 -0.031969063 0.010646122 -0.021946702
000180 8d ca f0 3a db 44 b2 3c 0d ba f3 3b 9e a9 27 3d
       0.0018370912 0.021761348 0.0074379505 0.040933244
000190 ad e0 a4 3c 67 bb a6 bc c1 7b 2c bd 89 a0 8e bc
       0.020126665 -0.020353032 -0.04211021 -0.017410534
0001a0 07 05 21 bd 3f b6 55 bc e5 2d ba 3c f3 0a 6b 3c
       -0.039311435 -0.013043939 0.022726962 0.014345872
0001b0 b3 41 b3 bb 1f 02 19 3d 81 78 e0 bb 98 04 30 bd
       -0.0054704784 0.03735554 -0.0068503027 -0.04297313
0001c0 a5 90 16 3d 80 f8 b7 bb ac 42 06 3d 7f c1 d0 3c
       0.036759038 -0.0056143403 0.032778427 0.025482891
0001d0 d8 55 55 3c bc 24 98 3c d6 ea de bc 6b 37 05 3d
       0.013020955 0.018572204 -0.027211588 0.032523554
0001e0 1d 64 cb bc 75 c9 b9 bc 22 26 da bb 1c 2b d1 bc
       -0.024828011 -0.02267907 -0.006657378 -0.025533251
0001f0 57 fb 77 3c 20 2f 03 3d de ca 2d bd a5 65 e6 bc
       0.015135608 0.032027364 -0.042429797 -0.02812464
000200 33 a0 2b bd cb db a5 3c 04 27 ec 3c 5e eb 5d 3c
       -0.041900825 0.020246407 0.028827198 0.013544885
000210 47 0e 1d bd de 29 0c bd b2 4a 24 bd 13 90 c1 ba
       -0.038343694 -0.034219615 -0.040110298 -0.0014767669
000220 de 6a 2a 3d b7 fe 0d bc 9a 02 1a bd c2 7e c6 3b
       0.041605823 -0.008666686 -0.037600137 0.006057591
000230 a0 4d d1 3c a3 f2 89 3c 0a 18 82 bc b9 7b 11 bd
       0.02554971 0.016839331 -0.015880603 -0.03551838
000240 7f e9 86 3c 4c 86 95 3c fd 6a 2e bd 8f aa 0e bc
       0.016468761 0.018252514 -0.0425825 -0.0087076565
000250 ee 67 26 3d 79 ab 0a 3d 2e d9 a0 bb 6c f9 84 bc
       0.04062646 0.033854935 -0.0049087023 -0.016232215
000260 58 fd 00 bd ff 9a fe bc 7d 60 e1 3c 76 5a 09 bd
       -0.031491607 -0.031079767 0.02751183 -0.033533536
000270 4c 43 08 bd fb 29 de 3c f7 4a 7f bc 37 dd 9d bc
       -0.033267304 0.027119627 -0.015581838 -0.019270523
000280 38 73 1d 3d a7 f6 db bc 08 e2 e4 3c 4f 71 d4 bc
       0.03843996 -0.026851011 0.027939811 -0.025932936
000290 8c ae 08 3d a5 12 b1 3c 13 31 b7 bc 86 ac 02 bd
       0.033369586 0.021615336 -0.022362268 -0.031902812
0002a0 d7 e0 aa 3b 9a 59 1b bd 97 c9 07 3b 02 fa 9f 3c
       0.0052147913 -0.037927248 0.0020719522 0.019528393
0002b0 a8 b4 bb 3a b2 e1 f6 3c c9 ff 1c 3d a8 c5 bc 3c
       0.0014320808 0.030136917 0.038329873 0.023043469
0002c0 ee f6 f6 3c 3b a1 2c bd 32 31 17 3d b9 27 8a 3c
       0.030147042 -0.04214595 0.03691215 0.016864644
0002d0 9d ff 1c 3d 5f e6 67 ba ae 5a 24 3d a7 e4 db bc
       0.03832971 -0.00088462787 0.04012554 -0.026842428
0002e0 47 21 bb bc 58 5b c4 bb e8 89 0c b7 a0 7a ed bb
       -0.022843016 -0.0059923343 -8.376759e-06 -0.007247284
0002f0 6e 2d f3 bb a1 e8 fd bc df 2f 13 bd 8a 6c 37 3c
       -0.007421187 -0.030994715 -0.035934325 0.011195311
000300 50 e1 e5 3b 80 84 4a 3c 27 d9 0c bd 7a d3 e6 bc
       0.0070153847 0.012360692 -0.03438678 -0.028177012
000310 06 86 f4 3a 2a 80 0f 3c 08 05 a3 bc fc c4 07 3d
       0.0018655665 0.008758584 -0.01989986 0.033146843
000320 66 17 a8 3b a3 ad f8 bc c7 a5 33 bc d3 6a 38 3c
       0.0051297424 -0.030356234 -0.010964817 0.011255938
000330 1d 23 71 3c 3c dd 12 ba df d3 f9 3c 39 dc 17 bd
       0.014717844 -0.00056024245 0.030496536 -0.037075255
000340 65 e5 8b bc 55 3f f3 bc b7 fe 62 3b 38 66 98 bc
       -0.017077157 -0.029693285 0.0034636685 -0.01860343
000350 88 a9 1c 3d 87 99 09 3c c1 36 64 bc bb b2 2d bd
       0.038247615 0.00839842 -0.01392907 -0.04240678
000360 95 c8 ad bc b4 ff 96 3c a3 df ba bc 40 cf 2b bd
       -0.021213809 0.018432476 -0.022811716 -0.041945696
000370 70 6a d4 3b 01 c4 36 3c 89 ca b9 bc aa 4e 5c bc
       0.006482415 0.011155129 -0.022679584 -0.013446489
000380 62 90 d6 bc 62 02 0d 3d d0 dd 28 bd 86 03 31 bd
       -0.026191894 0.0344261 -0.041227162 -0.04321625
000390 76 6c 17 bc 44 a1 1e 3d 70 4e 16 bd a4 fa f1 3c
       -0.009242168 0.038728014 -0.036695898 0.02953846
0003a0 a3 4b a8 bb 6f 29 18 3c eb 85 c5 3c 9c 62 17 bc
       -0.0051359697 0.009287222 0.024111709 -0.009239819
0003b0 d8 fe c1 3c e3 4c 05 bd da c2 48 ba 66 19 7a 3c
       0.02368109 -0.032544028 -0.00076584297 0.0152648445
0003c0 78 db d8 3c 81 ff 1e bd 40 40 ab 3c 2e 4c b6 bc
       0.026471838 -0.038817886 0.02090466 -0.022253122
0003d0 0b fb c2 3c f0 42 03 bd d8 a1 9d 3c ef de 31 3b
       0.023801347 -0.03204626 0.019242212 0.0027140935
0003e0 44 62 38 3b 99 9e 98 bb f7 e5 9b 3c e9 10 d4 bc
       0.0028134743 -0.004657578 0.019030554 -0.02588697
0003f0 51 d1 cc bc bb d5 0a 3d ff 0a a1 bb 33 36 8e bc
       -0.025002154 0.033895236 -0.004914641 -0.017359829

fc1.bias f4 [64]
000000 32 2d df bc 79 66 0b bd 2a 5c c5 3c b9 39 10 bc
       -0.02724323 -0.034033272 0.024091799 -0.008802825
000010 ce 16 cc 3b 11 2d 88 bc 61 c4 47 ba 2a 4f 36 3d
       0.0062283045 -0.016623052 -0.00076205103 0.04450909
000020 bb 81 21 3c 75 04 b7 3c 65 20 d2 3c 9a d0 14 bd
       0.00985759 0.022340992 0.025650213 -0.03633175
000030 a5 ed df 39 b3 0d d6 bc 63 1a 5e bc 2b 12 da bc
       0.00042710933 -0.02612958 -0.013556096 -0.026619991
000040 cb d5 24 3d 0a d0 f3 bb ad fb 89 bc ab b3 37 bb
       0.04024295 -0.0074405717 -0.016843641 -0.0028030674
000050 cc 71 0e bd 2c 0f 82 3c e8 e3 b4 3c e0 8d c7 bc
       -0.034776494 0.015876375 0.02208133 -0.024359643
000060 42 6f a2 bc ed b7 85 bc 6c b8 f1 3c 9c 6f e3 bb
       -0.019828442 -0.016323054 0.029506885 -0.006940795
000070 55 d6 b0 3c 11 ae 86 bc a9 0d 9d bc e0 bb a7 3c
       0.021586576 -0.016440423 -0.019171553 0.020475328
000080 1b 2b 6a bc 09 33 06 3d c5 96 98 3c eb db e8 3c
       -0.014292504 0.032763515 0.01862658 0.028425178
000090 a8 b5 a3 39 c0 7e a7 3c d1 5a 98 bc ea b0 71 bc
       0.00031225127 0.020446181 -0.018597992 -0.014751652
0000a0 8a a9 21 bd 70 fb 17 3d a4 55 eb bc 8d d8 6c 3c
       -0.039468326 0.037105024 -0.02872736 0.014455927
0000b0 70 7f 27 bd 1b 53 ca bb 4c d8 9b 3c 43 60 e5 3c
       -0.04089302 -0.0061744577 0.019024037 0.028000003
0000c0 99 49 76 bc 34 8f 7e 3c d5 d0 6a 3c 07 25 9d bc
       -0.0150321955 0.015537072 0.014332016 -0.019182695
0000d0 22 00 15 bd 3a a5 26 bd 84 5f bf bc 9e 9c d9 bb
       -0.03637708 -0.040684916 -0.023360975 -0.0066409847
0000e0 bf df ab bc 90 34 82 bc 12 a7 fe 3c bd 04 b0 3c
       -0.020980714 -0.015894204 0.031085525 0.021486634
0000f0 74 8f 83 bc 11 ad 6d 3c 81 a9 e4 bc 64 71 83 3c
       -0.016059615 0.014506594 -0.027912857 0.01604528

fc2.weight f4 [64, 64]
000000 5b f5 08 3c 5e 7c 30 bd 49 7e 1f 3d eb 71 2f bd
       0.008359279 -0.043087356 0.038938794 -0.04283325
000010 71 a9 8a bd 04 8c ae 3d b3 a1 30 bc 5a 6d 57 bd
       -0.067706 0.085227996 -0.01078074 -0.05259452
000020 d7 37 e7 bd 4a bd 85 3d aa 57 a9 3d e1 21 ca bd
       -0.112899475 0.06530245 0.08268674 -0.09869743
000030 ea 35 84 3c c3 1a 01 3e e1 6f 3b bc c4 87 7a 3d
       0.01613899 0.12607865 -0.011440248 0.061164632
000040 2d 0b 00 be ab b1 a0 bd 7e a8 31 bd 77 7c c0 bd
       -0.12504263 -0.078463875 -0.043373577 -0.0939874
000050 e3 6a d5 3d 0b e1 be 3d 32 d1 66 3d c1 58 03 be
       0.10420778 0.09320267 0.056351848 -0.12826826
000060 78 46 ac 3d 24 98 6d bd d7 4a 05 3a c8 c3 97 bd
       0.08411878 -0.05800642 0.00050846994 -0.07410389
000070 5a 83 de 3d cb 81 0a bc f8 a6 34 3d c6 bb 48 3d
       0.10864897 -0.008453797 0.044104546 0.0490072
000080 33 77 47 bb d1 47 a7 bd fc 60 95 bd 59 18 e1 3d
       -0.0030436039 -0.08167995 -0.07293889 0.10990972
000090 4d e1 57 bd 50 bc e7 bc d0 4b ad bd 9d e8 0b bc
       -0.052705098 -0.028288037 -0.08461726 -0.008539346
0000a0 15 20 07 be f0 28 20 bd 5d f1 d6 bd c5 24 f6 bd
       -0.13195832 -0.03910154 -0.10495255 -0.12018732
0000b0 ac 3f 65 3d a7 9c 04 be ca 3d eb 3b a8 9f be bd
       0.055968925 -0.12950383 0.0071789967 -0.09307796
0000c0 e9 96 4d bd aa a1 db 3d 02 5a 3e 3d 6c 53 22 bd
       -0.050192747 0.10724194 0.046472557 -0.03963034
0000d0 93 c2 d4 bd c5 34 17 3d 86 42 8d bd 55 4a b7 3d
       -0.103886746 0.03691556 -0.06897454 0.089497246
0000e0 ee 7a 59 bd f6 da 8a 3c 1b 2a 39 bd af e4 5f bd
       -0.05309575 0.016950112 -0.04520617 -0.05466145
0000f0 5f 94 7f 3d cc 20 54 bd 72 0a 70 3b 2d 38 87 bd
       0.062397357 -0.05178909 0.003662732 -0.066025116
000100 0b 97 9c 3d 16 12 f1 bd e7 3b e3 bc 8b 2f ec 3c
       0.07645997 -0.11771028 -0.027738525 0.028831264
000110 d9 e6 63 bc 10 f9 a9 3c de 8f e1 3c a6 1a 6a bd
       -0.013910019 0.020748645 0.027534422 -0.05715432
000120 d0 39 dd bd 04 28 5b bd e8 20 4f bd f5 f4 ef 3d
       -0.108020425 -0.05350496 -0.05056849 0.11716644
000130 24 fa 0f bd d9 7b c1 bd 74 ab 2c bd 79 31 86 3d
       -0.035150662 -0.0944745 -0.042155698 0.06552405
000140 00 01 e1 3c 69 10 9c 3c 13 c4 0c bd 33 3e ef 3d
       0.027466297 0.019050794 -0.03436668 0.116817854
000150 7e 72 bd bd 49 5b 99 3d db b7 8a bd ce 5d a0 bd
       -0.09250353 0.074881144 -0.06773349 -0.07830392
000160 c1 17 c2 3c 4e df 89 3d d4 1e 53 bc 7f 24 aa bd
       0.023692967 0.06732045 -0.012885768 -0.08307742
000170 f9 9b e6 3d 3a 15 bb 3d d8 cf 8c bd ba 6e 90 3d
       0.11260218 0.09134908 -0.068755805 0.070523694
000180 2b 30 93 3d 64 37 c3 bd 17 f1 d7 bb b9 52 f8 3c
       0.07186922 -0.09532049 -0.0065900194 0.030312883
000190 b5 fb 7f bd 08 d0 d9 3d 9f ec b6 bd 2a 63 ed bd
       -0.062495906 0.10635382 -0.08931851 -0.1159118
0001a0 71 0c eb 3b 90 4c e2 3d ff c8 7a bd 64 24 fb bd
       0.007173114 0.110497594 -0.06122684 -0.122628
0001b0 ca a4 fb bd e0 84 de bc 1f 61 ce bd 35 d0 c3 3d
       -0.122872904 -0.02716297 -0.10077118 0.09561197
0001c0 3b 4a a8 3d 39 e8 b0 3d 6e 5d 1b 3d 92 fc ad 3d
       0.08217283 0.08638043 0.0379309 0.084954396
0001d0 fa 0d 2d bd 8b 5f 04 bd 02 ce 9d 3d 80 0e 82 3d
       -0.042249657 -0.03231768 0.077053085 0.06350422
0001e0 ca b7 81 bc 41 39 ea bd 65 1f 64 3d 0a a1 d8 bd
       -0.015834708 -0.114367016 0.055694003 -0.10577591
0001f0 f9 dd 73 bd 26 9e f6 bb be b2 da bd 0b d7 17 3d
       -0.05953786 -0.007526177 -0.106786236 0.037070315
000200 0a 2b 47 3d c9 84 93 bd f6 7a 87 bc e3 23 d9 3d
       0.04862503 -0.07203061 -0.016538125 0.10602548
000210 8b 72 a8 3d f8 0b f8 bc 4a 8d a2 3d a3 1a 74 39
       0.08224972 -0.030279145 0.07937105 0.00023279576
000220 09 58 da bd b3 55 53 bd 3f f6 a8 3c 22 8b 8d bc
       -0.106613226 -0.0515954 0.020625232 -0.017278258
000230 bd d1 20 3d 05 fb dc bd e4 7c 34 3d d3 b9 d2 3d
       0.039262522 -0.10790066 0.044064417 0.102893494
000240 db 4f ae bd f5 2a 8d 3c 84 f7 b5 bd ec 6b 47 bd
       -0.08511325 0.017232398 -0.088851005 -0.048686907
000250 82 a1 7f bd e7 0a 0e bd 14 60 00 be d6 ff f8 bb
       -0.062409885 -0.034678366 -0.12536651 -0.0075988574
000260 9b ba 8f 3d 36 e7 d1 3d a1 b1 57 3c de 3e 65 bd
       0.07018014 0.10249178 0.013164909 -0.055968158
000270 dc b8 28 bd be e1 71 3d b7 fe cf bd 31 4d 2d bd
       -0.04119192 0.059053175 -0.10156005 -0.042309944
000280 85 46 11 3d b1 d0 0c 3d 3e 9c 48 bc ec 54 fe 3d
       0.035467643 0.03437871 -0.012244282 0.12418541
000290 e5 ef b1 bd b8 71 a8 bc 1c 4e 7d 3d 02 ed a2 3d
       -0.086883344 -0.020562038 0.06184207 0.07955362
0002a0 1f 6d 03 be bc 95 96 3d 13 c8 be 3d 82 ae d8 3d
       -0.12834595 0.07352778 0.09315505 0.1058016
0002b0 e6 8b 96 bd af 89 d1 3d df ae 94 3d 50 f9 67 bd
       -0.07350902 0.10231339 0.072599165 -0.056634247
0002c0 76 9b 35 bc e2 05 53 3d d9 31 30 3c 20 90 c1 3b
       -0.011084428 0.051519282 0.010754072 0.0059070736
0002d0 74 72 2d bd 56 62 47 3d 55 77 8b bd df 12 06 3e
       -0.04234548 0.048677765 -0.0680987 0.13093136
0002e0 79 bd b0 bc 3d ef a5 3c fa 60 d4 bc 8d 49 7f ba
       -0.021574723 0.02025568 -0.025925148 -0.0009738438
0002f0 a2 d8 aa 3c 7c 54 e1 3d 3a e1 2e 3d f7 88 f0 3d
       0.020855252 0.11002442 0.04269526 0.11744874
000300 5c 52 b9 3b 15 72 d8 3d 37 da 93 bd ab 3a 8a bd
       0.00565557 0.105686344 -0.072193556 -0.06749471
000310 6d c0 fb 3d b0 3f 57 3d d4 2b c3 bd bb c0 db bd
       0.12292562 0.05255097 -0.09529844 -0.1073012
000320 16 be ab bd 94 05 6b 3c 64 88 ed bd 81 02 d1 3d
       -0.083858654 0.014344592 -0.1159828 0.10205556
000330 30 4c 83 bd 5f 21 ba 3d 06 01 04 bd f7 7c aa bd
       -0.06411016 0.09088396 -0.03222754 -0.083246164
000340 8e d8 9d 3d db d1 ae bd c5 a8 1f 3d 0d 86 f9 3c
       0.0770732 -0.085361205 0.03897931 0.030459428
000350 c6 aa bf 3c a9 86 01 3d 8f 9f d3 3c bb 87 1a bc
       0.02339686 0.031622563 0.02583292 -0.009431775
000360 c2 54 01 bd 60 2d 82 bb 49 81 0d bd ce 88 e1 bd
       -0.031574972 -0.0039726943 -0.034547124 -0.110124215
000370 0c 80 34 bd 2b 28 38 bd ea ec ad bd ec 67 8f bd
       -0.044067428 -0.044960182 -0.084924534 -0.070022434
000380 bc fa b3 3d 12 76 66 bd b8 07 a8 bd ec dd 70 bd
       0.08788058 -0.056264944 -0.08204597 -0.05880539
000390 e2 f0 28 bd 12 a8 e7 3d 24 39 fe 3d de a0 5b bc
       -0.04124535 0.11311354 0.124132425 -0.013405053
0003a0 fc ef 95 bc 70 a0 56 3d cd 1c a2 bd 35 98 76 3d
       -0.01830291 0.0523991 -0.079156496 0.06020375
0003b0 7e cc a2 3d 6f 98 c4 bd 5c 9f 7c 3d df 4c 01 3e
       0.0794916 -0.09599387 0.061675414 0.1262698
0003c0 f0 18 47 3d f8 3a 66 bc d1 57 fe 3c e0 a7 eb 3b
       0.048607767 -0.014052145 0.031047734 0.007191643
0003d0 af e8 34 3d 15 5f a8 3d 6f c9 02 be 50 15 c2 3d
       0.044167217 0.082212605 -0.12772153 0.09476721
0003e0 7c cc bf 3d 9a e7 9c bd 20 a8 76 3d f5 d0 e2 bc
       0.09365174 -0.07661362 0.06021893 -0.02768753
0003f0 b2 d9 68 3d fe 60 fa bd 79 80 51 3d 66 bf 8e bd
       0.056848235 -0.12225531 0.05114791 -0.069701

fc2.bias f4 [64]
000000 06 30 9f bb 56 61 3a 3d d3 e8 8a 3d b0 d6 8b 3c
       -0.0048580198 0.045502983 0.06782689 0.017070144
000010 50 7a fb 3d 6f 10 86 3d 26 95 a7 3d ac 06 e9 bc
       0.12279189 0.06546103 0.08182745 -0.028445564
000020 30 79 96 3d 6a 5f 25 3d aa d6 de bd 82 4e 2a bc
       0.073473334 0.040374197 -0.10880788 -0.010394694
000030 88 3e e1 3d 36 ee af bb fa 56 47 3b 5d ce 5c 3d
       0.10998255 -0.005368973 0.0030416832 0.05390774
000040 bf d5 2a 3d 60 79 36 bd 55 0f 6c 3d f8 37 2e 3d
       0.04170775 -0.044549346 0.05763181 0.042533845
000050 09 0c 5c bd fb 26 f7 3d 99 db 93 bd a1 62 e9 3d
       -0.053722415 0.12067982 -0.07219619 0.11395765
000060 47 63 9b 3d ef e3 d7 bd 39 cd 4b 3c 0b b1 e5 3c
       0.07587295 -0.10541522 0.012439066 0.028038522
000070 3a e3 64 3d 22 eb d2 3d e2 57 d6 3d 1e 0f ba 3c
       0.055880763 0.10298754 0.10465981 0.022712287
000080 8a 47 eb bd 5a 15 14 3d b6 f5 4b bd fc f3 c4 3d
       -0.11488254 0.036153175 -0.049794875 0.09616849
000090 5e 31 c8 bd b7 a2 84 bd 17 de 14 bb 78 58 ef bd
       -0.09775041 -0.06476348 -0.0022715384 -0.11686796
0000a0 63 6b 61 3c e6 c4 cc 3d 3a 00 66 bb 7d 86 bc bd
       0.013758513 0.09998493 -0.003509535 -0.09205339
0000b0 f5 ec cd 3d b3 c6 62 bc 0c 26 b6 3c 06 09 a4 bd
       0.100549616 -0.013841319 0.022234939 -0.080095336
0000c0 2a ac a2 3c 76 1d b2 bb e4 85 db 3d e8 2a c3 3d
       0.019857485 -0.005435641 0.10718897 0.09529668
0000d0 ea 18 ec bd de 37 7a bd 57 5d 70 bd f3 71 c5 3d
       -0.115281895 -0.061088435 -0.058682766 0.09640875
0000e0 e0 97 48 bd 12 54 66 3d 54 0f b5 3c 3c 4b f7 bc
       -0.048972964 0.05623252 0.022102036 -0.030187242
0000f0 0c a8 17 bd d4 92 39 bd 25 ad fb 3d 58 c0 e7 bb
       -0.037025496 -0.04530604 0.12288884 -0.0070724897

bn.weight f4 [64]
000000 05 2f 83 3f a7 cb 7f 3f b3 cc 83 3f 76 3c 82 3f
       1.0248724 0.99920124 1.0296844 1.0174701
000010 d8 16 84 3f 26 f5 83 3f 1b 2b 84 3f 9e 95 83 3f
       1.0319471 1.0309188 1.0325655 1.0280035
000020 17 bd 83 3f 98 b9 83 3f fa 62 83 3f 76 92 83 3f
       1.0292081 1.0291014 1.026458 1.0279071
000030 b7 b0 83 3f 44 1e 84 3f e0 1a 80 3f 86 84 83 3f
       1.0288304 1.0321736 1.0008202 1.0274818
000040 f2 29 84 3f 00 00 80 3f d5 29 84 3f f2 06 84 3f
       1.0325301 1.0 1.0325266 1.031462
000050 7b e1 83 3f 09 6c 83 3f 69 aa 83 3f 00 fa 83 3f
       1.0303186 1.0267345 1.028638 1.0310669
000060 8c 19 83 3f 1f 65 7f 3f 55 90 83 3f 9a 12 84 3f
       1.0242171 0.99763674 1.0278422 1.0318177
000070 ae dd 83 3f a0 fc 83 3f b0 ba 83 3f 2e cb 83 3f
       1.0302026 1.031147 1.0291348 1.029638
000080 00 00 80 3f 77 e9 83 3f 93 24 7f 3f 2e bb 83 3f
       1.0 1.0305623 0.9966518 1.0291498
000090 44 d3 83 3f 1f 9c 83 3f 6b 4f 83 3f c1 1c 80 3f
       1.0298848 1.0282019 1.0258611 1.0008775
0000a0 69 e4 83 3f aa a9 83 3f 9e f1 83 3f 61 bf 83 3f
       1.030408 1.0286152 1.0308111 1.0292779
0000b0 4c 92 83 3f 07 05 84 3f ce e6 83 3f 1b c5 7f 3f
       1.0279021 1.0314034 1.0304811 0.99910134
0000c0 a2 9f 83 3f b5 b0 83 3f 96 1e 84 3f d8 cf 83 3f
       1.0283091 1.0288302 1.0321834 1.0297804
0000d0 00 00 80 3f b0 60 83 3f 73 00 80 3f 6f f7 83 3f
       1.0 1.0263882 1.0000137 1.0309886
0000e0 45 0a 84 3f f3 a1 83 3f 82 b6 83 3f e9 cd 83 3f
       1.0315634 1.0283798 1.0290072 1.0297214
0000f0 f0 02 80 3f 29 b7 7f 3f 23 c9 83 3f 62 c7 83 3f
       1.0000896 0.99888855 1.0295757 1.0295222

bn.bias f4 [64]
000000 23 5b 3f 3c 1d 61 ec bc e6 48 79 3c 0d f2 ec 3c
       0.0116794435 -0.028854901 0.015215134 0.028924013
000010 19 bf bb 39 45 44 94 3c 19 4b c4 bc 88 02 99 3c
       0.00035809798 0.01809896 -0.02396159 0.018677965
000020 31 57 be bc 50 33 b0 3c da 9d 82 bc a6 f4 d3 bc
       -0.023234935 0.021508843 -0.01594441 -0.025873493
000030 4f 74 cb 3c d8 ba 94 bc e4 26 1b bc 17 69 c4 bc
       0.024835734 -0.0181555 -0.0094697215 -0.023975892
000040 3d 46 cb bc 80 06 02 3d 7d 62 a5 3b d2 cc ab 3c
       -0.024813766 0.03174448 0.005047141 0.02097169
000050 d5 78 d0 bc ba e5 e0 3c 5e d3 81 3c 51 e1 bb bc
       -0.025448242 0.027453292 0.015847858 -0.022934588
000060 12 44 e1 bc 05 2b e9 bc e0 6a db bc 0d 52 25 bc
       -0.027498279 -0.028462896 -0.02678436 -0.010090363
000070 67 75 c2 bc a7 db d0 3c 1b 68 d5 bc 26 f7 b9 bb
       -0.023737622 0.025495363 -0.026050618 -0.0056752143
000080 c4 af f4 3c 16 98 cf 3b b9 a4 db bc 66 ba 88 bc
       0.029868968 0.0063352687 -0.026811944 -0.016690444
000090 37 7f 1a 3c 02 cc 7b 3c d5 1f d8 bc 76 a3 00 bd
       0.009429744 0.0153684635 -0.026382366 -0.03140589
0000a0 f7 34 da 3c 96 a9 d7 3c 78 84 b8 3c c6 14 d2 bc
       0.026636584 0.026325982 0.022524104 -0.025644671
0000b0 9f 94 5f bc f4 1a 9d 3c 26 b7 b8 bc d9 60 06 bd
       -0.013646274 0.019177891 -0.02254827 -0.032807205
0000c0 6b ec 8e ba e8 db 94 3a b0 a5 a1 bc e0 8c e0 3c
       -0.0010904198 0.0011357041 -0.019732326 0.027410924
0000d0 e9 03 f2 3c 45 c7 b5 3c 2a 90 04 3d 52 fa bb 3c
       0.02954288 0.022189746 0.032364048 0.02294651
0000e0 7b 8b c9 3b 7c a4 5c bc 25 4f 71 bc 3f 98 d9 bc
       0.0061506606 -0.0134669505 -0.014728342 -0.026561854
0000f0 bf db 06 bd 3f 4e c4 bc af 3f 9f 3b 4f 14 b8 bc
       -0.03292441 -0.023963092 0.0048598866 -0.022470621

bn.running_mean f4 [64]
000000 13 00 95 3c 49 36 a7 1d ad 73 51 3d 20 21 0b 3d
       0.018188512 4.426066e-21 0.051135708 0.033967137
000010 5c 08 4a 3d 30 c8 56 3d 70 03 e7 3c fb 6f 18 3c
       0.04932438 0.052437007 0.028199881 0.009304042
000020 11 bb 95 3d 4b 29 e4 3c 0d 93 8a 3d a8 31 1f 3e
       0.07311071 0.027851721 0.06766329 0.15546286
000030 d4 12 9c 3d 46 e4 ec 3c 37 ae 2c 1d 3a 00 4c 3d
       0.07620779 0.028917443 2.2854077e-21 0.049804904
000040 68 37 24 3e 00 00 00 00 73 09 84 3d 18 7e 2c 3e
       0.16036761 0.0 0.06447115 0.16844976
000050 a6 8a 62 3d f5 25 1a 3d 35 95 93 3d 90 f8 ca 3d
       0.055308007 0.037633855 0.07206193 0.09910691
000060 50 18 35 3e 26 4b 8e 2b fc 93 04 3e 7a 72 1d 3d
       0.17685056 1.0110565e-12 0.12947077 0.03843925
000070 95 69 9f 3d 8d 01 2b 3e 2d f2 c4 3d 3d 96 3b 3e
       0.0778381 0.1669981 0.09616504 0.1831903
000080 00 00 00 00 ae 14 88 3d e5 35 1b 36 d0 b6 dd 3d
       0.0 0.06644569 2.312817e-06 0.10825884
000090 db 70 6c 3c c0 63 44 3d 32 03 48 3d 25 30 ed 35
       0.014431204 0.04794669 0.048831172 1.7671888e-06
0000a0 92 ac 56 3d 04 b2 a5 3d 75 fc fd 3d e3 cd 42 3d
       0.05241067 0.080905944 0.12401668 0.04755963
0000b0 49 6e 0b 3e 48 41 04 3d f4 fa 44 3d a3 a6 4a 1a
       0.13616289 0.03228882 0.04809089 4.190723e-23
0000c0 6a a7 cb 3d 21 93 ba 3d 38 6e 39 3e e8 08 9b 3e
       0.09944041 0.09110094 0.18108451 0.30280232
0000d0 00 00 00 00 b6 98 18 3d dd 6e 9d 17 a3 72 c8 3d
       0.0 0.03725501 1.0173873e-24 0.0978749
0000e0 1c fe a4 3d 48 98 99 3d 83 e2 0a 3c 8d 47 b5 3c
       0.0805628 0.074997485 0.008476856 0.022128845
0000f0 49 5a c7 15 ac 2d 84 36 2e 67 8e 3e 49 8b 4d 3d
       8.0517905e-26 3.9392235e-06 0.27813095 0.05018166

bn.running_var f4 [64]
000000 37 45 4f 3a e7 e3 0b 1e fa 2a b1 3a a3 83 94 3a
       0.0007906737 7.405728e-21 0.0013516836 0.0011330735
000010 21 b8 42 3b 2f e5 05 3b fd 78 df 3a 05 36 15 3a
       0.00297118 0.0020430794 0.0017049607 0.00056919485
000020 e3 ce e7 3b 41 b2 27 3a 4e 23 3e 3b eb 48 f3 3a
       0.0070742234 0.00063971063 0.0029012742 0.001856116
000030 94 96 ba 3a 22 69 d0 3a 70 7c 0b 1e aa 75 b3 3a
       0.001423555 0.0015900473 7.384332e-21 0.0013691683
000040 6a 5f 5d 3b 23 f8 0a 1e a3 eb 05 3b e0 80 11 3b
       0.0033778795 7.356973e-21 0.002043464 0.002220206
000050 71 25 84 3b 4f 36 0a 3b 3e 2c df 3b f2 2c 7b 3b
       0.0040327837 0.00210895 0.006810694 0.003832635
000060 9f 0e ea 3b b8 c8 95 27 27 b8 da 3b 2f c2 03 3b
       0.0071428563 4.1573427e-15 0.0066747847 0.0020104756
000070 73 a0 00 3c 23 f5 15 3b ed 5b 00 3c ce e5 23 3b
       0.007850754 0.0022881709 0.007834417 0.00250088
000080 23 f8 0a 1e 28 b8 5b 3b 6f c7 f4 31 bc a6 6c 3c
       7.356973e-21 0.0033526514 7.1240076e-09 0.014444049
000090 8e 8b 66 3a 23 d1 59 3b 0d a0 ae 3a 95 eb ed 32
       0.0008794599 0.0033236227 0.0013322845 2.7697562e-08
0000a0 c2 fa 0b 3b 65 c0 08 3b b3 df 0e 3c df 59 49 3b
       0.002135918 0.002086663 0.008720326 0.0030723733
0000b0 de 8b 94 3c a5 3d 8c 3a 1b 57 07 3b c6 f8 0a 1e
       0.0181331 0.0010699524 0.0020651284 7.357104e-21
0000c0 26 03 56 3b 75 15 9d 3b 7c be 10 3c 78 4b 2a 3c
       0.0032655685 0.0047938176 0.0088344775 0.01039397
0000d0 23 f8 0a 1e ad 07 a0 3a 31 f8 0a 1e 85 16 b0 3b
       7.356973e-21 0.0012209319 7.356984e-21 0.0053737783
0000e0 95 67 a7 3b 95 92 f2 3b a3 f9 f4 39 ee b3 8e 3a
       0.0051087835 0.007402728 0.000467253 0.0010887363
0000f0 23 f8 0a 1e b6 bc 2c 33 13 91 25 3b c2 97 aa 3a
       7.356973e-21 4.0218502e-08 0.0025263473 0.0013015198

fc3.weight f4 [128, 64]
000000 09 29 8a bd d2 96 88 bc 1b e7 0e 3e 32 a0 d2 3d
       -0.06746108 -0.01667348 0.13955347 0.10284461
000010 51 bf c6 bc a8 d3 8b bc fe 95 c6 3c 1b e4 ae bd
       -0.024261149 -0.017068699 0.024241444 -0.085396014
000020 e3 ec 3b bd 38 39 6f bd 58 85 a5 bd a6 9e d6 bb
       -0.04588021 -0.058404177 -0.08082074 -0.006549674
000030 af f7 0a 3e 2d 0f e7 bd 73 f4 64 3d 6f 93 dc bc
       0.13571046 -0.112821914 0.055897187 -0.02692577
000040 e1 15 b6 bd 8a 1d fd 3d f7 1d cd bd fb b5 f6 bc
       -0.08890892 0.1235915 -0.10015481 -0.030116072
000050 64 12 c1 bd c7 c8 2c bd 26 dc 80 3d 09 e1 cc bd
       -0.09427336 -0.042183664 0.0629199 -0.100038595
000060 cc 18 ba 3c 72 34 02 be ff 96 cb 3c a7 84 46 bc
       0.022716902 -0.12715319 0.024852274 -0.012116588
000070 02 84 2e 3d 69 76 04 be 82 b3 c1 3d 57 36 c3 3c
       0.04260636 -0.12935795 0.094580665 0.023829622
000080 d2 43 85 bd 80 18 51 3d 65 b5 1b bd 63 88 0e 3e
       -0.06507076 0.051048756 -0.03801479 0.13919215
000090 3f 1f 03 3a 31 c1 f2 bd 2c ae c3 3d 65 18 f3 bc
       0.00050019094 -0.118532546 0.09554705 -0.029674718
0000a0 e0 e1 23 3d 29 fd a8 bb 2c cb 0d be 50 aa bc 3d
       0.040010333 -0.005157132 -0.13847035 0.09212172
0000b0 7d 9e 86 3d 92 4b 3d 3d 98 22 83 3d 8f 47 b9 bc
       0.06573198 0.046214648 0.064030826 -0.02261713
0000c0 5e 10 f5 bd 90 d5 b1 3d 86 71 82 3d af 18 58 3c
       -0.119660124 0.08683312 0.06369309 0.013189479
0000d0 ac 54 c5 3d 7d 3c 84 3c 86 02 99 bd b1 9d 6f bd
       0.096352905 0.016142124 -0.074711844 -0.058499996
0000e0 40 34 cc 3d 5d b4 a2 3d d9 69 5b 3d 60 a2 23 bc
       0.099709034 0.07944558 0.05356774 -0.009987444
0000f0 e9 85 b5 3d 76 4e e4 bd 5b 16 3d bd 06 83 e4 3d
       0.08863432 -0.11147778 -0.046163898 0.11157803
000100 d5 17 83 3b 9b d7 a9 3d 20 be 94 bd 44 3a cb 3b
       0.0040006437 0.082930766 -0.07262826 0.006202014
000110 65 41 13 bd 64 92 ca 3d 9c 16 3e bd 61 a8 c0 3d
       -0.035951037 0.09891203 -0.04640828 0.09407116
000120 d0 0a 59 3d f9 f8 bd 3d ba a0 40 bd cc 19 19 be
       0.052988827 0.092760034 -0.04702828 -0.14951247
000130 c8 6f cb 3d ae 60 a0 3b 95 36 28 3d f2 8b 2e bd
       0.0993343 0.0048943376 0.04106768 -0.04261393
000140 8b 1a b7 bd 11 3d 33 3b 9c 44 d8 3c f5 22 14 3e
       -0.089406095 0.002734963 0.026399903 0.1446646
000150 1a 11 0b bd 9b 40 63 3d dd b7 de 3d 46 2b 83 bd
       -0.033951856 0.055481534 0.10874913 -0.06404738
000160 e2 51 99 bd 44 df 04 3d ed 15 11 3b 42 9b d5 bd
       -0.07486321 0.032439485 0.0022138313 -0.10430004
000170 25 46 0a bd 73 29 c2 3d 77 52 09 be 1a e0 5a bd
       -0.0337583 0.09480562 -0.13410364 -0.053436376
000180 ec 09 ba 3b 36 20 9b 3d f0 a5 8a ba 13 d2 9e bd
       0.0056774523 0.07574503 -0.0010578018 -0.07754912
000190 9b e4 d5 3d 9d 70 e3 bc 91 7f b1 bc 88 a8 d9 bd
       0.10443994 -0.02776366 -0.021667274 -0.10627848
0001a0 25 ab ae 3d a5 46 03 3e 10 56 e4 3d 29 9a 52 3d
       0.08528737 0.12819918 0.111492276 0.05141655
0001b0 f9 17 ae bd 6d fe 10 3c 4e 3f 73 bd 62 82 f2 bd
       -0.08500666 0.008849722 -0.059386544 -0.11841275
0001c0 85 6e b3 3d 2d 59 2a 3d e2 db 10 bd 3b 33 d5 3b
       0.08761314 0.04158895 -0.035365947 0.0065063513
0001d0 01 86 01 bd 3b 4b 25 3d fd b9 77 3d 8a db 9e 3d
       -0.031621937 0.04035495 0.060480107 0.077567175
0001e0 71 94 3f 3d be 04 c8 3d f0 6d 2e 3d 6b 34 f6 bc
       0.046772424 0.097665295 0.042585313 -0.030054292
0001f0 34 0f 21 bd db 22 30 3c 77 f4 61 3c b7 ed a1 bd
       -0.03932114 0.010750498 0.013791195 -0.07906669
000200 e0 0f 9c bd c5 9a 0b be 93 c2 ff 3b c5 a8 c3 3d
       -0.076202154 -0.13633259 0.0078051775 0.095536746
000210 aa b4 95 3d 9e 85 a9 bd 7a 01 4c bd b0 e1 b2 bb
       0.073098496 -0.082774386 -0.049806096 -0.005459033
000220 cc b2 84 bc 6a a2 9f 3d 0b c8 13 be c0 32 f4 bd
       -0.016198538 0.0779465 -0.14431779 -0.11923742
000230 81 a9 df 3d 46 a5 fd bd 41 8e d9 3d cd 65 2f bd
       0.10921002 -0.12385039 0.10622836 -0.042821694
000240 b0 e2 c1 3c 41 e0 0b 3e c6 c3 3e 3c f7 6f f9 3d
       0.023667663 0.13659765 0.011643356 0.12179559
000250 08 04 ed bd 90 76 c2 bd 7a 88 c3 3d 56 95 e2 bd
       -0.115730345 -0.0949527 0.09547515 -0.1106364
000260 50 ba b6 bd 19 32 89 bd 20 e2 0f 3c de e3 08 be
       -0.08922255 -0.066990085 0.00878194 -0.13368174
000270 86 02 62 3d 8c 79 90 3c 78 47 9d 3d a6 36 a2 3c
       0.055178188 0.017636083 0.07679647 0.019801449
000280 bf 2b 88 bc 39 f5 03 be 9c e6 eb bd c6 84 51 bd
       -0.016622422 -0.12886514 -0.115185946 -0.051152013
000290 c6 69 df bd 9d c3 bc bc 4b e5 0e be 53 23 10 be
       -0.109088466 -0.023042494 -0.13954656 -0.14075975
0002a0 40 9f 3e 3d 1b df 56 3c 51 3e f9 3d 2a c4 95 bc
       0.04653859 0.013114716 0.12170089 -0.018282015
0002b0 1f 2d 43 bc fa ed b4 3b f3 fc b3 3d 5e ba f2 bd
       -0.011912613 0.005521533 0.087884806 -0.11851953
0002c0 29 43 95 bd b3 1f b0 bd 09 01 8d bc 20 ca e2 3d
       -0.072882004 -0.08599796 -0.017212408 0.110737085
0002d0 36 45 c2 bd 47 c8 f5 3c 26 2c a8 3d ad 27 5f bc
       -0.09485857 0.030002726 0.08211546 -0.013620299
0002e0 07 7e d1 bd 33 d8 e9 bd a5 28 fe 3c f6 b8 ee bc
       -0.10229116 -0.1141819 0.03102524 -0.02914093
0002f0 8d 10 2e bd f8 24 90 bc a8 d9 71 bc 02 e0 f0 3d
       -0.042496253 -0.017595753 -0.014761366 0.11761476
000300 b8 c8 72 3d df 6c d1 bb 1a 26 72 bd ec 32 a3 bd
       0.05927345 -0.0063911523 -0.059118368 -0.07968697
000310 2e 49 fd bd 21 13 6f 3c 1e 8e 52 bc b4 e4 06 bd
       -0.123674735 0.014591963 -0.012851266 -0.032932952
000320 c7 c5 ce 3d 72 ff 69 bd a6 a6 9b bc a7 92 5d 3c
       0.10096317 -0.057128377 -0.019000363 0.013523734
000330 2e d5 b3 bd 75 97 3d 3d 87 5a c7 bc fc d7 ee ba
       -0.08780895 0.04628702 -0.024335159 -0.0018222327
000340 cd 4e 9a 3d 5d 34 bf 3d 6c f4 25 3d 84 7a 06 3d
       0.07534561 0.093361594 0.040516302 0.032831684
000350 43 80 ed 3d c1 6f 86 3b 1d a2 32 3d 89 a8 06 bd
       0.115967296 0.0041026776 0.043611635 -0.03287557
000360 6c b5 a0 3c 83 cd 82 bd e1 8a 00 3e 10 7f 0b 3e
       0.019617759 -0.063868545 0.12552978 0.13622689
000370 1f 36 6f bd 5f e7 e5 3c 77 18 38 bd 86 f6 c7 3d
       -0.058401223 0.028064428 -0.044945206 0.097638175
000380 c0 b6 8a bd 30 ba 09 3e 27 8a d1 bd 8f ba 9d 3d
       -0.06773138 0.13449931 -0.102314286 0.07701599
000390 cf 9d 3e 3b 62 b2 51 3d 9c 71 a2 bd 99 75 96 bd
       0.002908576 0.05119551 -0.079318255 -0.07346649
0003a0 57 77 07 be 8a e2 c6 3d f8 9e 5b bd 1e 2c d4 bc
       -0.13229118 0.09711178 -0.0536184 -0.025899943
0003b0 bf 87 7c 3d 08 77 03 bd 01 52 27 3d aa 86 63 bb
       0.061652895 -0.03209594 0.04084969 -0.0034717717
0003c0 88 62 55 bd 04 f4 96 bd 73 05 0e bd 6f 7b 08 bd
       -0.05209592 -0.07370761 -0.034673166 -0.03332084
0003d0 15 41 16 3e 36 eb ea 3c 3f 04 40 3d 61 87 81 bd
       0.14673264 0.02867661 0.04687905 -0.063246496
0003e0 6b 31 a8 bd c9 72 08 3e d0 65 17 bd ac cd 5c bd
       -0.08212551 0.13325037 -0.03696233 -0.05390708
0003f0 51 5e 10 bd dd 44 e2 bd 90 3c 77 bc b7 16 ad 3c
       -0.035246197 -0.11048291 -0.015090123 0.021128995

fc3.bias f4 [128]
000000 7a d2 ba 3d ab 1a b8 3d 71 5e 8e 3c 8d 16 11 3e
       0.091221765 0.089894615 0.017379018 0.14168759
000010 96 54 8e 3d 63 11 7f bc 35 db 90 bc d0 70 01 3d
       0.06949727 -0.01556811 -0.017682651 0.031601727
000020 7f 63 2a bd 56 a4 71 3d 44 35 af bd a8 90 a7 bd
       -0.041598793 0.058994614 -0.085550815 -0.08181888
000030 a8 22 c6 3c d0 cd ba 3d 1e 29 7c bb 23 3b b7 bd
       0.024186447 0.09121287 -0.0038476656 -0.08946826
000040 e0 79 38 3d 3d cc 7c bc 48 f5 07 3e 53 3d 17 3e
       0.045038104 -0.015429554 0.13277161 0.14769487
000050 f4 65 76 3d 26 9e f6 3d 68 86 08 3e 45 13 a7 bd
       0.060155824 0.12041883 0.13332522 -0.08157972
000060 58 ca 9b bd 97 14 63 bd ec 27 d0 3d 88 88 a3 bd
       -0.076069534 -0.055439558 0.101638645 -0.07985026
000070 81 be 22 3d 60 f6 72 bd 5f 8f 20 3d 5d 44 97 bd
       0.03973246 -0.059316993 0.03919923 -0.07386086
000080 0f 5e e8 3d 63 2b e3 3d a8 8c 98 bd 52 03 51 bd
       0.11346065 0.1109226 -0.07448703 -0.051028557
000090 64 a9 d7 bd af a0 8f 3d 24 a3 c8 3c 90 e2 45 3d
       -0.105303556 0.0701307 0.024491854 0.04831177
0000a0 c1 6e db 3d 93 5e 49 bd 1a e0 b7 bc d2 12 91 3d
       0.10714484 -0.04916246 -0.022445727 0.07083668
0000b0 92 b6 78 3d b3 f7 95 bd 3c 6a 89 bd c9 d1 b0 bd
       0.060720988 -0.073226355 -0.06709716 -0.08633763
0000c0 e2 48 25 bd 0d 0b 7b 3d ef d4 ae 3d 55 b6 de bb
       -0.04035271 0.061289836 0.085367076 -0.006796638
0000d0 85 39 8d bd 8a 4c 69 bc a4 6b 1a 3e 58 e9 5d bd
       -0.068957366 -0.01423944 0.15080124 -0.054177612
0000e0 7a 74 b9 3d 0a 51 ef bc 61 fd a4 bc e7 f3 7b bd
       0.09055419 -0.029213447 -0.020140352 -0.0615119
0000f0 09 3c 5c bb ba 9e 06 3e 8e 3f 9a bd d1 0a 2c 3d
       -0.003360512 0.13146487 -0.07531653 0.042002503
000100 a6 6c be 3c 01 a2 08 3e aa b6 ac bd 52 c0 c4 bd
       0.023245167 0.1334305 -0.08433278 -0.09606995
000110 2d 10 04 bb 3d 7f 1b bd 07 11 5d 3d 2f 03 9c bd
       -0.0020151243 -0.03796314 0.053971317 -0.07617795
000120 df bc a4 bd 89 51 07 3e f9 9a 7d bc 96 59 ce 3d
       -0.08043837 0.13214697 -0.015478843 0.10075681
000130 6b b4 d9 3d 2d 70 ee 3d 9c a8 f3 3d 4b 67 81 bd
       0.10630115 0.116424896 0.11897394 -0.0631853
000140 06 d6 69 bd f5 cb 32 3d 32 7d 1d bd 49 61 07 3e
       -0.057088874 0.04365154 -0.038449474 0.13220705
000150 cf 15 fa bc 5d 8f f2 bc 85 c6 c9 3d 59 fb a0 ba
       -0.030527977 -0.029609377 0.09852318 -0.0012281939
000160 af 4e 85 bd 5a 2a db 3d 13 ba 6d bd bc 51 a2 3d
       -0.06509148 0.10701437 -0.058038782 0.07925746
000170 4b f9 20 3d 8e 20 e2 3d 8a e5 9d 3d 6e 00 05 3e
       0.039300244 0.110413656 0.07709797 0.12988445
000180 48 5d d4 3c 73 14 5c 3d c5 c0 0d 3e 39 bd 8d bd
       0.025923386 0.05373044 0.13843067 -0.06920857
000190 6e ee 02 3e 6a 91 84 3d f0 93 8f bc 9f 18 c8 bd
       0.12786266 0.06473048 -0.017526597 -0.09770321
0001a0 ad f4 f6 3d 0b 33 13 3e 31 98 b4 3d 72 d4 0a 3e
       0.12058387 0.1437494 0.08818091 0.13557604
0001b0 e9 ca 96 3d 71 da c1 3a d9 fa 9c 3d 48 3e d5 3d
       0.07362921 0.0014789832 0.07665033 0.1041227
0001c0 90 4f be bc 0a f7 e8 3c 9c 4e ba bd 49 d3 b9 3d
       -0.023231298 0.02843811 -0.09097025 0.090735026
0001d0 be a8 3d bd ab 6f c1 bc f5 22 0a 3e 5d 5e 04 3d
       -0.046303503 -0.023612818 0.13489898 0.032316554
0001e0 32 c8 3e 3d b0 95 a4 bd a7 d3 a4 3d a6 74 4e bd
       0.04657764 -0.08036363 0.08048182 -0.050404213
0001f0 df 39 97 bc eb 03 29 3c 25 c3 07 3e 9d 4d 73 3d
       -0.018460212 0.0103158755 0.13258035 0.05940019

fc4.weight f4 [196, 128]
000000 c6 7c 26 bd ae 43 22 3c b6 36 cb bc 73 11 be 3d
       -0.040646337 0.009903831 -0.024806362 0.09280672
000010 c7 e6 24 3d 30 72 c0 3d f3 20 a3 3d 82 0f 47 bd
       0.04025915 0.093967795 0.07965269 -0.048598774
000020 73 c1 20 3c 4e 07 6d bc 56 2b 63 3d 4f 67 a0 3d
       0.009811747 -0.014467074 0.05546125 0.078322046
000030 53 93 4a 3d ea 2c b0 bc 94 3a 8b bc d3 33 75 3d
       0.049456906 -0.021505792 -0.016995706 0.059863877
000040 f9 86 9a bc b1 d1 b3 3d 8c 00 b1 3b 96 00 d8 3d
       -0.018863188 0.0878023 0.0054016765 0.10546987
000050 52 bd 9a 3d ee 4a 92 3c 64 e6 53 bd 94 a0 0c bd
       0.07555641 0.017857995 -0.05173339 -0.034332827
000060 5c 8f 4e bd 84 8b 14 b9 6e e8 1f bd 17 4a 8c 3d
       -0.050429687 -0.00014166354 -0.03904002 0.06850069
000070 ca 79 35 bd 37 83 e0 3d 6e 77 73 bc c6 45 d8 bb
       -0.0443056 0.10962527 -0.014860017 -0.0066001145
000080 24 79 63 bb b9 91 37 3d 8a 21 8e bc 8e f9 12 bd
       -0.0034709657 0.044816706 -0.017349977 -0.035882525
000090 89 ad 9f bd 48 ac 0a 3d 37 d4 c1 bc f0 18 8e bc
       -0.07796771 0.033855706 -0.023660762 -0.017345876
0000a0 3e 64 12 3d fb 11 12 bd 3a 39 19 3d 9b 99 40 bd
       0.03574013 -0.03566168 0.03740809 -0.04702149
0000b0 0b b6 87 bb 88 42 0e bd 5d fd e4 bc e4 fe 7e 3d
       -0.0041415743 -0.034731418 -0.027952844 0.0622548
0000c0 11 be e7 3c b1 2e 7b bc 50 c7 d2 3c 97 79 80 3d
       0.028288873 -0.015330956 0.025729805 0.062731914
0000d0 25 6a 82 bd 60 9d 9c 3d 57 d5 0d 3d 92 47 d2 bc
       -0.06367902 0.076472044 0.034627285 -0.025668893
0000e0 98 06 c2 3d 2a ba 40 3d 9d bf 38 bd a2 2a af bc
       0.09473914 0.04705254 -0.04510461 -0.021382634
0000f0 e2 8c 56 3c d6 8f 29 bd 10 c8 b0 3c 9f 00 d5 bb
       0.0130951125 -0.04139694 0.021579772 -0.006500318
000100 d3 5c 95 3d a4 e2 b1 bb 46 27 a8 3d 6f 25 8e 3d
       0.072930954 -0.005428629 0.08210616 0.06940734
000110 36 c0 7a 3c 8f 58 60 bd ec 04 be bc fb 9b bf 3d
       0.015304616 -0.054771956 -0.023195706 0.09355923
000120 86 f9 25 bc 07 b9 b0 bb 70 59 45 3c 45 49 3f bd
       -0.010130292 -0.0053931507 0.012045249 -0.046700735
000130 8a 3e cb 3d 9a bd 22 3d 70 01 a1 3d 0a 4d 99 bc
       0.09924038 0.0397316 0.07861602 -0.018713493
000140 9b 1e 39 bc f5 55 00 bd 88 d3 f0 bb 8d b9 b4 3c
       -0.011298801 -0.031331975 -0.0073494352 0.022061134
000150 ef b9 71 3d f6 cc 5a 3c ae 71 51 3b b4 88 bf 3d
       0.05901521 0.013354531 0.0031958628 0.09352246
000160 42 b3 ea 3c 58 a7 08 3d a5 71 8d 3d 5f 30 85 3d
       0.02864993 0.033362716 0.069064416 0.06503367
000170 10 58 97 3c 15 69 89 bd 11 4e f0 3c 34 be 9f 3d
       0.018474609 -0.06709496 0.0293341 0.0779995
000180 be f1 86 3d b3 6e ca 3c 86 aa c4 bc 51 fa fc bb
       0.065890774 0.024710989 -0.024007093 -0.0077202697
000190 30 eb 4a bc fd 37 bc 3d f1 91 43 bd e6 02 13 3c
       -0.012385175 0.091903664 -0.047746602 0.008972859
0001a0 4e d2 85 bd 6f e9 25 bd 26 89 9c 3b 80 d5 b6 bc
       -0.06534253 -0.040505823 0.0047770916 -0.022318602
0001b0 d6 4e e4 3d 22 2b 2e bd ae 8f 7d bb a0 5c e3 bc
       0.11147849 -0.042521603 -0.0038690376 -0.027754128
0001c0 09 53 9d bc 6c 4a 4b 3d 83 81 87 bc b3 6c 3d 3d
       -0.019204633 0.04963152 -0.016541248 0.04624624
0001d0 06 5a e4 3c c0 09 1c bd ae 75 aa 3d a0 cb 89 3c
       0.027874958 -0.038095236 0.08323227 0.016820729
0001e0 cb 10 d1 3d 7d 03 88 3d e6 8f 74 3c 4c 82 40 bd
       0.10208281 0.0664129 0.014926886 -0.04699926
0001f0 28 4b e4 3d 65 53 28 3d 53 87 1f 3c 17 72 fa bc
       0.111471474 0.041095156 0.009736854 -0.03057198
000200 e9 13 be 3d 0a c1 1b bd 56 78 2b bc 86 f4 cc 3c
       0.09281141 -0.038025893 -0.010465702 0.025018942
000210 fa 2d a5 bb 03 76 a4 3c d3 35 b1 3d 10 30 5d 3d
       -0.005040881 0.020075804 0.08652844 0.054000914
000220 a0 07 8d 3c e1 b4 fe 3c 20 8c e3 3d 15 64 bc 3c
       0.01721555 0.03109211 0.11110711 0.022996942
000230 91 c7 d8 3c e6 5c 34 bd 99 17 04 3c 86 04 e2 bb
       0.026462348 -0.044033907 0.008062267 -0.006897512
000240 17 ce bc 3d 85 47 bc 3c 00 5b 7b 3c 98 2b b7 3d
       0.09218996 0.022983322 0.01534152 0.08943862
000250 17 02 81 bd cb 27 a2 bd c4 81 72 3d 09 22 8e 3d
       -0.06299227 -0.07917746 0.059205785 0.069400854
000260 81 4d 4b 3d a2 c9 1e bd 1a cf 4d 3d fe 48 65 bd
       0.04963446 -0.03876651 0.050246336 -0.055977814
000270 50 10 35 3d 91 ed 36 ba 81 ec a5 bd 8c b6 e1 3c
       0.04420501 -0.0006978149 -0.0810175 0.027552865
000280 48 6f fb 3c 2a 59 1b 3d 23 db f3 bc 60 fe 97 3c
       0.030692711 0.03792683 -0.029767578 0.018553913
000290 f9 e5 3a bd cf 81 99 3d 47 35 bb bc 65 94 69 3d
       -0.045629475 0.07495462 -0.022852553 0.057026286
0002a0 ba 63 21 bd df 17 c8 3c 30 a7 b0 3d e2 6a 76 bd
       -0.039401747 0.024425445 0.086256385 -0.060160525
0002b0 1f fc ca bc b6 c9 98 bc ee 5d e1 3a 26 02 30 bd
       -0.024778424 -0.01865087 0.0017194131 -0.0429708
0002c0 b5 ba 44 bb 13 c7 5d ba f3 d5 34 bc e5 cb 7a 3d
       -0.0030018513 -0.00084601453 -0.011037338 0.061229605
0002d0 51 f1 4f 3d 72 fa 1e 3d 18 e6 98 bd 2b eb bb 3d
       0.050767247 0.038813062 -0.07465762 0.09175714
0002e0 ff 8c e2 3c a2 fd a2 3d f0 81 8f bc 63 93 6a bd
       0.027655123 0.07958533 -0.017518014 -0.057269465
0002f0 50 0c 4c 3d 99 ec 53 bd d3 75 77 bd bd d9 58 3d
       0.04981643 -0.05173931 -0.0604151 0.052942026
000300 70 7a a2 bd 61 83 e9 3d d1 e8 98 bc 05 38 53 bd
       -0.07933509 0.11402012 -0.018665703 -0.051567096
000310 29 e5 31 3d 34 bb 9d bb d3 af eb 3b 60 c8 83 3d
       0.043431435 -0.004813576 0.0071925907 0.06434703
000320 3a c4 ab bc 9d 3b 9d 3d 79 93 b7 3c 2c 90 b2 bd
       -0.020967592 0.07677386 0.022409188 -0.08718905
000330 b8 55 bc 3c 81 8e 35 3d ec d4 c0 bd bf d6 99 bc
       0.022990093 0.044325355 -0.094156116 -0.018779157
000340 8a 99 88 bd e5 d8 77 3d eb 7d 8e bc 6c 87 16 3d
       -0.0666991 0.06050958 -0.017394027 0.036750242
000350 18 07 b1 bd 11 2f 82 3d 8c f9 d4 bc 30 2d 47 bd
       -0.08643931 0.063566335 -0.0259979 -0.04862708
000360 02 87 d2 3d 77 33 c1 3d fb 39 1a 3d dc 5c 7e 3c
       0.10279657 0.09433644 0.03765295 0.015525069
000370 71 4b 6d bd 56 a3 b1 3d 16 0f 76 bd 81 f4 9f 3d
       -0.057933275 0.08673732 -0.06007298 0.07810307
000380 85 76 56 bd 0f 0d 2b bd e0 b9 8b bd 4a 28 b2 bd
       -0.052359123 -0.0417605 -0.06822562 -0.08699091
000390 58 ec 9f 3d f3 2a 6b 3d 46 2f 03 3d 65 46 83 bd
       0.07808751 0.057414006 0.032027505 -0.06409911
0003a0 bc 21 e1 3d d2 db bc 3d 23 48 72 bd 24 54 87 3c
       0.109927624 0.09221615 -0.059150826 0.016519614
0003b0 0a 57 59 bc 64 4a 8f 37 15 46 b4 3d 15 88 9a bd
       -0.013265381 1.708157e-05 0.088024296 -0.07545487
0003c0 00 00 8c 3d 28 ec 29 bd 08 6e 2a bb 4a 08 9c bc
       0.068359375 -0.04148498 -0.0026005525 -0.019046921
0003d0 35 38 67 bd 20 9b 90 bd 76 e7 74 3d 09 74 81 bd
       -0.056450088 -0.07060838 0.05979105 -0.0632096
0003e0 e2 53 9e bd 54 43 02 3d 0b a4 27 bd 01 d5 49 3b
       -0.07730843 0.03180249 -0.040927928 0.0030797126
0003f0 25 4d a1 3d 45 a7 b2 3d 4b 60 94 3d 8e 14 29 3d
       0.07876042 0.087233104 0.07244929 0.041279368

fc4.bias f4 [196]
000000 0b 98 bf 3d 85 ab 9c 3d a9 90 29 3d 55 9c 46 3d
       0.09355172 0.07649902 0.041397724 0.048488934
000010 25 aa 85 bd 2e db c3 3d e5 6d a3 bc 80 a8 97 bd
       -0.06526593 0.095632896 -0.019949863 -0.07405186
000020 02 1d 81 3d f5 82 87 bd 18 83 3a bd 2d a9 4a 3d
       0.06304361 -0.06616775 -0.045535177 0.049477745
000030 fd 02 67 bd 84 d2 14 3b d0 5a 24 3d 42 24 96 3d
       -0.056399334 0.0022708485 0.040125668 0.073311344
000040 3d 66 5e bd 33 a5 67 3c 1b 47 a5 3c 8b fb 81 3d
       -0.05429672 0.014138508 0.020175507 0.06346806
000050 17 46 9f 3d fe ee 0a bc 80 9d 92 3c 96 31 a7 3d
       0.077770405 -0.008479832 0.017897367 0.08163755
000060 55 b5 1a 3d 03 cf 77 3d 5d 4d 67 bc 05 22 86 bd
       0.037770588 0.060500156 -0.014117566 -0.065494575
000070 51 20 9b 3b 25 bb 08 3d d3 d2 eb bc 69 d7 21 3d
       0.004734077 0.0333816 -0.028787052 0.03951207
000080 1d c6 a1 bd de 76 03 3d 9f 4f 08 3d ce 4e f0 3c
       -0.07899115 0.032095782 0.033279058 0.029334452
000090 bb f2 db 3c 24 51 64 bc dd b2 bc 3d e8 c2 6f bd
       0.026849141 -0.013935361 0.09213803 -0.058535486
0000a0 95 0c f2 bc 75 53 b5 3c f8 7f 20 3d b9 f6 56 3d
       -0.029547015 0.022134522 0.03918454 0.052481387
0000b0 ab 62 89 bc da b7 2f 3c 9f 43 bd 3c b3 8e 9c bd
       -0.016770681 0.010724986 0.023103533 -0.07644405
0000c0 bf b1 0f 3d 7d f4 36 3c 48 0b ed 3c 80 c8 96 bc
       0.03508162 0.011166689 0.028936043 -0.018406153
0000d0 69 3a 93 bd 0b 7b 25 3d 90 f8 7c bd a5 25 34 bc
       -0.07188875 0.040400546 -0.061760485 -0.010995303
0000e0 eb 1a eb 3c c9 24 6a 3d d8 25 53 bd cc 9c c9 3d
       0.028699359 0.057163987 -0.051549762 0.0984436
0000f0 0c 36 23 bd 0c ca a2 3d 9d 85 8b 3d 1d 4e e7 bc
       -0.039846465 0.07948694 0.06812594 -0.02823549
000100 e5 4c 5b bd 93 a9 4c 3d 37 d9 4b 3d 86 f8 6e 3a
       -0.05354013 0.049966406 0.0497677 0.00091160124
000110 55 54 17 3d 7f 3b 2f 3d 2c 7e 56 3d 4c cb 83 3d
       0.03694566 0.04278135 0.05236642 0.0643526
000120 4c 0e fe 3a f5 4f 88 3d 0e 2e a8 bd ed 06 2e bd
       0.0019382923 0.066558756 -0.08211909 -0.042487074
000130 ea ab c9 3d 23 11 71 3c 71 cd c4 3b fb 8d fb bc
       0.09847243 0.014713558 0.006005936 -0.03070735
000140 e3 8b b2 3d d5 70 9d 3d 63 51 27 bd c2 f6 8d bd
       0.087180875 0.076875366 -0.0408491 -0.06931831
000150 5f ed 90 ba f5 67 7d 3d b3 9b 03 3d 35 7a 4b bd
       -0.001105707 0.06186672 0.03213091 -0.049677093
000160 ae bc 54 bd ef 2a d0 3b c8 c5 a2 bc 79 3b c8 3d
       -0.05193775 0.0063527743 -0.0198697 0.097769685
000170 3e 03 c1 3c c4 cf 65 3c 27 29 9c 3d 81 a2 a4 bd
       0.023561116 0.014026586 0.07625037 -0.08038808
000180 ff ef 7f 3d 14 e9 f0 bc b6 f6 25 3d c3 6c 7e bd
       0.062484737 -0.029408015 0.040518485 -0.062115442
000190 b1 87 9c bd 9a 5f d9 bc 88 5b 81 3d 40 36 5c bd
       -0.076430686 -0.026534844 0.06316286 -0.053762674
0001a0 bf 5f 86 bd 5d 3b d2 3c 94 07 ae 3c 56 da 86 bc
       -0.06561231 0.025663072 0.021243848 -0.016461533
0001b0 df d1 de 3d 2f 7a 7d bd 01 30 4b bd 0c 31 7a bd
       0.108798735 -0.0618841 -0.049606327 -0.06108193
0001c0 15 ab cb 3d 0a 49 c4 bc 41 75 d5 bc 59 65 31 bd
       0.09944741 -0.023960609 -0.026056888 -0.043309543
0001d0 d3 86 40 bd ef 76 db 3d 62 09 4e 3d 7a 45 e5 3c
       -0.04700358 0.10716044 0.050301917 0.02798723
0001e0 44 3e ea bc f1 39 86 3c 35 30 0e bc da e1 05 3d
       -0.028594144 0.01638505 -0.008678486 0.032686092
0001f0 2a 2b b5 bc 16 f5 3b bd db 56 a6 3d 37 58 97 3d
       -0.022115309 -0.04588803 0.08122035 0.073898725
000200 4e f9 89 bc 8f ea 17 bd 4f 3a 77 3d 0b f8 29 3d
       -0.01684251 -0.037088927 0.06035834 0.041496318
000210 e1 cf 57 bc 55 0b 3e 3d f4 08 57 bd 08 3f ef ba
       -0.013172121 0.046397526 -0.052498773 -0.0018253038
000220 64 f5 93 3d 76 f7 96 3d 86 fa 3a 3d 6d 7b d0 3d
       0.07224539 0.07371418 0.045649074 0.101797916
000230 dc 8c 29 3d 90 dc 9a 3d 5c 3e 9d 3d 9a e7 07 3d
       0.0413941 0.075616 0.0767791 0.033179857
000240 e9 48 5c bd 70 d4 a9 3d 11 ed 2a 3d 7c 1e 4f bc
       -0.05378047 0.08292472 0.04172999 -0.012641545
000250 d9 55 38 bd bd 4d b6 3c d8 42 1a bd a3 92 63 3d
       -0.045003746 0.022253865 -0.037661403 0.055559766
000260 5f bd 6c 3d 09 5c 25 3d 7f a5 85 3c 08 44 52 3d
       0.057797786 0.040370975 0.016314266 0.05133441
000270 f9 d1 f1 3c a5 46 78 3d 37 7c a2 bd 7e d2 c5 3d
       0.029519068 0.060614247 -0.07933848 0.09659289
000280 4f 7b 01 bd ef 61 86 bc f5 b1 08 3d 30 a7 32 bb
       -0.031611737 -0.01640412 0.033372838 -0.0027260296
000290 e4 c3 6b 3d 67 41 bb 3d 15 d8 4d bd fe 11 a9 3d
       0.057559863 0.09143334 -0.0502549 0.08255385
0002a0 c3 b3 0a bc b5 1f bf 3c 3a ea 23 3d 76 af 99 bb
       -0.00846571 0.023330549 0.040018298 -0.004690106
0002b0 58 bc d1 3a de 4f 0a bd 44 fe 7d bd 2f 7d 12 3b
       0.0016001565 -0.033767574 -0.062010065 0.0022352447
0002c0 d7 78 c8 3d 3c 95 c9 3d 17 6f c2 3c 73 ea 8c bd
       0.09788673 0.09842917 0.023734612 -0.06880655
0002d0 5b 3c 03 3b 87 fd 98 bd 21 cd c8 3c bb 6e 84 bd
       0.0020024988 -0.074702315 0.024511876 -0.06466433
0002e0 81 ab c7 bb fd 8c a0 3d ed 03 b5 3d 18 4d 35 bb
       -0.006093443 0.078393914 0.088386394 -0.002766436
0002f0 10 1d 39 bd 4b 0d 6d 3d 1e fd 8a bd 6a 69 0a 3d
       -0.04519373 0.057874005 -0.067865595 0.033791937
000300 ca 14 c4 3d ea 02 48 3d 46 72 4b bd b7 4f b4 bc
       0.09574278 0.048830904 -0.049669527 -0.022010667
